ML Agent Practice/results/ppo/MoveToGoal/MoveToGoal-33293.pt (torch, 441756 bytes, 36 tensors)

network_body._body_endoder.seq_layers.0.weight f4 [128, 6]
00000000: 0591 62be 42f2 623d 3156 863f 5bf1 243f
00000010: 8841 a53e 53a7 f53e 111b 89be f97e e0bd
00000020: da1b 83be fe57 cdbe cbca f4be 3c6d 20bf
00000030: 799c f43e c623 84be 0261 cebe 89f7 7b3c
00000040: e714 62bf 91fd cabd 6604 493e 7cd1 233f
00000050: 869f cfbd e377 ba3e 2f65 4abe 9855 d73e
00000060: 08f4 523f 520a b23e 3476 8b3e 3cdb c5be
00000070: 773a 37bf ec51 2dbe 76a7 433d 17df 32bf
00000080: 05e0 2fbf ebde 6cbf 7641 e43d 13ab 87be
00000090: 5278 333e daeb 7abb 9da0 a5be b462 58be
000000a0: 288b 473f 06a6 f3be 8020 92bd eb75 5fbf
000000b0: 16d9 60be a131 16be 97ac c13d 0189 3ebf
000000c0: 7279 4cbf 2490 d9be ae3f 443e b9f1 03bd
000000d0: 2300 cebe 9067 0cbf a213 6cbe aa16 6dbf
000000e0: f7f6 31bf 5c7d 183e 585e 62bd 1773 913e
000000f0: 5fc3 8fbe 6305 0ebf 5906 093d dbac 09bf
00000100: 062e c83e 3be8 2d3f fb2b 2bbf 4eb2 3b3e
00000110: 4438 57be a680 cabe 77e7 823e 70b1 ac3e
00000120: 7503 93be a41b 8fbe 6c79 183e f432 813d
00000130: 252f 2ebf 40ba 8dbe efe6 de3e cb4e 7c3e
00000140: 17e4 2a3e 9028 c23d 1ca9 f4bd 7c5e a8bd
00000150: 979e 7d3d 1358 b03e 4fd5 c1be 5b69 bebe
00000160: cd19 d3be 3711 aebe b838 443e 3aab 093d
00000170: ad15 ca3e 42d0 003f dbc7 3abf 6efa b63e
00000180: 6125 a13e 9458 abbd 1d0e cebd fabe 99bd
00000190: 71a6 e73d 4730 a23e ebc8 3b3e a7cc 063f
000001a0: 6f91 0cbf 4196 083f d040 ea3e 2f1b 9a3e
000001b0: 9607 603b ec27 753e b202 0f3f 331f babe
000001c0: f2ea d53e 38fc 8abd b6a8 4d3e a19f f33d
000001d0: 6796 4ebe ac07 8dbe b6f3 793e f11a 933b
000001e0: df67 cc3d 3512 bb3c 07f8 09bd b0b9 633d
000001f0: 6d57 81be 7c8f 38be 9217 53be f093 0c3e
00000200: 5f08 b23e 578d 023f 7355 d6be 35da 553f
00000210: e4a3 7abe 30bb 713e 96f7 2ebf 5582 1cbf
00000220: bd06 0a3f 1aef 893e f25f d9be f0a6 69be
00000230: 52a9 19be f6a6 0a3d ce76 5fbe d699 8bbd
00000240: 5466 74be 2f0c 923e a2c2 863e ff91 423e
00000250: b179 2b3f 8d61 d2be 4f9d 59be 2315 d93c
00000260: b573 ea3a 6688 c9bd 20ac 0d3f b38a babe
00000270: d871 9bba 3547 4abd 47fe 3f3e 2298 fc3e
00000280: 6065 c03e db3a 27be 23d6 94be cd65 a73e
00000290: 46fb 48be 2807 143e e093 423f dedc a13e
000002a0: a23e 1b3f c5c2 b6be 155b 4dbe 9978 ed3e
000002b0: 53cb 643d 683c c03d 2785 5d3e 088e a53d
000002c0: 255e b53e fee4 1fbf f8fb 9ebe ebcf a8be
000002d0: 00fe ac3e 0cc6 c4bd 5f0e c6be 53ca c2be
000002e0: c37f 483f 8a5b dabc 72d7 863f 8d80 33bf
000002f0: bad6 a93e f041 91be 0b72 053f 1ba2 7f3e
00000300: 5d35 5f3e 7399 15bf 5e53 ea3b 2f50 adbd
00000310: a74f e3be ca58 0e3e d2c4 3c3e 3b47 83be
00000320: 99e7 693e 370e d9be ad9a d73d d014 fdbe
00000330: 62bb 8fbe f9d1 3dbe abe3 fcbe 69aa 6bbe
00000340: a20f d03d c03b f23d 1691 0ebf 806e d03e
00000350: a536 873e 3e86 9dbe 051f fabe 1670 053f
00000360: 5619 0c3f 8835 f53e ab49 8bbe fb72 78bd
00000370: b050 8fbe c7a4 d7be 06a2 603e 1c05 1d3e
00000380: f272 cfbd 789a 5d3d a1d6 1c3e acbb 8bbf
00000390: ca54 503e 925b 5c3e 63ad a23d 2d9a 083e
000003a0: 3aaf b0be f002 173f 8d49 753e 8bfe bc3e
000003b0: 2068 92be 6139 53bf 8e50 1bbf ac38 3d3f
000003c0: 38d9 aa3f 305f f0bc 6ce8 1f3e c94d 30bf
000003d0: d197 66be 05ae 813e 2c1a d3bd d484 163f
000003e0: 8898 ee3e f4d2 b63b a22d 153f 9832 f23e
000003f0: 8801 133e 09d2 1c3f f484 8b3d 8bf5 f63e
-0.22125633 0.055406816 1.0495054 0.6443078 0.3227656 0.4797922 -0.26778463 -0.10961718
-0.25607187 -0.40106195 -0.4781097 -0.6266668 0.4777563 -0.25808543 -0.40308386 0.015378841
-0.88313144 -0.09911645 0.19630584 0.6399152 -0.101378486 0.3641959 -0.19765161 0.4205749
0.8240361 0.347735 0.2723862 -0.38643825 -0.71573585 -0.16925782 0.047767125 -0.6987166
-0.687012 -0.92527646 0.11145298 -0.26497707 0.17526367 -0.003828755 -0.323491 -0.21131402
0.7794671 -0.47587603 -0.07135105 -0.87289304 -0.21957812 -0.1466737 0.09456747 -0.744278
-0.7987281 -0.42492783 0.19164917 -0.032212947 -0.4023448 -0.54845524 -0.23054364 -0.9261271
-0.69517463 0.14891571 -0.055265754 0.2840812 -0.28078744 -0.5547697 0.03345332 -0.5377938
0.39097613 0.6793248 -0.66863984 0.18329737 -0.21017557 -0.39551276 0.2556722 0.33729124
-0.28713575 -0.27950776 0.14890069 0.06308547 -0.68040687 -0.2768116 0.43535563 0.24639432
0.16688572 0.09480393 -0.119463176 -0.082211465 0.06191882 0.34442195 -0.37858054 -0.37189755
-0.41230622 -0.3399751 0.19162261 0.03361056 0.39469662 0.50317776 -0.72961205 0.35737938
0.3147383 -0.08366504 -0.10061286 -0.07507129 0.11311043 0.31677458 0.18338363 0.52656025
-0.54909414 0.5335427 0.45752573 0.30098864 0.003418421 0.2394101 0.5586349 -0.36351928
0.41780812 -0.06786388 0.2008389 0.11895681 -0.20174561 -0.27544916 0.24409375 0.0044892957
0.09980749 0.02283583 -0.033683803 0.055597007 -0.25262013 -0.18023485 -0.2061446 0.13728309
0.34772012 0.5099692 -0.41862068 0.8353608 -0.24476582 0.23606563 -0.68346536 -0.6113637
0.5391653 0.26940233 -0.42456013 -0.22817588 -0.15005997 0.033850633 -0.21822664 -0.06816451
-0.2386716 0.2852492 0.26320368 0.19001006 0.6698256 -0.4109005 -0.21251415 0.026499337
0.0017887267 -0.09840469 0.55340767 -0.36433944 -0.001185949 -0.049384315 0.18749343 0.49334818
0.37577343 -0.16331045 -0.29069623 0.32694855 -0.19627103 0.14455855 0.7600689 0.3161382
0.60642445 -0.35695472 -0.20054276 0.4638107 0.055857968 0.093865216 0.21632825 0.08083731
0.3542339 -0.6245879 -0.31051612 -0.3297113 0.33787537 -0.09608087 -0.3868284 -0.38044986
0.7831995 -0.026654977 1.0534499 -0.7011803 0.33171636 -0.2837062 0.5212714 0.24964182
0.217977 -0.5843727 0.0071510514 -0.084625594 -0.44396707 0.13901058 0.18434456 -0.25640282
0.22842254 -0.42393658 0.10527549 -0.4942994 -0.2807265 -0.1853713 -0.49392447 -0.23014225
0.10159232 0.11827803 -0.55690134 0.40709305 0.26408878 -0.3076648 -0.4885179 0.52124155
0.5472616 0.47892404 -0.27204642 -0.06065653 -0.27991247 -0.42117903 0.21936807 0.1533398
-0.10129346 0.05410239 0.1531625 -1.0916648 0.20344844 0.21519306 0.07943227 0.13340063
-0.34508687 0.5898886 0.23953839 0.3691295 -0.28595066 -0.8250943 -0.6066979 0.739146
1.334754 -0.029342264 0.15616006 -0.6886869 -0.22518851 0.2532808 -0.10307726 0.5879643
0.46600747 0.005579347 0.58272755 0.47304225 0.14356053 0.6125799 0.06812468 0.4823421

network_body._body_endoder.seq_layers.0.bias f4 [128]
00000000: 5073 4fb6 7852 503b 5a75 54bb 65cf bd3a
00000010: 8150 9fb8 7f14 deba 6cf9 273b d362 22bb
00000020: d468 ab38 6fec 90b9 aa4c 93ba 220f 6aba
00000030: 4769 06ba 6cac 313b d31d 9d3a 948d a539
00000040: 3a34 b03a 30d2 0a3b d944 dab9 61c8 3eb9
00000050: 63ea c83a 83c2 d8b9 09cd d2b9 7572 4039
00000060: a9fc 1eba 5f94 1939 1802 02bb 2d4e 8c38
00000070: 373a 7abb 88c6 1f3b 7fc6 cf3a 0c33 2abb
00000080: fccb 42ba 206c 0739 41c2 333a 2768 84ba
00000090: 652a 9bb8 0731 9bba af6e 14ba ee16 243b
000000a0: affb 533a 687a 153b cdf2 72ba 6fc6 57b8
000000b0: 4201 79b9 60c0 31b6 1258 07b7 ecf4 3aba
000000c0: 184d b539 3022 a7b8 7ba6 3e3b 651e e7ba
000000d0: 2f8f 593a a976 deba 3076 dbba af16 9cb9
000000e0: deab 03ba 4b25 1eba 9843 283a e294 e03a
000000f0: c4d2 00ba 5c86 bab9 8fbc 533a c7e7 18bb
00000100: 8bd9 baba d7a6 f339 67bb 1239 92c7 7aba
00000110: 8156 8c39 d4b4 18b8 be62 5bba 212f afba
00000120: d546 5c3a ef34 5c3a 13e9 5239 27c7 bfba
00000130: a22f 91bb d238 f1b7 1603 7939 2a07 f3ba
00000140: 0a60 f1ba c876 6e38 f512 53bb 895b 233b
00000150: 1c33 97bb 0c7e ef38 f284 543b ac33 b7ba
00000160: cf63 44ba 3c6e 113a 2681 983a 116c 9939
00000170: 5a3a 38bb ea9d 1cb7 3081 3138 3c88 15ba
00000180: ea34 953a 4d7e aa39 f8ac 1539 0d3d b9bb
00000190: 0274 afba b422 fcba f183 a1ba 882a 09ba
000001a0: 94f6 31bb 3c66 16ba a09a 80b9 21e4 8bba
000001b0: 9da0 8f3a f623 043a 8bf4 3439 9c33 0038
000001c0: 47ba 8438 24b4 903a 0c5d c33b 283f a4ba
000001d0: 3731 0fba 3f39 333a c966 03ba 9d4b 59ba
000001e0: 84db 943a f7ea 6bbb ef21 aeba 2ed6 f0b9
000001f0: 7a35 8839 8d09 2dbb 1658 9e3a ac08 ccb9
-3.0912524e-06 0.0031787436 -0.003241858 0.0014481364 -7.596706e-05 -0.0016943364 0.0025630845 -0.0024778142
8.173441e-05 -0.00027641977 -0.0011238058 -0.00089286466 -0.0005127382 0.0027110828 0.0011987038 0.00031576736
0.0013443299 0.002118241 -0.00041631496 -0.00018194459 0.0015328642 -0.00041343653 -0.00040207084 0.00018353185
-0.0006064871 0.0001464649 -0.0019837674 6.6902816e-05 -0.0038181671 0.0024379808 0.0015852003 -0.0025970368
-0.0007430909 0.00012914883 0.0006857254 -0.0010101841 -7.3988725e-05 -0.0011840173 -0.0005662245 0.0025038081
0.0008086515 0.0022808556 -0.00092677475 -5.14448e-05 -0.00023746959 -2.6487032e-06 -8.0671325e-06 -0.0007131833
0.0003458045 -7.9695485e-05 0.002909093 -0.001763296 0.0008299229 -0.0016972619 -0.0016743597 -0.0002977154
-0.00050228636 -0.0006032779 0.00064187637 0.0017134214 -0.0004914219 -0.0003557679 0.00080771087 -0.002333151
-0.0014255507 0.00046472877 0.00013993458 -0.00095664815 0.0002676733 -3.6408033e-05 -0.0008368901 -0.0013365486
0.0008402889 0.00084002217 0.00020113988 -0.0014631496 -0.004430727 -2.8755898e-05 0.0002374764 -0.0018541564
-0.0018415463 5.6854245e-05 -0.0032207344 0.0024926385 -0.004614247 0.00011419886 0.0032427874 -0.0013977191
-0.0007491679 0.0005547737 0.0011635169 0.0002926295 -0.0028110952 -9.335092e-06 4.2320404e-05 -0.00057041994
0.0011383567 0.00032519028 0.00014274183 -0.00565303 -0.0013386013 -0.0019236417 -0.0012322647 -0.0005232473
-0.0027155029 -0.000573728 -0.00024529267 -0.0010672846 0.0010957901 0.0005040759 0.00017257237 3.0565643e-05
6.328947e-05 0.0011040014 0.00596202 -0.0012531029 -0.00054623507 0.00068368384 -0.00050125696 -0.00082891603
0.0011356925 -0.0035998204 -0.001328526 -0.00045935943 0.00025979785 -0.0026403398 0.0012080695 -0.00038916373

network_body._body_endoder.seq_layers.2.weight f4 [128, 128]
00000000: 5036 f0bd 61ae fcba ff5d 5ebd 9f0e fbbc
00000010: 5228 943d 8af9 a5bb 0abf a93d c567 ae3d
00000020: 8180 b73d f156 11bd 51ee 2abe 087d 2f3d
00000030: a854 133e 5a94 7a3c c152 063e 33cd f2bc
00000040: c28a a8bd 5522 f8bc fff7 663d 7df2 4a3e
00000050: 3b52 183e 0f1f 0ebd 81b7 a23d de9b b93d
00000060: 798a ecbb 8977 e6bc 49f5 d3bc 56d2 b23d
00000070: 6050 b0bd 110c 0b3d 7117 1c3d 3bed 163e
00000080: 05ac 8d3d 5bd8 df3c 2645 5e3d 4496 043e
00000090: 2a23 76be 98b5 553e 2378 993d 1b68 a8bc
000000a0: c5d0 e3bc 0fcc 053e 137e 253d 5fcf e6bb
000000b0: ed7a 7dbc ded6 febd 8718 2f3e e303 efbd
000000c0: 9f02 86bd ff93 0abe 449c 86bd ed10 9c3d
000000d0: 23d2 bfbd d0d4 a13d 7255 a5bd cdb5 7f3d
000000e0: 0d7b d6bd ac73 3b3c 4ab7 8e3d 33f9 fdbc
000000f0: e073 b83d d1d2 b4bd 6b23 b6bd 1547 563d
00000100: 4c77 133c 1be3 af3d f5fc 203c d373 cbbd
00000110: 622c 4e3d 12da d73c 044b c73c fef5 5b3d
00000120: 1f62 0f3e 740f b13d d78f 763c b219 41bd
00000130: 4a2e cb3c bbb8 293d 2436 fc3d b319 583d
00000140: 4c2c 0cbd fc30 5fbd 88de 083d e0f1 49bd
00000150: ffcd 05bd 3bb3 243e d0df b03d bba7 2ebd
00000160: de95 b13d 7b62 1abe 0bf7 27bb 47e6 02bd
00000170: 4c4d a23d 0a41 b93c f408 45bd 0a00 2a3d
00000180: 48c5 ba3d 077a 90bd ec46 343d 0389 cbbc
00000190: cf53 23be 3abb 8abe 5e61 bf3d 0bb3 743e
000001a0: 2cf0 b63d 9c67 863c 4e00 e8bd 1ef4 5abd
000001b0: 02dc 983d ed40 e9bb d6bb 10be ad12 b53c
000001c0: 4b40 3dbe a0ee 293e d3f5 983d 8c24 91bd
000001d0: 8a8b 0a3d 71aa 553d 246a 82bd 09ee 02be
000001e0: 6128 61bd ead5 183b d6ff 94bd 978c 413c
000001f0: 869d ccbc 43b2 5f3d b609 15be 31c2 80bb
00000200: 6bd7 6b3d edf7 3d3d ad5f 563d 933b bebc
00000210: c721 1fbd 6558 cfbc 4bb8 da3c d853 ac3d
00000220: 91a4 be3d 858b 5c3d a66e 8cbc 6112 b0bd
00000230: e91d e03d ff25 92bd 10b6 973d 6993 5abe
00000240: 4527 fd3d 5483 5a3b b012 2cbd fcfd 10be
00000250: d3db 04bc 8e17 d8bd af00 31bd 4e87 84bc
00000260: ba58 94bd 1a81 f7bd 9bc7 e0bc d7c4 4c3e
00000270: 8cdf 17bd 188d 093d 62f0 e6bd 07d1 cdbc
00000280: 500e dfbc 84fc 3f3c 6fe0 eb3c 37a5 d6bc
00000290: a4dc 04bd 650f 053e ed4f 29be d01d aa3d
000002a0: de27 313d d7f3 cf3a c3a4 65bd a42d 0fbe
000002b0: 0ba4 8b3d 1e66 53be ae51 eb3d 76df 09be
000002c0: 34e8 0e3c d5cb abbd 8010 ec3d ff96 b0bc
000002d0: 825a 173d aa88 7f3e 0047 9e3d 6b20 82bd
000002e0: 8d31 863d d917 823c 14c1 abbc dddf 1b3d
000002f0: 194b 123e 42be 873d 1f84 fbbd cee3 65bd
00000300: 29ea 25be 5507 e53d e142 223e 66bc 29bc
00000310: 537a 0d3e 4c23 54bd b689 e7bd 79e8 123e
00000320: a81b 863d c31f 49bd 8d0a 35bd 9c81 00be
00000330: 66e1 80bd d5c4 d1bd 1436 a33c 5e80 7b3d
00000340: f2fe 893e db1b 353b a787 403e f399 cdbc
00000350: f8d9 db3c ee21 dbbd 21fc 78bd 59dc 1cbd
00000360: 98d7 81bd e527 4a3d 8517 2b3e bdff f3bc
00000370: 8f70 a2bd bcc5 3e3b 288a e6bd 31a6 d83d
00000380: 3e83 da39 a9a1 c33d 709e 8b3c caa4 893d
00000390: 00da 4cbd 8abe 793d 5b5d babc 2680 aebc
000003a0: f102 5cbd efab c83d 6c55 e73d 4f8d 02bd
000003b0: 4266 3abd c98a c4bd 85e7 5abd 4803 0f3e
000003c0: d3aa f93d c37e 9dbd 8730 c2bd 53ba d43d
000003d0: 3569 7bbd d61a f83d 18d6 933b 6769 783c
000003e0: 42e4 b2bc a1c0 a4bd 0dca ecbd d999 4cbc
000003f0: d5fc f83c 38d9 37bd 6fa0 0cbe e2d9 b4bd
-0.11729109 -0.0019278043 -0.05428886 -0.03064662 0.07234253 -0.0050651478 0.08288391 0.08515886
0.08960057 -0.035483304 -0.16692473 0.04284385 0.14387763 0.015294159 0.13117506 -0.029638862
-0.08229591 -0.030289808 0.05638885 0.19819064 0.14875118 -0.03469759 0.07945157 0.090629324
-0.0072186557 -0.02813317 -0.025873797 0.08731525 -0.0860908 0.033947054 0.038108293 0.14738934
0.06917576 0.027324846 0.054265164 0.12947947 -0.24036852 0.20870054 0.074936174 -0.020557454
-0.02780951 0.13066123 0.040403437 -0.0070437635 -0.015471202 -0.124433264 0.170992 -0.11670663
-0.06543469 -0.13533019 -0.06572774 0.07620416 -0.09366252 0.07901919 -0.08072938 0.062429238
-0.10472689 0.011441153 0.06968553 -0.031002617 0.090064764 -0.088292725 -0.08893474 0.052313883
0.009000611 0.08588239 0.009825935 -0.09934201 0.050335295 0.026349101 0.024327762 0.053701393
0.14002274 0.086455256 0.0150489425 -0.047143646 0.024802346 0.04143594 0.12315014 0.052758884
-0.034221932 -0.054490075 0.033415347 -0.049302936 -0.032667156 0.16083996 0.08636439 -0.04264043
0.08671163 -0.1507663 -0.0025629427 -0.03195789 0.079248995 0.02261402 -0.04810424 0.041503944
0.0911966 -0.07054525 0.04401295 -0.024845606 -0.15949939 -0.27095968 0.09344743 0.23896424
0.08932528 0.016406827 -0.11328183 -0.053455465 0.07463838 -0.0071183355 -0.14134154 0.022103632
-0.18481557 0.16594934 0.07468762 -0.07087049 0.03382448 0.0521645 -0.06367901 -0.12786116
-0.05497015 0.0023320862 -0.07275359 0.011813304 -0.024977457 0.054613363 -0.14554486 -0.0039293994
0.057578485 0.04637902 0.052337337 -0.023221767 -0.038850572 -0.025310704 0.026699206 0.084144294
0.09308732 0.053843994 -0.017142605 -0.085972555 0.10943205 -0.071361534 0.074077725 -0.21345295
0.12361006 0.0033342438 -0.04201001 -0.14159387 -0.008109051 -0.10551368 -0.043213543 -0.0161778
-0.07243486 -0.12085171 -0.02743893 0.19996963 -0.037078425 0.033581823 -0.11276318 -0.025124086
-0.027228504 0.011717919 0.028793542 -0.026201827 -0.03243698 0.12994154 -0.16534396 0.083064675
0.04325091 0.0015865517 -0.056065332 -0.13982254 0.06818398 -0.20644423 0.114901885 -0.1346415
0.008722354 -0.08388487 0.115265846 -0.021556376 0.03695155 0.24954477 0.07728386 -0.063538395
0.0655242 0.015880512 -0.02096609 0.03805529 0.1428646 0.06628086 -0.122810595 -0.056125455
-0.16202606 0.11183039 0.15845825 -0.010359859 0.13816194 -0.051791474 -0.11305563 0.14346494
0.06548244 -0.049102556 -0.044199515 -0.12549442 -0.06292991 -0.10242621 0.019923247 0.061401717
0.2695232 0.0027635011 0.18801747 -0.025097823 0.026837334 -0.10699831 -0.060787324 -0.038296077
-0.06339949 0.049354453 0.1670819 -0.029785031 -0.07931625 0.0029109558 -0.1125682 0.105785735
0.00041677983 0.095523186 0.017043322 0.06720884 -0.05001259 0.060972728 -0.022749593 -0.02130134
-0.053713743 0.09798419 0.1129559 -0.031873044 -0.045507677 -0.09596784 -0.05344345 0.13966095
0.12190785 -0.076901935 -0.09481912 0.10387101 -0.06137963 0.121144935 0.004511606 0.015161849
-0.021837357 -0.080445535 -0.11561976 -0.012487852 0.030393997 -0.04488489 -0.13733076 -0.0883062

network_body._body_endoder.seq_layers.2.bias f4 [128]
00000000: 8872 20b9 fc7e a838 e917 1bba a690 7b3a
00000010: 59c9 93ba 07fd 0fbb d05e 2aba 3abb 7937
00000020: 342f 1eba b996 bc39 8c68 06b7 77d7 b539
00000030: dd3f eab9 a863 d23a 9ac9 8e3a e9bc 45ba
00000040: 83e6 04ba e59c 14ba 6e2c 4c3a d783 f4b9
00000050: 7253 9239 f5c0 2bb9 bb4d 6238 e179 bc3a
00000060: 2a8e f3b9 0d97 bbb9 db37 9538 7cca b438
00000070: 0998 0cba 6fec ecb9 6559 8b39 70de a3ba
00000080: c166 cc39 5b65 ce39 b9d4 c23a f0ff 9bb7
00000090: 3879 17ba 1de2 59ba 6e31 35bb ba55 1eba
000000a0: 5177 bf39 425f 5d3b 552c fb39 3648 d43a
000000b0: 9565 0339 8118 cbb9 2830 933a c7f4 2aba
000000c0: 3fe8 3ab9 5572 a039 5298 17ba df0c 1aba
000000d0: 7b09 b339 25ec 7abb 08dc f1b9 3429 7abb
000000e0: 1964 fab9 e681 d9ba 99f9 d4b9 d73d 3cba
000000f0: 45e7 5bba d3c7 17bb 500f 56b8 9329 1aba
00000100: fd4a bab9 45d7 22ba 2141 9939 642c 12ba
00000110: 3f32 ed39 0db6 07ba 32f7 9939 3a68 11ba
00000120: 1d52 1e39 6852 753a 1d14 173b 9ede c0bb
00000130: 877e 30ba 73be c739 6e6e 5bba 153c a239
00000140: 12db 1f39 92d4 67ba c3d4 b939 63cf 1238
00000150: 2d05 4bbb be10 78b7 6cc1 a039 284a 64b9
00000160: ebbd 19bb 8e46 fa38 1781 dbba eda7 25ba
00000170: 9e13 a8ba 86e0 a739 1f40 09b9 3a79 22b9
00000180: e8e0 1935 ca63 dd39 01d5 903a c120 f9ba
00000190: 09bf d638 d4e2 0cba f5d8 4bb9 d74e 16bb
000001a0: 992f 273b d2a6 0fba 8bd2 543a 61ee 1539
000001b0: d56b be39 a42c 30ba 5e3b 1237 a89f 66ba
000001c0: b561 e439 2257 d539 7815 7fb8 1df1 beba
000001d0: 2a9b 32ba e0cb 4aba 55a4 553a 2e41 cdb9
000001e0: 2867 f3b9 5da9 0cba 6b7e 01ba ec5f 71b9
000001f0: 78bf 0b3a 9835 31ba 128a 783a f2c9 55ba
-0.00015301455 8.034517e-05 -0.00059163437 0.00095964444 -0.0011275216 -0.0021970884 -0.00064991135 1.4885149e-05
-0.00060342555 0.0003597045 -8.011364e-06 0.00034683544 -0.0004467954 0.0016051428 0.0010893822 -0.00075431034
-0.00050697493 -0.0005669131 0.0007788603 -0.00046637535 0.00027909462 -0.00016379713 5.395499e-05 0.0014379584
-0.00046454492 -0.0003577996 7.1152775e-05 8.6207845e-05 -0.0005363231 -0.00045189584 0.0002657875 -0.0012502205
0.0003898647 0.00039366898 0.0014864422 -1.859662e-05 -0.0005778256 -0.00083115866 -0.002764787 -0.0006039996
0.00036519257 0.0033778702 0.0004790748 0.0016195837 0.00012530976 -0.00038737434 0.0011229562 -0.000652146
-0.0001782486 0.00030602762 -0.00057828904 -0.0005876552 0.00034148604 -0.0038287726 -0.00046131038 -0.0038171532
-0.00047758294 -0.0016594499 -0.00040621756 -0.0007180846 -0.0008388649 -0.0023159876 -5.1035837e-05 -0.0005880829
-0.00035532555 -0.0006211887 0.0002923096 -0.0005576073 0.000452416 -0.0005176969 0.0002936661 -0.0005546842
0.00015098644 0.0009358288 0.002305276 -0.005885913 -0.0006732721 0.00038098134 -0.00083706423 0.00030943812
0.00015245032 -0.0008843626 0.0003544447 3.5002256e-05 -0.0030978427 -1.478585e-05 0.0003066169 -0.000217714
-0.0023459147 0.00011934071 -0.0016746846 -0.00063192734 -0.0012823229 0.00032020005 -0.00013089225 -0.00015494684
5.7324223e-07 0.00042226753 0.0011049808 -0.0019006954 0.00010239898 -0.0005374376 -0.00019440411 -0.0022935176
0.0025510548 -0.0005479875 0.00081185316 0.0001429855 0.00036319965 -0.0006720519 8.716101e-06 -0.00087975943
0.00043560346 0.00040691445 -6.0816732e-05 -0.0014567707 -0.00068132824 -0.0007736068 0.00081497926 -0.0003914921
-0.0004642543 -0.0005365813 -0.0004939797 -0.00023019285 0.000533096 -0.000676 0.00094810233 -0.00081553974

action_model._continuous_distribution.log_sigma f4 [1, 2]
00000000: ee22 07bc 729a 34b9
-0.008248074 -0.00017223673

action_model._continuous_distribution.mu.weight f4 [2, 128]
00000000: 62af 963a 95e4 903b b8b1 783c cc7b c33b
00000010: 9440 cabb 4dbb 3fbc 27d1 223c aaa2 11bd
00000020: 952e 8d3c fb23 81bc b7a5 813c 336a 15bd
00000030: 797a a73c 9d84 8dbc 8e14 6abc 25e3 b3b9
00000040: 368a 9fbc 66b1 623c 4540 20bc 0772 db3b
00000050: 403a 533c 3d89 a03b ce05 3dbc ae77 60bc
00000060: 5cd4 dfbb 2a3a d23c 3ecf bcbc c58c 163c
00000070: 2663 a8bc 362a 913c 3511 1c3c 036d e6ba
00000080: c7d8 83bc ca65 b7bc 2bf8 163d 9b1a c13c
00000090: 79ac 993b fca6 133b e78a 73bd bc78 463c
000000a0: f6ca a43c 28b2 2ebc 556f 8dbc 102e 2e3c
000000b0: eb09 603c e3d8 d73c a2b5 47bc f0d2 903b
000000c0: c722 173c 167a 30b9 8c60 58bc 5893 3e3d
000000d0: ab5c dc3b 4a76 b43c bf99 1a3d a41b b33c
000000e0: 68ce abbc 7c5c cd38 5b7f a93c c84a 65bc
000000f0: 6493 fc3b 49cd 88bc 72da 12bc afa3 003c
00000100: 7970 a43c 06e9 14bd 37cc 173c a8a5 98bc
00000110: 7c96 bd3b a462 3f3d d3f5 7e3a 80d1 57bc
00000120: b5e5 21bd 8488 ebbc 55b6 06bc d8dc 02bd
00000130: 0245 c5bb 4204 a1bb 9960 38bc 690e a53c
00000140: 2e3e 0b3c c137 abbb fd72 863a df2f abbc
00000150: 544b 98bc 8331 1ebc 4ce9 83ba 7ee0 1c3d
00000160: b5c9 253c bc53 e039 980e 6e3c d7e7 35bb
00000170: 82e8 cebc 7806 1fbd e06d 09bc 057d 2bbc
00000180: efad 23bd 87d6 79bc 2157 2c3b a925 14bb
00000190: 7a27 e8bc 4659 623c d04b 693c 3127 b6bc
000001a0: 57af 18ba 53dd bdbc 6288 48ba 2d63 b9bb
000001b0: f479 3e3c 7a85 283c 0745 bd3c 7a6f 68bc
000001c0: 9647 04bc e20e 113c 99db 793c 711e 573b
000001d0: 216e 2f3c 6ac7 0f3c 7733 0bbb d2f7 0abc
000001e0: 5570 673c 0971 9abc 6774 593c cd04 edbc
000001f0: 7223 21bc 91f5 9fbb 0163 473b 7763 ebbc
00000200: 7e3f b93b 3ebb 2cbc ad3a 1f3c a1f3 703c
00000210: b83d 363b 7a7f 84bc c516 1abb 1348 a7bb
00000220: 7115 03bc d40d de3c 7777 54bc 76ce 043d
00000230: 3ae4 f23c 7d62 363c c73b 20bd 298e bdbc
00000240: 1176 c7bc d7ed a0bc f8d1 8f3c 8b5c bbbb
00000250: 6772 9c3c 780d a1bb db11 ca3b fde4 e1bb
00000260: 1b9b e0ba 957a 0ebc cef0 b3bb 04d5 fcbc
00000270: 46b4 51bc 1800 99ba efcc 2b3c 8173 a9bb
00000280: e109 073d 2015 a8bb 63e6 f03b 0733 fa3c
00000290: b2ba 8f3c a635 eebb 9d80 0dbd 7826 ae3b
000002a0: 4dc2 133d 6b29 2b3d 5827 953c e99b 41bc
000002b0: 4139 243c 23bd 96bb c203 73bc 84e5 82bc
000002c0: 6adf e93b 7924 9c3c 59a1 96bc 9927 a2b9
000002d0: 04c7 783c 9c9a aabc 25f9 a7bc e611 fdbc
000002e0: 745b ffba d453 ddbc 2736 cc3b e4d2 b3bc
000002f0: 0d66 d0ba 38fc 983c 546f 7fbc 8ea8 61bc
00000300: a65f eabc 337d 0abc b8ae 913c dd4c 8ebc
00000310: cb7f 02bd a683 c2bc 03ff 8c3c 73cd acbc
00000320: 2b42 51bc 5c92 39bb 551e 983c bd4f 073d
00000330: 4a45 923b ccab ef3c ae9d 683c 4dce 5c3c
00000340: c216 003d e7b4 913c a1d9 5b3b 6f45 fdbb
00000350: 5951 d5bc 8cab 833b 8824 c43c a48a 043c
00000360: 765d 9dbc ac45 22bc c7fd 82bc 338a 61bc
00000370: a23b 80bc 7907 e63c 50dd 8dbc c7e7 e8bc
00000380: 4f83 51bc bbc7 8dbc 2606 b73a 828b 2cba
00000390: 77f8 863b 24f0 923b b2cb 88bb cae8 03bd
000003a0: 48ce 4abc aeab 9b3c 3827 093c e346 063c
000003b0: cc4a e93c a741 b8bb efc6 9fbb 6544 c13a
000003c0: 3049 dcbb 5abf ad3c 1967 883c 464f 2239
000003d0: 6363 8bbc e4c5 91bb e114 833b 589d 8839
000003e0: 8d80 38bb 5569 7bbc 2ce8 fbbc 5267 d53b
000003f0: 4235 233a a3e9 3cbc ded0 e2b9 c3bf 9ebb
0.001149636 0.0044217804 0.01517909 0.0059656855 -0.006172249 -0.011702371 0.009937561 -0.03555552
0.017234126 -0.015764227 0.01582609 -0.036478233 0.020444142 -0.017275149 -0.014287127 -0.00034310776
-0.019475084 0.01383624 -0.009780948 0.0066969427 0.012892306 0.0048991726 -0.0115370285 -0.013700409
-0.006830735 0.0256625 -0.02304804 0.0091888355 -0.02055509 0.017720323 0.009525587 -0.0017580095
-0.016094578 -0.022387404 0.036857765 0.023572257 0.00468975 0.002252995 -0.05945864 0.012113746
0.02011631 -0.010662593 -0.017265001 0.010631099 0.01367424 0.026348537 -0.012189301 0.004419677
0.0092246 -0.00016830149 -0.013206612 0.046527237 0.006724914 0.02202906 0.03774428 0.021863766
-0.020972446 9.792388e-05 0.02069061 -0.01399488 0.007708 -0.01669945 -0.008963214 0.007851525
0.020073162 -0.03635504 0.009264997 -0.018633679 0.0057857614 0.04672493 0.0009725962 -0.013172507
-0.039525706 -0.02875162 -0.008222182 -0.031948894 -0.0060201893 -0.0049138376 -0.011253499 0.020148473
0.0084987115 -0.0052251522 0.0010257658 -0.02089685 -0.018590607 -0.009655359 -0.0010064035 0.03830003
0.0101188915 0.00042786996 0.014529847 -0.0027756596 -0.025257353 -0.03882453 -0.008388013 -0.010466819
-0.039960798 -0.015248901 0.002629705 -0.0022605455 -0.028339136 0.01381523 0.0142392665 -0.022235485
-0.00058244675 -0.023176825 -0.0007649717 -0.0056575746 0.011625756 0.01028573 0.023104204 -0.014186734
-0.008073708 0.008853646 0.01525011 0.003282454 0.010707409 0.008775571 -0.0021240392 -0.0084819365
0.014125903 -0.018852727 0.013272381 -0.028932953 -0.009835111 -0.0048815687 0.0030424 -0.028733952
0.005653321 -0.010542689 0.009718579 0.014706523 0.0027807783 -0.016174067 -0.0023512107 -0.0051050275
-0.0080007175 0.027106203 -0.012967936 0.03242346 0.029649843 0.01113188 -0.039119508 -0.023139076
-0.02434829 -0.01964466 0.017556176 -0.005717819 0.01909752 -0.0049149357 0.0061666793 -0.0068937526
-0.0017136069 -0.008696218 -0.0054913526 -0.030863293 -0.012799328 -0.0011673002 0.010485872 -0.00517124
0.032968406 -0.0051294714 0.007351683 0.03054191 0.017545078 -0.007269579 -0.034546483 0.0053146444
0.03607397 0.041787546 0.018207237 -0.011816957 0.010023416 -0.0046001836 -0.014832439 -0.015978582
0.0071372287 0.01906036 -0.018387483 -0.0003092855 0.015184168 -0.020825677 -0.020504544 -0.030892324
-0.0019482211 -0.027017511 0.0062320414 -0.021951146 -0.0015899554 0.018674955 -0.015590508 -0.013773097
-0.028610062 -0.008452701 0.017783508 -0.017370636 -0.031860154 -0.023744415 0.017211443 -0.02109406
-0.012772123 -0.0028315997 0.018569151 0.03303503 0.0044638263 0.029256724 0.01419775 0.01347692
0.031271704 0.017786456 0.0033546465 -0.0077292244 -0.026039766 0.0040182527 0.0239432 0.008089695
-0.019209605 -0.009904306 -0.015990151 -0.013765859 -0.015653435 0.028079735 -0.017317444 -0.028430833
-0.012787654 -0.017307153 0.0013963624 -0.00065820676 0.004118975 0.0044841934 -0.004174673 -0.032204427
-0.012378283 0.019002762 0.008371167 0.008195612 0.028478049 -0.0056230607 -0.0048760097 0.0014745115
-0.006722592 0.021209408 0.016650723 0.00015479056 -0.017015165 -0.004448639 0.0040002917 0.00026057172
-0.0028152794 -0.015344937 -0.030750357 0.006512561 0.00062258926 -0.011530313 -0.00043261697 -0.004844637

action_model._continuous_distribution.mu.bias f4 [2]
00000000: 3eac 14b9 95f7 ed39
-0.00014178545 0.00045388626

exp_avg f4 [128, 6]
00000000: 2203 0bba 8732 1bba 3f3f 2c3a a101 3b39
00000010: 8ca1 1eba 47b6 1f3a 18d7 76b7 40c9 9ab7
00000020: dc32 af37 c982 ba36 f935 9eb7 f349 9f37
00000030: 3c72 2fb9 55f1 88b8 7630 2739 a202 a537
00000040: f5f8 8bb8 24ed 8c38 7bfd e335 95a9 a935
00000050: 2062 12b6 746f ccb4 906a ad35 eb98 aeb5
00000060: 4b77 acb8 ba10 06b9 6b2b d238 fe8a 2138
00000070: 0508 09b9 13f7 0939 aa44 00b7 94df 36b7
00000080: 972d 3237 d95a 5c36 63eb 3ab7 7b31 3c37
00000090: 71bc 0b33 d935 a033 cf84 8fb3 fa0b c1b2
000000a0: 50c1 a333 fbde a4b3 ae22 1538 d11c b437
000000b0: 949b 24b8 3d07 d9b6 fc18 b837 165a b9b7
000000c0: e90e 4a37 ee04 ea37 14a7 a338 a9fd 0cb7
000000d0: 8331 ef37 50d2 f0b7 d9a0 6939 cff3 9339
000000e0: 76e2 66b9 bc46 b2b8 ce39 9739 a741 98b9
000000f0: e07a 8bb8 3e03 c2b8 57db 3fb7 e8c6 e937
00000100: 4e4e c6b8 c9a7 c738 b82d 7538 447a f038
00000110: b859 dab7 f0e1 10b8 7ecc f538 1679 f7b8
00000120: 9b05 b039 cd85 bb39 4fb0 d6b9 e4f4 e1b8
00000130: cfab bf39 37fa c0b9 de01 03b8 0ddd 0934
00000140: 3748 8cb6 051e 26b3 a6f4 0c34 2de7 0db4
00000150: 9b81 6435 4b74 6836 a4fd 51b6 8c0c 8cb5
00000160: f998 6d36 7037 6fb6 1f6d 94b9 07de 97b9
00000170: 2302 7f39 68fe b638 353a 9bb9 0149 9c39
00000180: c009 e637 b84e b638 5907 8eb8 38ac dbb7
00000190: 4b57 ba38 529c bbb8 6ae7 4d35 322c 6b35
000001a0: 64f9 6db5 c4af 8db4 4960 7035 8a03 72b5
000001b0: d3a2 b4b8 925b 60b8 d76e d838 b32b 8737
000001c0: 6052 65b8 5de2 6638 287e a335 f851 5036
000001d0: ae91 61b6 6b04 7bb5 f2ed 5436 5761 56b6
000001e0: 2448 e137 a769 4b35 7502 5636 b31f 75b4
000001f0: 7aec 4f35 475a 51b5 7d19 08b8 faaf c7b8
00000200: 8c6e a438 699d f037 f91a ccb8 177f cd38
00000210: dbea 8c35 269a 6735 9058 87b5 0f89 8bb4
00000220: e8b9 6c35 0057 6eb5 f74f 1cb9 736f 05b9
00000230: 14d0 7338 c0c8 2038 4063 08b9 3851 0939
00000240: e9c2 18b7 be29 0fb7 7835 1a37 3181 2c36
00000250: 8254 12b7 b553 1337 3b6f d436 e89b 0e35
00000260: 65a6 93b7 9eda 2bb4 a5c6 1135 fbc1 12b5
00000270: 1ad5 5d38 7525 1938 940b 84b8 0189 38b7
00000280: e588 1c38 049a 1db8 70fc 36b7 c3a8 40b7
00000290: 2c91 4437 7525 6836 feeb 44b7 7e43 4637
000002a0: db37 0838 698f 80b7 f163 1537 cde8 9a36
000002b0: 9967 83b7 c94c 8437 2053 09b9 5b71 e5b8
000002c0: 83dd 4c39 103c 0a38 de84 eab8 241e ec38
000002d0: eda0 0633 9b8a b2b2 27ba d732 ca22 d731
000002e0: e17d b6b2 39bc b732 e12b 0639 9ae8 8c39
000002f0: 48df 68b9 06ca a9b8 c406 9039 f901 91b9
00000300: 17cb 8839 74a6 9e39 5c2a ebb8 ab2a bfb8
00000310: 1729 a239 f243 a3b9 a7cb ecb6 5572 6cb6
00000320: 90d8 13b7 ee74 8e35 b6ad 71b6 4d53 7336
00000330: bbce 86b9 45ae 76b9 a685 9639 bf9e 9438
00000340: 7b23 7cb9 4ddb 7d39 907b ddb8 ec0c d5b8
00000350: 94a5 ab38 cc5b 0038 afc3 d9b8 703f db38
00000360: 6e98 17b5 5975 a3b5 c519 9735 ecf5 c434
00000370: 2b13 a7b5 a136 a835 6931 31b3 4cc2 d6b3
00000380: 9617 cf33 3f63 0133 9782 dbb3 9c01 dd33
00000390: 86c7 72b6 d8d1 f435 1981 e538 f680 13b5
000003a0: 5e38 fa35 f2d8 fbb5 0199 4138 54d9 8637
000003b0: cc2c 6c37 037d a2b6 3dd5 8937 6dc5 8ab7
000003c0: 989f 4837 9562 7038 316b 97b8 aad3 90b7
000003d0: 2cb4 7538 bd60 77b8 865a cfb8 13b0 13b8
000003e0: 17bf 7338 0df5 3137 5ef4 16b8 e1fb 1738
000003f0: 5705 4237 9389 3535 2b30 21b7 54be 5ab4
-0.0005302896 -0.000592031 0.00065707037 0.00017834317 -0.0006051294 0.000609253 -1.4712823e-05 -1.8451945e-05
2.0885309e-05 5.5584574e-06 -1.88602e-05 1.8988712e-05 -0.00016731856 -6.529937e-05 0.00015944414 1.9670759e-05
-6.674408e-05 6.719891e-05 1.698659e-06 1.2640836e-06 -2.1812812e-06 -3.8079054e-07 1.2920518e-06 -1.3008515e-06
-8.223819e-05 -0.00012785467 0.000100216675 3.8514838e-05 -0.00013068326 0.0001315738 -7.645382e-06 -1.0900101e-05
1.06202415e-05 3.2835435e-06 -1.1141269e-05 1.1217194e-05 3.2534846e-08 7.4603754e-08 -6.683114e-08 -2.2473603e-08
7.625442e-08 -7.677405e-08 3.5556666e-05 2.147109e-05 -3.924554e-05 -6.4679466e-06 2.1946144e-05 -2.2095668e-05
1.204361e-05 2.789727e-05 7.8035664e-05 -8.40371e-06 2.8514076e-05 -2.8708164e-05 0.00022280532 0.00028219676
-0.00022018873 -8.500877e-05 0.00028844032 -0.00029040614 -6.650924e-05 -9.251245e-05 -1.1435556e-05 2.7868387e-05
-9.455961e-05 9.520312e-05 5.845513e-05 0.000114668655 -2.6029404e-05 -3.4542696e-05 0.000117206 -0.00011800432
0.00033573512 0.0003576711 -0.0004094862 -0.000107744505 0.00036558366 -0.00036807518 -3.1234573e-05 1.2839537e-07
-4.180732e-06 -3.867719e-08 1.3127519e-07 -1.321575e-07 8.512522e-07 3.4638385e-06 -3.1291065e-06 -1.0434464e-06
3.5404794e-06 -3.5646044e-06 -0.0002831006 -0.00028966388 0.00024319491 8.725823e-05 -0.0002960727 0.0002980903
2.7422677e-05 8.693099e-05 -6.772456e-05 -2.618703e-05 8.885431e-05 -8.945972e-05 7.6705203e-07 8.7608635e-07
-8.865229e-07 -2.6391183e-07 8.954708e-07 -9.0157175e-07 -8.613397e-05 -5.3491043e-05 0.00010320328 1.6113603e-05
-5.4674572e-05 5.504709e-05 1.2181163e-06 3.1042127e-06 -3.361241e-06 -9.3511215e-07 3.1728964e-06 -3.1945144e-06
2.6855683e-05 7.577714e-07 3.1889915e-06 -2.2828935e-07 7.745763e-07 -7.798994e-07 -3.2448665e-05 -9.521838e-05
7.84072e-05 2.868353e-05 -9.732502e-05 9.798834e-05 1.0499165e-06 8.627852e-07 -1.0084059e-06 -2.599049e-07
8.818738e-07 -8.878851e-07 -0.00014907109 -0.00012725386 5.8129503e-05 3.8333936e-05 -0.00013006944 0.00013095594
-9.105287e-06 -8.533183e-06 9.1915645e-06 2.5705197e-06 -8.721954e-06 8.781372e-06 6.3310413e-06 5.3125996e-07
-1.7601249e-05 -1.6005148e-07 5.4305775e-07 -5.4671517e-07 5.2888972e-05 3.6512927e-05 -6.296407e-05 -1.0999153e-05
3.732079e-05 -3.7575155e-05 -1.09068205e-05 -1.1483385e-05 1.1716311e-05 3.4592497e-06 -1.1737457e-05 1.1817434e-05
3.2476946e-05 -1.532557e-05 8.9043615e-06 4.616659e-06 -1.5664658e-05 1.5771382e-05 -0.00013096305 -0.00010940685
0.00019537476 3.29577e-05 -0.00011182738 0.00011258971 3.1345667e-08 -2.0784958e-08 2.5113946e-08 6.2612786e-09
-2.1244832e-08 2.1389598e-08 0.00012795582 0.00026876183 -0.00022208423 -8.096178e-05 0.0002747086 -0.00027658025
0.00026091255 0.00030260126 -0.00011213563 -9.115537e-05 0.00030929662 -0.00031140406 -7.0570563e-06 -3.523329e-06
-8.812305e-06 1.0613855e-06 -3.6012912e-06 3.625831e-06 -0.00025712498 -0.00023525309 0.00028709805 7.086759e-05
-0.0002404581 0.00024209656 -0.000105611165 -0.00010159038 8.184757e-05 3.060307e-05 -0.00010383815 0.0001045455
-5.64737e-07 -1.2178599e-06 1.1257877e-06 3.6686777e-07 -1.2448048e-06 1.2532875e-06 -4.1255962e-08 -1.0000494e-07
9.643479e-08 3.0125417e-08 -1.0221736e-07 1.0291407e-07 -3.6176948e-06 1.8240489e-06 0.00010943617 -5.494943e-07
1.8642857e-06 -1.8764097e-06 4.615728e-05 1.6075246e-05 1.4077126e-05 -4.8425295e-06 1.643097e-05 -1.6542816e-05
1.1958087e-05 5.731227e-05 -7.220207e-05 -1.7264701e-05 5.858035e-05 -5.8979484e-05 -9.8873905e-05 -3.5211513e-05
5.811368e-05 1.06070775e-05 -3.599037e-05 3.6235786e-05 1.1564544e-05 6.762795e-07 -9.607563e-06 -2.0372073e-07

exp_avg_sq f4 [128, 6]
00000000: dbf6 7035 bb5c 7335 da8c cc35 04ac b033
00000010: 0940 7e35 13dd 8035 5ad5 0e32 c8e8 be31
00000020: c65f d631 ca97 0a30 5373 c731 8e2d ca31
00000030: 51e5 8133 f247 c533 602b 0e34 f637 0f32
00000040: 7d1b ce33 03ed d033 f3e6 ab2f c1b0 e62f
00000050: 7c6d 3c30 f378 272e e902 f12f a84e f42f
00000060: 7800 9132 31f2 0c34 40b8 4d34 9ba4 4c32
00000070: 7a40 1334 fd43 1534 cf2a 2a2f f391 602f
00000080: c21d 882f 8c07 a32d 0a9e 6a2f 61d3 6d2f
00000090: 762d 7727 894e 0f28 501b 3f28 0c12 5026
000000a0: dfb7 1528 03c4 1728 31b4 aa31 da7c 7a31
000000b0: 2a27 a631 32d8 b52f e1d8 8231 f5a2 8431
000000c0: 10eb 0435 a776 0535 b59b 5c35 6cc7 4133
000000d0: 436f 0b35 6257 0d35 b169 c934 f736 f434
000000e0: 1ee3 3f35 674a 3133 0424 ff34 9950 0135
000000f0: 7525 e434 a783 0a35 9638 6235 b71c 4933
00000100: 16b6 1035 acb0 1235 9bf8 2635 6936 e934
00000110: 5783 3935 ac4d 2933 73a5 f334 67fa f634
00000120: 04e9 d634 3470 e334 1f70 3a35 981c 2533
00000130: 219d ed34 f3dc f034 7bba 2731 a3ec 5631
00000140: 45ff a931 eb06 9c2f 418a 6031 4c9c 6331
00000150: ba66 5f2e 4393 912e 6d0f cc2e 3a5d d32c
00000160: 9716 982e 032b 9a2e 662f 0635 cf35 0d35
00000170: 1af2 6835 c806 4d33 1987 1335 978b 1535
00000180: 7d07 ab31 e593 a432 1f28 f232 48f4 ee30
00000190: d9f0 ab32 c44a ae32 d083 032c 3f84 172c
000001a0: bd07 1b2c 92fd 5b2a 974b 1e2c c175 202c
000001b0: 6c5c 9132 4107 4432 49d6 1633 254f 8e30
000001c0: 68cc 4c32 6099 4f32 5270 f22d daf6 3e2e
000001d0: 5249 932e 03a2 8a2c 0982 472e 6f3c 4a2e
000001e0: dd0f f632 3ae0 4933 818c a333 e48d 9231
000001f0: 5fe8 5233 baca 5533 b2c4 8e33 c851 ed33
00000200: 63ef 2734 ee48 2c32 d4ef f733 d853 fb33
00000210: 2ed0 b52d 22fd 852d 0f7a 542d a28a c22b
00000220: b8fb 8b2d cbe5 8d2d 5446 f934 2f65 0835
00000230: b4d7 4f35 1a09 4633 5a7f 0e35 3372 1035
00000240: 3fdf 7b30 6b4b 3a30 9c01 c330 2a3e 872e
00000250: 19a1 4230 744a 4530 e2b4 1032 dc32 e431
00000260: 8a5a 4732 dfa9 2530 7a68 ee31 1aab f131
00000270: cc98 3f32 d433 5632 1723 cb32 c080 9b30
00000280: 29c9 5f32 9cd8 6232 a273 a830 499e 4c30
00000290: 9538 9d30 938b 942e d4c5 5530 34b2 5830
000002a0: 7f14 df31 4c6e 0733 268f 3933 a2a2 4431
000002b0: 6f7d 0d33 c46c 0f33 22a7 6d33 1ed9 5a33
000002c0: aaaa 0634 21e0 9e31 a2a3 6433 14c4 6733
000002d0: 93b4 cc2a 10fb b32b a8ee eb2b bea8 022a
000002e0: 6908 bc2b b69a be2b 3bf2 2933 4dad 6c34
000002f0: b759 b034 8ed1 ab32 0d44 7734 a6a5 7a34
00000300: 0905 1b36 4a8e 0e36 0080 6f36 ecfa 4e34
00000310: 04ef 1436 67f8 1636 eaad c931 1a36 a031
00000320: 817d 0732 619d e82f 0f61 a731 03ab a931
00000330: 82a3 7634 df4b 1f34 20ea 1c34 4e49 6732
00000340: 536c 2634 eeb2 2834 566a 8f33 f9ad 0334
00000350: 5d9c 3634 4830 3f32 1b92 0934 bd73 0b34
00000360: e5c8 332c cbde 4d2d 7ef4 8a2d 3374 952b
00000370: a914 572d 9d05 5a2d 4df2 bf28 933a 3529
00000380: f297 7f29 b790 8327 3b56 3d29 0eed 3f29
00000390: 5a04 0d35 c16f 0035 864c 5435 e67a 3a33
000003a0: c82e 0635 8a04 0835 80ff 6e33 3c88 e233
000003b0: 8f5f 2334 2d74 2432 c9aa ec33 52e7 ef33
000003c0: ed50 5c30 4203 1032 5c76 4832 7718 5130
000003d0: a774 1632 6583 1832 eb36 3733 f800 2833
000003e0: d9ff ba33 c9ed 7331 3285 2f33 a0eb 3133
000003f0: 8017 9d30 2928 2431 0ad0 7231 e157 6e2f
8.976619e-07 9.0659495e-07 1.5240178e-06 8.226928e-08 9.4715557e-07 9.601084e-07 8.313998e-09 5.556192e-09
6.239108e-09 5.041981e-10 5.804773e-09 5.8841527e-09 6.048743e-08 9.186614e-08 1.324056e-07 8.3364196e-09
9.5976226e-08 9.728867e-08 3.1268818e-10 4.1962347e-10 6.854959e-10 3.807883e-11 4.3839712e-10 4.443923e-10
1.6880435e-08 1.3126625e-07 1.9159143e-07 1.191179e-08 1.3713898e-07 1.390144e-07 1.5476619e-10 2.0424533e-10
2.47594e-10 1.8534306e-11 2.1338323e-10 2.1630121e-10 3.430278e-15 7.955124e-15 1.0608552e-14 7.2188955e-16
8.311032e-15 8.424687e-15 4.9681366e-09 3.6450758e-09 4.8356883e-09 3.3077324e-10 3.8081542e-09 3.8602317e-09
4.9515893e-07 4.9719023e-07 8.218297e-07 4.5117687e-08 5.194344e-07 5.265375e-07 3.7516068e-07 4.5488534e-07
7.1483544e-07 4.1278692e-08 4.7523656e-07 4.817353e-07 4.2495563e-07 5.1600585e-07 8.4273904e-07 4.6825075e-08
5.390915e-07 5.464633e-07 6.220159e-07 4.343922e-07 6.9108995e-07 3.941902e-08 4.5382657e-07 4.6003262e-07
4.0030147e-07 4.2363683e-07 6.945356e-07 3.8443062e-08 4.4259016e-07 4.4864245e-07 2.44077e-09 3.127561e-09
4.947568e-09 2.838115e-10 3.2674878e-09 3.3121692e-09 5.079557e-11 6.6199955e-11 9.279586e-11 6.007331e-12
6.9161725e-11 7.0107496e-11 4.9987864e-07 5.2604895e-07 8.677904e-07 4.773645e-08 5.495836e-07 5.5709955e-07
4.9776063e-09 1.9159367e-08 2.8190753e-08 1.7386208e-09 2.0016545e-08 2.0290265e-08 1.868939e-12 2.1531802e-12
2.203112e-12 1.9539082e-13 2.2495111e-12 2.2802734e-12 1.692225e-08 1.1410351e-08 3.5119488e-08 1.0354354e-09
1.1920839e-08 1.2083859e-08 2.7562095e-11 4.3420247e-11 6.6978104e-11 3.940183e-12 4.5362856e-11 4.5983158e-11
2.8645383e-08 4.7002892e-08 7.6158365e-08 4.2652903e-09 4.9105775e-08 4.9777306e-08 6.648169e-08 1.10510484e-07
1.5640175e-07 1.00283e-08 1.1545458e-07 1.17033494e-07 2.0669768e-11 1.5232763e-11 1.2077907e-11 1.3823007e-12
1.5914256e-11 1.6131893e-11 4.6431035e-07 5.081119e-07 7.74274e-07 4.6108745e-08 5.3084443e-07 5.381036e-07
9.163052e-10 6.777358e-10 1.4188575e-09 6.150132e-11 7.080572e-10 7.1773987e-10 8.423031e-09 6.6414554e-09
1.1603911e-08 6.026805e-10 6.9385893e-09 7.033475e-09 1.1152405e-08 1.2468224e-08 2.3648267e-08 1.1314327e-09
1.3026047e-08 1.3204183e-08 1.2256474e-09 7.4439704e-10 1.1439335e-09 6.755054e-11 7.777008e-10 7.8833584e-10
6.4924843e-09 3.153245e-08 4.3203862e-08 2.86142e-09 3.2943202e-08 3.3393704e-08 5.533287e-08 5.0954547e-08
1.254181e-07 4.6238857e-09 5.323421e-08 5.396221e-08 3.6362978e-13 1.2788399e-12 1.6763995e-12 1.1604864e-13
1.3360538e-12 1.3543253e-12 3.9568686e-08 2.2042259e-07 3.284783e-07 2.0002314e-08 2.3028424e-07 2.3343327e-07
2.309973e-06 2.1242472e-06 3.568828e-06 1.927653e-07 2.2192844e-06 2.249633e-06 5.8696417e-09 4.6627635e-09
7.8865705e-09 4.2312379e-10 4.871374e-09 4.937989e-09 2.2970019e-07 1.483563e-07 1.4613806e-07 1.3462637e-08
1.5499363e-07 1.5711313e-07 6.678299e-08 1.2263617e-07 1.7006955e-07 1.1128641e-08 1.2812272e-07 1.2987489e-07
2.5548949e-12 1.1702371e-11 1.579736e-11 1.0619339e-12 1.22259225e-11 1.2393112e-11 2.1310341e-14 4.024088e-14
5.6753166e-14 3.6516704e-15 4.2041223e-14 4.2616132e-14 5.2532926e-07 4.784634e-07 7.908751e-07 4.3418275e-08
4.9986966e-07 5.0670553e-07 5.564607e-08 1.0548726e-07 1.5215322e-07 9.572472e-09 1.1020672e-07 1.1171382e-07
8.0150536e-10 8.382644e-09 1.1668444e-08 7.6068524e-10 8.757673e-09 8.87744e-09 4.2657955e-08 3.911643e-08
8.7078384e-08 3.549632e-09 4.0866503e-08 4.1425324e-08 1.1429933e-09 2.388797e-09 3.5333891e-09 2.1677195e-10

exp_avg f4 [128]
00000000: 3031 d838 959e 5736 5dc3 3e37 8a57 6cb4
00000010: 39c1 ba37 dbbe fe35 f52c 5fb2 45e6 7ab6
00000020: 6bfe a2b6 9e19 4eb8 bc21 8737 9f7e a7b7
00000030: 5a9c 82b8 d117 c0b2 ffe7 21b5 b58d 5338
00000040: 04f5 7db7 b0cc 23b4 5744 1c37 bd18 11b5
00000050: 5cb2 0db4 7415 8b37 0450 21b4 a5e0 b937
00000060: 6d6d c735 34a9 c6b3 cd55 d5b6 4d30 0636
00000070: fe15 3336 0acf 9f37 7ab6 7831 bd49 44b8
00000080: 8600 5db8 45b0 2435 a5d0 2b38 2f64 9437
00000090: 2eb3 6334 c894 9532 d688 aab4 ced8 3bb6
000000a0: 166e 27b7 14bb cd36 fde1 fcb3 5520 6338
000000b0: 4c9a 4838 dd47 4eb8 b60e 0538 6489 61b8
000000c0: 5157 88b6 8585 f736 f72b 29b6 58df 51b8
000000d0: 8dfd b2b2 6c22 82b8 ec0b 7bb5 69dc f237
000000e0: c5c3 bfb7 829a 42b6 2224 84b5 6075 f136
000000f0: 2a4e feb6 7c19 0cb6 189b 0035 3fb7 0434
00000100: e864 6db5 f407 7936 89f5 9738 b06f 0738
00000110: 9116 3b38 8d93 e636 f9cf fcb4 7e95 4db6
00000120: 9d8a f4b4 b5be 30b7 9cf2 2938 3b7f a9b6
00000130: 336a cf35 d114 f037 280c 27b8 ff50 4ab4
00000140: 91cf 2bb4 1a4c 3c38 110c 6c37 5640 e8b5
00000150: 9778 3fb6 de54 8838 dfeb 5c37 0167 0336
00000160: 685a 2ab6 c554 c6b5 76a7 8136 1001 c0b5
00000170: 13a4 1cb6 c684 9b38 f75d 2735 2bf2 b435
00000180: 1e26 52b6 bcd3 29b7 b8e6 f837 ddac bc34
00000190: 53f2 adb6 c406 6bb8 d225 a6b6 2e41 ebb8
000001a0: f17d d9b7 31da 07b8 3096 7eb6 585d c3b7
000001b0: 0373 aa36 e388 14b6 38da 2c38 7c5f 9db5
000001c0: 9974 3fb4 82c6 7236 94ac 36b8 1cca 59b8
000001d0: 5f74 1936 753d 8836 bb1f 1938 0d62 ddb8
000001e0: 95c7 1d38 8fd7 a634 66da 9737 d795 0cb4
000001f0: 8ce6 a338 e039 7b36 abc9 10b7 e361 a138
0.000103088445 3.2129803e-06 1.1370369e-05 -2.2011059e-07 2.2262904e-05 1.8980021e-06 -1.299053e-08 -3.7386937e-06
-4.8575944e-06 -4.9138085e-05 1.6108963e-05 -1.9966914e-05 -6.228006e-05 -2.2362572e-08 -6.031477e-07 5.0438295e-05
-1.5137022e-05 -1.5255023e-07 9.314236e-06 -5.405271e-07 -1.3196535e-07 1.6580081e-05 -1.5023403e-07 2.2158327e-05
1.4858502e-06 -9.2508714e-08 -6.357883e-06 1.999567e-06 2.668588e-06 1.9050687e-05 3.6192476e-09 -4.6798716e-05
-5.2690993e-05 6.1351267e-07 4.0963892e-05 1.7689626e-05 2.1206208e-07 1.741354e-08 -3.176453e-07 -2.7991368e-06
-9.979607e-06 6.131255e-06 -1.17757715e-07 5.415113e-05 4.7827416e-05 -4.9181155e-05 3.172337e-05 -5.3772135e-05
-4.063281e-06 7.3767173e-06 -2.5208553e-06 -5.0037488e-05 -2.0837229e-08 -6.2052946e-05 -9.3522135e-07 2.8951285e-05
-2.2860137e-05 -2.8998188e-06 -9.845282e-07 7.196024e-06 -7.5788894e-06 -2.087646e-06 4.7909407e-07 1.2360123e-07
-8.843622e-07 3.710852e-06 7.2459756e-05 3.2290525e-05 4.460529e-05 6.8717113e-06 -4.7089978e-07 -3.0634396e-06
-4.5549396e-07 -1.053482e-05 4.0518687e-05 -5.051404e-06 1.545361e-06 2.8619923e-05 -3.9827224e-05 -1.8842182e-07
-1.6001128e-07 4.4893568e-05 1.4069506e-05 -1.7304071e-06 -2.853141e-06 6.500793e-05 1.316794e-05 1.9580477e-06
-2.5384597e-06 -1.4776821e-06 3.8639946e-06 -1.4305424e-06 -2.3341315e-06 7.415707e-05 6.2349085e-07 1.3481525e-06
-3.1314626e-06 -1.0122483e-05 2.967134e-05 3.5143503e-07 -5.184012e-06 -5.6034667e-05 -4.9515884e-06 -0.00011217814
-2.5927062e-05 -3.2389715e-05 -3.793637e-06 -2.3289278e-05 5.079784e-06 -2.2133397e-06 4.1211228e-05 -1.1725201e-06
-1.7830679e-07 3.6176357e-06 -4.3552907e-05 -5.192506e-05 2.2866514e-06 4.0602704e-06 3.6507594e-05 -0.000105563646
3.7617592e-05 3.107675e-07 1.8102302e-05 -1.3093027e-07 7.8153884e-05 3.7435602e-06 -8.630023e-06 7.695311e-05

exp_avg_sq f4 [128]
00000000: 091f ec32 9c3a 392f 4469 3f31 89d3 5f2d
00000010: 9bc0 8831 6be3 d92c f60a 8b25 dd08 f32e
00000020: 0b7e 8132 c2f2 6c32 9264 8632 0246 6232
00000030: caab 5c32 9187 d02e 6a3e 0d2c 2f02 8932
00000040: 47ae 1f30 2102 9329 1632 be2f 4048 b92b
00000050: 82de c330 1b42 6631 8200 022b 3d56 8432
00000060: 66c0 b42d a968 5d2f 42d4 cf2f b687 c62d
00000070: b966 8330 2456 d430 1fa0 2e29 83a2 e531
00000080: 6e50 8a33 c571 1b2f 808e 9a31 df85 7f31
00000090: a2be c72a 26d6 af26 e23a 7932 b9ca 5b31
000000a0: 4bba 8b2f 4801 a330 bd45 9f2e cdaa 4232
000000b0: 019a e831 74fd 9732 7e70 b931 0fba 8a32
000000c0: 51d1 1c2f f97c c22e 4019 582d c3eb df31
000000d0: 34b8 a426 0ad5 8232 0601 942d 6af4 4133
000000e0: f995 e431 8d69 522f 0570 2731 9e67 3d31
000000f0: c2c8 5832 d105 be2f d800 ba2c cb2f 902a
00000100: 4a8e 062e 77e9 592e a966 8d32 a2bd 9a32
00000110: 7dd8 8133 14c0 152f e30e ac2e 5cf0 452e
00000120: dcf3 042d f46e 8b32 35bc 2733 e3c4 e42e
00000130: 4bae 142c 41e8 9532 6d3e 6031 11e4 a12d
00000140: 6dac a22a 387a 9c31 43d1 1d30 b8ba 0b2d
00000150: ea8b 672f cf95 1333 2b25 a530 0064 4a2d
00000160: f7f2 2831 c061 792c 2275 8b2f 6802 9730
00000170: 454b ca30 bc18 dc32 8aaf 2532 1fdb a12c
00000180: 634d 9b2e b3d2 2131 d4ec a933 e4e2 c529
00000190: 75c9 9b32 ecfd 3a32 d513 ff2e 690b bd33
000001a0: 2fce ec30 d706 b831 ffd6 bb2e a299 4232
000001b0: 7927 6c2f 349b da2d a69a 0832 32dc f82e
000001c0: f4e3 112a 5cf4 9e2e 27c8 1831 2338 1f32
000001d0: bb59 d42e f188 e92e 12e8 6433 e3e9 1b33
000001e0: 3358 dd32 64de 9b2a d293 7530 0678 952a
000001f0: 02d0 3133 8604 5f2e 8eec 4932 d274 9532
2.7488129e-08 1.6846474e-10 2.7853995e-09 1.2723053e-11 3.9800176e-09 6.1927594e-12 2.4120084e-16 1.1051935e-10
1.5074894e-08 1.3792205e-08 1.5645387e-08 1.3170849e-08 1.2844746e-08 9.482826e-11 2.0071952e-12 1.5949892e-08
5.8091526e-10 6.528481e-14 3.4596387e-10 1.3165094e-12 1.4251358e-09 3.3506982e-09 4.618598e-13 1.5406039e-08
2.0549073e-11 2.0137016e-10 3.78039e-10 2.2570262e-11 9.5607e-10 1.5449513e-09 3.8774644e-14 6.6832526e-09
6.440756e-08 1.4137587e-10 4.4981903e-09 3.718348e-09 3.548178e-13 1.2201109e-15 1.4507096e-08 3.1983929e-09
2.5416322e-10 1.1860175e-09 7.242871e-11 1.1331122e-08 6.769597e-09 1.769397e-08 5.3969975e-09 1.6149924e-08
1.4262481e-10 8.844298e-11 1.2283785e-11 6.516957e-09 1.1429714e-15 1.523087e-08 1.6826106e-11 4.5158608e-08
6.6527233e-09 1.9136888e-10 2.4365374e-09 2.756202e-09 1.2618502e-08 3.4564931e-10 5.2865316e-12 2.5612702e-13
3.059445e-11 4.9547446e-11 1.6461245e-08 1.8014195e-08 6.0464096e-08 1.3619711e-10 7.824299e-11 4.5006096e-11
7.557479e-12 1.6232185e-08 3.905389e-08 1.0403214e-10 2.1128817e-12 1.74515e-08 3.2631775e-09 1.8404863e-11
2.8896625e-13 4.554092e-09 5.7413646e-10 7.942695e-12 2.1059035e-10 3.4362355e-08 1.2015894e-09 1.1504575e-11
2.4585327e-09 3.543929e-12 2.536718e-10 1.098738e-09 1.4718827e-09 2.5622619e-08 9.644177e-09 4.6002225e-12
7.0623306e-11 2.3548352e-09 7.9127545e-08 8.787917e-14 1.8135987e-08 1.088436e-08 1.159958e-10 8.803074e-08
1.7229861e-09 5.3558824e-09 8.5419664e-11 1.1327218e-08 2.1478098e-10 2.4852655e-11 7.951405e-09 1.1316849e-10
1.2957674e-13 7.228415e-11 2.2232685e-09 9.267782e-09 9.656583e-11 1.0619939e-10 5.3296453e-08 3.630147e-08
2.5767894e-08 2.7687846e-13 8.9340546e-10 2.6551e-13 4.1400206e-08 5.0708347e-11 1.1753526e-08 1.7399007e-08
