ML Agent Practice/results/ppo/MoveToGoal/MoveToGoal-19575.pt (torch, 441756 bytes, 36 tensors)

network_body._body_endoder.seq_layers.0.weight f4 [128, 6]
-0.3160057 -0.23044653 -0.032734703 0.15318646 -0.045906838 -0.24227658 0.588696 -0.0049046143
0.062883034 -0.4059163 0.32922995 -1.6169779 0.053418387 -0.16863407 -0.2900982 0.012585764
0.1963665 0.28012428 0.29061058 0.39313424 1.0315545 -0.19797885 0.083627 0.5383978
-0.17969875 -0.47655198 -0.43509528 0.5079598 -0.44712994 0.29534146 0.10934275 -0.052922927
-0.45865455 -0.13255233 0.2702011 -0.36136103 -0.4148684 -0.119706616 -1.0688871 -0.47710684
0.22779419 0.23796265 -0.44358724 -0.10606095 -0.13806027 0.56008273 -0.19304287 -0.47168458
-0.51405543 -0.6427292 0.1948774 -0.1232551 -0.09405741 0.2507174 0.84309506 -0.8291515
-0.31192464 0.10904567 0.13959698 0.06458207 0.06464187 -0.3566225 -0.70560706 -0.09828437
0.96968275 0.42469248 0.24781325 -0.3198612 0.12512815 1.200417 0.0076612215 -0.06452873
-0.59740275 -0.10022658 -0.071706995 0.02840636 0.3134985 -0.1415909 0.42340893 0.6314779
-0.02935748 0.43601334 -0.044716086 0.4641439 -0.27908462 -0.020717088 0.017662354 -0.36434996
-0.7776846 0.07295014 -0.6283084 -0.16298613 0.55006355 -0.029414693 -0.1704435 0.5513796
-0.23481688 0.33012566 0.013206111 -0.47564104 0.17781717 0.5814072 0.68812925 0.13915938
-0.9927251 0.5586044 0.15220799 0.27419198 -0.8183988 -0.7821205 -0.4991593 0.5857972
-0.040822823 0.07217451 0.2795224 -0.2758821 -0.076302655 0.28019997 1.3672796 -0.2157713
-0.2905704 0.62377506 0.18690726 -0.009335274 0.015730724 -0.5338564 -0.006648149 -0.39553407
-0.1930643 0.6224097 -0.056874055 -0.71857744 -0.31653482 -0.38018695 -0.14919257 -0.32535216
0.5970208 0.09064727 0.41806307 -0.25961208 -0.53246677 0.5333241 -0.091832 0.31891105
-0.12334182 -0.14023155 0.20694184 -0.3421721 0.26758122 0.32252577 -0.04464428 -0.57126766
-0.01826147 0.4587933 -0.019114478 0.22330324 0.27578193 0.65171975 0.59773314 0.114190124
-0.099511966 0.29174155 0.044609696 -0.015635 0.3450582 -1.1685939 0.27862293 -0.42367446
-0.18852752 0.14526123 -0.0537568 0.6007862 0.65237975 -0.16259414 -0.01369198 0.9870175
0.3776709 0.010428593 -0.3031077 -0.5874223 -0.4533545 0.66162556 -0.5266886 0.50030005
0.5210181 0.15324779 -0.31354144 0.18096682 0.24727698 0.038517397 -0.7004881 -0.37703955
-0.5816678 -0.31012955 0.42777205 0.1755754 -0.39165148 -0.30387795 0.4605243 0.11033652
-0.26567006 0.35035506 -0.20928928 0.25741214 -0.35862267 -0.0050855777 0.041660123 -0.20978189
0.29769745 0.19669725 -0.050388668 -0.11608762 0.24387929 -0.79517823 -0.55052745 -0.255049
0.4270484 -0.24131934 0.31595814 0.1420046 -0.08445381 -0.17161474 -1.1589501 -0.11160635
-0.27433717 -0.42183968 -0.618844 0.56484866 -0.5555197 0.07991614 -0.80595046 -0.26745394
-0.2848491 0.007867965 -0.7126304 0.069072954 -0.29193607 -0.4994894 -0.24348454 1.0852128
0.5758615 0.25962785 0.22258498 -0.7291447 0.6593575 0.5600666 -0.7808032 1.1701211
0.26331156 0.21088777 0.24009305 -0.10871708 0.8132421 0.10752586 0.41115332 -0.33917233
00000000: 80cb a1be 2dfa 6bbe d314 06bd e9dc 1c3e
00000010: cf08 3cbd 5a17 78be c8b4 163f e3b6 a0bb
00000020: d2c8 803d 43d4 cfbe d490 a83e 22f9 cebf
00000030: 3dcd 5a3d 69ae 2cbe c087 94be 8534 4e3c
00000040: 4d14 493e 736c 8f3e e9ca 943e e448 c93e
00000050: fa09 843f f8ba 4abe a244 ab3d 70d4 093f
00000060: f302 38be 9ffe f3be cfc4 debe a709 023f
00000070: 37ee e4be ff36 973e 17ef df3d b6c5 58bd
00000080: c5d4 eabe ccbb 07be cc57 8a3e 5004 b9be
00000090: a269 d4be be28 f5bd 4bd1 88bf 5947 f4be
000000a0: e142 693e 7bac 733e de1d e3be 7c36 d9bd
000000b0: ac5f 0dbe 9561 0f3f 08ad 45be a480 f1be
000000c0: 2399 03bf e789 24bf f18d 473e 2b6d fcbd
000000d0: 2ca1 c0bd 085e 803e 14d5 573f 4643 54bf
000000e0: 96b4 9fbe 5653 df3d 83f2 0e3e 9b43 843d
000000f0: f562 843d 3997 b6be aaa2 34bf 5149 c9bd
00000100: 213d 783f 4b71 d93e c2c2 7d3e d9c4 a3be
00000110: 9821 003e 44a7 993f fc0a fb3b a427 84bd
00000120: 63ef 18bf 9843 cdbd 1edb 92bd 74b4 e83c
00000130: e082 a03e 34fd 10be 0ec9 d83e 89a8 213f
00000140: 197f f0bc 243d df3e 3728 37bd 45a4 ed3e
00000150: 2ee4 8ebe e2b6 a9bc a4b0 903c 148c babe
00000160: 5716 47bf e266 953d d2d8 20bf d6e5 26be
00000170: f7d0 0c3f 15f7 f0bc be88 2ebe 3727 0d3f
00000180: d673 70be 3b06 a93e 725e 583c 3987 f3be
00000190: b415 363e 1ad7 143f 3d29 303f cc7f 0e3e
000001a0: 3b23 7ebf b300 0f3f 69dc 1b3e e462 8c3e
000001b0: 9582 51bf 0d39 48bf cf91 ffbe cef6 153f
000001c0: d535 27bd 3bd0 933d 8f1d 8f3e 6b40 8dbe
000001d0: 9144 9cbd 5f76 8f3e 0503 af3f 27f3 5cbe
000001e0: a5c5 94be b9af 1f3f 9e64 3f3e faf2 18bc
000001f0: b8dd 803c d0aa 08bf b7d8 d9bb 7183 cabe
00000200: a6b2 45be 3e56 1f3f c5f4 68bd b1f4 37bf
00000210: da10 a2be dda7 c2be f0c5 18be 8f94 a6be
00000220: 5bd6 183f 47a5 b93d 5d0c d63e e0eb 84be
00000230: be4f 08bf ee87 083f 6a12 bcbd 4f48 a33e
00000240: a39a fcbd dc98 0fbe 90e8 533e 2e31 afbe
00000250: 6800 893e 1922 a53e ecdc 36bd 993e 12bf
00000260: 1499 95bc f5e6 ea3e f795 9cbc 9ba9 643e
00000270: 4a33 8d3e 1bd7 263f 0a05 193f 83dc e93d
00000280: eecc cbbd 265f 953e a8b8 363d f914 80bc
00000290: 78ab b03e 7c94 95bf aaa7 8e3e dceb d8be
000002a0: 5c0d 41be 5cbf 143e 1730 5cbd 20cd 193f
000002b0: 5c02 273f 147f 26be 5454 60bc 2ead 7c3f
000002c0: 155e c13e b0dc 2a3c ef30 9bbe 4f61 16bf
000002d0: 151e e8be 4b60 293f 10d5 06bf aa13 003f
000002e0: 7161 053f fdec 1c3e 8188 a0be 5e4f 393e
000002f0: 2d36 7d3e 6bc4 1d3d 3053 33bf 540b c1be
00000300: 2ee8 14bf 4dc9 9ebe f004 db3e 0aca 333e
00000310: 8b86 c8be e495 9bbe d7c9 eb3e 1df8 e13d
00000320: e805 88be bd61 b33e ee4f 56be 86cb 833e
00000330: 649d b7be eba4 a6bb cea3 2a3d 10d1 56be
00000340: cd6b 983e 016b 493e 5964 4ebd 59bf edbd
00000350: 7ebb 793e cd90 4bbf 5eef 0cbf c895 82be
00000360: 16a6 da3e 6b1c 77be 44c5 a13e a769 113e
00000370: 1ef6 acbd c6bb 2fbe 7a58 94bf df91 e4bd
00000380: ec75 8cbe 5ffb d7be 8f6c 1ebf ec99 103f
00000390: 8a36 0ebf 13ab a33d c552 4ebf b9ef 88be
000003a0: bed7 91be a3e8 003c f26e 36bf 1f76 8d3d
000003b0: a578 95be 13bd ffbe 0354 79be 41e8 8a3f
000003c0: a96b 133f f1ed 843e 51ed 633e 3aa9 3abf
000003d0: a7cb 283f 8660 0f3f b8e2 47bf 87c6 953f
000003e0: c6d0 863e f7f2 573e f4da 753e 0fa7 debd
000003f0: a230 503f 8536 dc3d b082 d23e ffa7 adbe

network_body._body_endoder.seq_layers.0.bias f4 [128]
0.0005662848 0.00027949217 -0.0014484379 -0.00080583984 -5.932992e-05 -0.0011899335 -0.00077739253 4.83494e-05
-2.500054e-05 -0.0021492743 -0.00069950416 0.0005916023 0.00079074263 -0.0019410582 -0.000502892 -0.0004193612
3.6615264e-05 3.130346e-05 -0.000106105625 0.0009142316 -0.0009360055 -0.0002776676 -0.0009142788 0.0020067284
-5.502473e-05 -0.000526795 -2.8345617e-05 -0.00032888522 0.000747009 -0.0011737333 0.0009499267 0.00062137825
-0.0005485982 -0.002250432 -0.00036429142 -0.00037931814 1.3801062e-05 -4.9858085e-05 0.001311656 0.00040994945
-0.0008580064 -0.00035988932 -0.0013894112 0.00031090094 0.00023523328 0.00018459579 -2.2508451e-05 4.961227e-05
-7.039446e-05 0.00021434909 -0.0009426731 -0.00033332908 -0.00061752857 -0.0015618255 0.00055333413 -0.0023122313
-0.00039152818 0.00079406856 -0.00031709648 7.121563e-05 -0.0009817614 -1.1198248e-05 0.00057537376 0.0015502995
-0.00069802173 0.0007271047 8.351748e-05 0.00039075565 -0.0002844054 -0.00030600722 -0.00041871303 -0.00041563914
-0.0001608124 0.002099428 0.0012814594 0.0004178012 -0.0001555128 -0.0001736985 -0.0007619087 -1.6961276e-06
5.1468287e-06 -0.0010195462 -0.001209469 0.000790409 0.00086977036 0.00026683035 -0.0006807777 -0.0002852504
0.000741522 -0.00021197743 -0.000254755 -0.0005517262 -0.0006607009 -0.0006423845 0.0003100821 -0.0008767459
-0.0008433672 0.0001455898 -0.00026501645 -0.00024225487 0.00017533556 -4.8425583e-05 -0.0005553775 -0.00086952385
-0.0002894253 -0.00023329094 -0.00017755729 0.00085052307 -8.994215e-05 9.808162e-05 -0.0002821475 -0.00091049756
-0.00051841995 -0.00055722136 0.00011339231 -0.0001467432 0.0009134804 0.00031384232 7.053411e-05 3.694822e-05
-0.0001475882 -0.00013042754 -0.0001548783 -8.6132626e-05 -4.216985e-05 -0.00022481754 -0.00018520647 -0.00037524526
00000000: bb72 143a ce88 9239 83d9 bdba ff3e 53ba
00000010: 04d9 78b8 8bf7 9bba eec9 4bba c6ca 4a38
00000020: 40b8 d1b7 d7da 0cbb ee5e 37ba c215 1b3a
00000030: d749 4f3a 1b6b feba 83d4 03ba b5dd dbb9
00000040: 5793 1938 d64b 0338 0685 deb8 0ba9 6f3a
00000050: 445e 75ba ea93 91b9 36ac 6fba 5183 033b
00000060: 5bca 66b8 9d18 0aba c0c7 edb7 3a6e acb9
00000070: edd2 433a f4d7 99ba 8004 793a fde3 223a
00000080: cdcf 0fba fc7b 13bb 5efe beb9 38df c6b9
00000090: 1c8b 6737 b61e 51b8 dfeb ab3a 7cee d639
000000a0: d6eb 60ba 87af bcb9 e71c b6ba 6b00 a339
000000b0: f4a8 7639 0e90 4139 88d0 bcb7 c516 5038
000000c0: bda0 93b8 e5c2 6039 b91d 77ba acc2 aeb9
000000d0: a4e1 21ba 2bb6 ccba a00d 113a ce88 17bb
000000e0: 0646 cdb9 0a29 503a f83f a6b9 9a59 9538
000000f0: 72ae 80ba 1ce0 3bb7 aed4 163a 6b33 cb3a
00000100: 72fb 36ba 2c9b 3e3a 1b26 af38 56de cc39
00000110: 3f1c 95b9 986f a0b9 b686 dbb9 24ea d9b9
00000120: c09f 28b9 8f96 093b a4f6 a73a 540c db39
00000130: 2611 23b9 d622 36b9 d4ba 47ba 80a6 e3b5
00000140: ecb2 ac36 4ba2 85ba 0c87 9eba 7333 4f3a
00000150: 4d01 643a 5de5 8b39 3876 32ba a98d 95b9
00000160: b362 423a 4246 5eb9 a390 85b9 b8a1 10ba
00000170: e332 2dba b265 28ba 8492 a239 6cd5 65ba
00000180: 6a15 5dba 77a9 1839 e8f1 8ab9 cc05 7eb9
00000190: 48da 3739 931c 4bb8 c196 11ba c2f0 63ba
000001a0: 02be 97b9 8f9f 74b9 ac2e 3ab9 a3f5 5e3a
000001b0: 539f bcb8 2bb1 cd38 32ed 93b9 75ae 6eba
000001c0: 93e6 07ba 7e12 12ba 08cd ed38 14df 19b9
000001d0: a276 6f3a 348b a439 b6eb 9338 d9f8 1a38
000001e0: e8c1 1ab9 60c3 08b9 d466 22b9 1aa2 b4b8
000001f0: 88df 30b8 00bd 6bb9 fc33 42b9 91bc c4b9

network_body._body_endoder.seq_layers.2.weight f4 [128, 128]
0.035776496 -0.17981632 -0.0047900206 -0.10243541 0.02884167 -0.15050317 -0.007928348 0.012116779
0.06962767 -0.09273063 0.05447329 -0.06653194 -0.013298171 -0.13740122 0.044675663 0.037170228
-0.049336456 -0.13160002 -0.09176026 -0.007304722 0.042901404 -0.09086247 0.019380016 0.054976705
0.09719204 0.03834153 -0.14985241 -0.045480248 -0.054468457 -0.21293426 0.048551783 0.033254214
0.0625956 0.009433588 0.11702632 -0.049535003 -0.11626744 0.07595085 -0.009605928 -0.018628301
0.030485183 0.1416934 -0.040985502 -0.13715367 -0.15970767 -0.09141473 0.11479537 -0.123950996
-0.00016693963 0.018468648 0.076160796 -0.15431891 -0.062129937 0.055590425 -0.12921962 -0.04334329
0.09032599 0.27214223 -0.059204742 -0.07579918 0.1484691 -0.026006328 -0.04890491 0.07756931
-0.022658283 -0.057601538 0.13590838 0.034690388 0.087514736 -0.066600874 -0.03977473 -0.0361163
-0.025418736 -0.09748461 0.012872373 -0.01750575 0.06713993 -0.04944898 0.0006501046 0.03228776
0.09714182 0.09933329 0.044165634 -0.001048736 -0.015442085 -0.047288023 -0.29131636 -0.05027896
-0.08282956 -0.07318371 -0.05815348 0.03946139 0.01691316 0.03244856 -0.17432006 -0.012937667
-0.09346439 -0.0011736292 -0.044517588 0.12147607 0.24055302 -0.1313399 0.04362757 0.051665075
-0.09151608 -0.023080302 -0.103978276 0.015555387 -0.12835184 0.04070303 0.011832699 0.026766157
-0.015317043 -0.015694411 0.071258664 -0.099024564 -0.099489845 0.07632606 0.14010069 0.02183205
0.071398385 0.07659541 0.12680116 0.05195763 -0.1254137 0.15166932 0.12720244 -0.07914034
0.029221224 -0.022395264 -0.057388075 -0.024443429 -0.01610404 0.13589771 0.05159638 0.009396153
0.14808324 -0.10949257 -0.051221933 0.12705353 0.03987534 -0.015811788 -0.061369766 -0.10021325
-0.00826599 0.031376373 -0.005635711 -0.122425534 -0.080467716 -0.024275675 0.0055569764 -0.0426642
-0.041365076 0.12876573 -0.08848976 -0.12969223 0.10657908 -0.05175753 -0.3079983 -0.07866734
-0.049455766 0.06756374 -0.11964229 -0.09407694 0.15043095 -0.10593577 0.0019853697 0.008050031
0.009496981 0.0016671359 0.02091358 0.039984506 -0.047502004 -0.025716832 0.1219485 0.008417122
0.001101762 -0.12886098 0.08658149 -0.023774467 0.039606325 0.004045397 0.08185579 -0.033225626
-0.16710211 -0.14311098 -0.025891636 -0.13155837 -0.012516507 -0.026484868 0.027742723 0.124094404
0.04227669 -0.06257808 0.06694501 -0.028475024 0.05842685 0.12719034 0.08165325 0.10025655
-0.03385859 0.045250278 0.060450748 -0.09726463 0.0046680043 -0.00353513 0.015981434 0.05140806
-0.15927507 -0.019440576 -0.12655336 0.089885235 0.010792281 -0.09239354 -0.031881496 -0.015016552
0.017345147 0.02657402 0.19878581 -0.15063007 -0.054837864 -0.017654074 -0.07234317 0.12155696
-0.025453996 -0.11693516 0.009926203 -0.102010414 0.009943461 -0.06978784 -0.027140949 -0.13426474
-0.056803163 -0.022005744 0.028992888 0.065760426 0.03109055 -0.06495796 0.048687685 -0.18492419
0.13316932 0.04509838 0.0059550283 0.093165115 0.06418931 0.06733585 -0.08433684 -0.073455095
0.0015344771 -0.063728474 0.09226854 0.115765736 -0.038225584 -0.10732764 -0.09177989 -0.055563707
00000000: 608a 123d c521 38be 9bf5 9cbb a8c9 d1bd
00000010: 5e45 ec3c 811d 1abe e7e5 01bc 7485 463c
00000020: f498 8e3d 8ee9 bdbd 621f 5f3d e641 88bd
00000030: 92e0 59bc e8b2 0cbe d4fd 363d cf3f 183d
00000040: 0615 4abd 28c2 06be ceec bbbd 735c efbb
00000050: 62b9 2f3d 1a16 babd d7c2 9e3c 412f 613d
00000060: 9f0c c73d 020c 1d3d e972 19be 7f49 3abd
00000070: 511a 5fbd 700b 5abe 3cde 463d 9235 083d
00000080: 1f32 803d 568f 1a3c 7fab ef3d 37e5 4abd
00000090: a01d eebd 1f8c 9b3d 2f62 1dbc 619a 98bc
000000a0: 10bc f93c 1318 113e 6ae0 27bd 0372 0cbe
000000b0: 688a 23be a537 bbbd d619 eb3d 05da fdbd
000000c0: 840c 2fb9 904b 973c 31fa 9b3d c705 1ebe
000000d0: f67b 7ebd c9b2 633d 2652 04be bc88 31bd
000000e0: d5fc b83d 3a56 8b3e ac80 72bd 9a3c 9bbd
000000f0: 4908 183e 390b d5bc 8450 48bd a9dc 9e3d
00000100: dd9d b9bc 97ef 6bbd 912b 0b3e 8217 0e3d
00000110: ed3a b33d 0a66 88bd d4ea 22bd afee 13bd
00000120: f43a d0bc 03a6 c7bd a5e6 523c 3868 8fbc
00000130: a980 893d 038b 4abd c86b 2a3a 2c40 043d
00000140: 4af2 c63d 406f cb3d 06e7 343d be75 89ba
00000150: cd00 7dbc 16b1 41bd 6b27 95be 50f1 4dbd
00000160: 8ba2 a9bd 57e1 95bd 5832 6ebd 44a2 213d
00000170: 788d 8a3c c8e8 043d f580 32be 82f8 53bc
00000180: 426a bfbd 76d4 99ba 1358 36bd 72c8 f83d
00000190: 8853 763e f77d 06be d3b2 323d c29e 533d
000001a0: c86c bbbd e712 bdbc 90f2 d4bd 06dc 7e3c
000001b0: aa6e 03be 38b8 263d f0dd 413c b344 db3c
000001c0: 56f4 7abc 9191 80bc 10f0 913d 64cd cabd
000001d0: 55c1 cbbd d650 9c3d 8e76 0f3e 21d9 b23c
000001e0: 5139 923d 0ede 9c3d 2ad8 013e 86d1 543d
000001f0: 736c 00be 344f 1b3e 5b41 023e 5514 a2bd
00000200: 5961 ef3c 4676 b7bc c20f 6bbd 963d c8bc
00000210: 9fec 83bc c528 0b3e ba56 533d 52f2 193c
00000220: 22a3 173e a43d e0bd 17ce 51bd 521a 023e
00000230: 5354 233d b987 81bc dd5e 7bbd 9b3c cdbd
00000240: 136e 07bc 8384 003d c5ab b8bb 3dba fabd
00000250: 42cc a4bd c8dd c6bc 4c17 b63b a8c0 2ebd
00000260: 6d6e 29bd 2adb 033e 1f3a b5bd 0ace 04be
00000270: 2246 da3d b4ff 53bd f4b1 9dbe 581c a1bd
00000280: 2192 4abd dc5e 8a3d 0407 f5bd 69ab c0bd
00000290: 920a 1a3e daf4 d8bd fa1c 023b 47e4 033c
000002a0: 3a99 1b3c cc83 da3a f552 ab3c cbc6 233d
000002b0: 7691 42bd 1bac d2bc 23c0 f93d f8e7 093c
000002c0: 0069 903a 22f4 03be a351 b13d acc2 c2bc
000002d0: 3e3a 223d 408f 843b 02a4 a73d 9817 08bd
000002e0: d11c 2bbe af8b 12be b21a d4bc 3db7 06be
000002f0: 0912 4dbc cbf6 d8bc b544 e33c 3525 fe3d
00000300: 532a 2d3d f028 80bd 771a 893d 7444 e9bc
00000310: fe50 6f3d 2f3e 023e d239 a73d 4e53 cd3d
00000320: 4eaf 0abd 5b58 393d 349b 773d ae32 c7bd
00000330: 0ff6 983b a4ad 67bb 7feb 823c 4291 523d
00000340: 0119 23be d841 9fbc 3497 01be c015 b83d
00000350: 1bd2 303c d338 bdbd 2c96 02bd fc07 76bc
00000360: 6917 8e3c c2b1 d93c 828e 4b3e c53e 1abe
00000370: ab9d 60bd 479f 90bc a828 94bd dbf2 f83d
00000380: e684 d0bc b37b efbd 83a1 223c d6ea d0bd
00000390: e6e9 223c edec 8ebd b256 debc b27c 09be
000003a0: 6faa 68bd 6445 b4bc 7e82 ed3c 67ad 863d
000003b0: 9cb1 fe3c ae08 85bd bd6c 473d c45c 3dbe
000003c0: 8a5d 083e 14b9 383d 6622 c33b 5acd be3d
000003d0: af75 833d 61e7 893d cbb8 acbd a06f 96bd
000003e0: 8220 c93a 1384 82bd 4af7 bc3d 9616 ed3d
000003f0: 6e92 1cbd 98ce dbbd 18f7 bbbd c596 63bd

network_body._body_endoder.seq_layers.2.bias f4 [128]
-3.162835e-05 0.0001072225 3.1083036e-05 -0.00055403146 -0.00034096086 -0.0008737225 -6.1793e-05 6.191975e-05
0.00070168177 2.6937741e-06 -0.0007214098 -0.0003847106 -0.000107581945 -0.00015598952 -0.00016828769 -5.3014017e-05
-0.000670378 -0.00029424395 -0.00019493517 -6.201942e-05 -0.0008231259 -0.00045098749 -8.7107444e-05 -7.044061e-05
2.926778e-05 -0.0003673108 1.7101695e-05 -0.0004765724 -0.00022430561 -0.00014106614 -0.00011760986 0.00047089517
-0.0007688831 -5.2913976e-05 -0.00011928742 0.00014286401 -0.00039312505 -3.089288e-05 0.00054821564 0.000296426
-0.00060936966 -0.0014735704 0.0003602022 -0.00068112824 0.00019357937 -0.000105247585 -0.0017728027 -0.0006050351
-0.00013916129 -2.7642094e-05 0.00026620613 -0.00050831056 0.00030866265 -6.979308e-05 7.988132e-05 -0.0024865256
-9.853524e-06 -0.0005591838 -0.00021923441 -0.00010875804 -0.00014489706 -3.0663374e-05 -0.00077213073 0.00036130042
-0.00069923076 -4.5006615e-05 -7.558444e-05 -0.0001007307 -0.0006297301 -0.00014865914 -0.00074385037 -0.00012487939
-0.00030364573 -5.9474158e-05 0.00027465553 0.00016849386 -2.579873e-05 2.8624849e-05 -3.6708814e-05 8.181775e-05
-0.00014236636 -0.0009463006 0.00034265363 -0.00069419434 -6.7652094e-05 0.0003765475 0.00061433075 0.0004654829
-0.0002601609 0.00038464973 -3.8313774e-05 -0.00017144543 -7.9832666e-05 -0.00013805993 -5.891303e-06 7.830348e-05
-0.00031213564 0.00018269321 1.9496521e-05 -2.5556e-06 0.0012592034 -0.00038241598 0.00028845586 -0.00042650034
-0.0001867449 -0.00068788195 -1.348578e-05 -0.00034585514 -0.0010864433 -4.7780046e-05 0.00022190931 -0.0002977791
0.0019941772 -0.00058451 -0.00016548976 -0.0005079916 -0.0022858733 0.00059058884 -6.041469e-05 -0.0011666159
-0.00055748265 -0.00051751116 3.0065781e-05 -6.998985e-05 -0.00011083842 -0.0012447245 -0.0001631072 -0.00020586207
00000000: afa8 04b8 a4dc e038 285f 0238 6c3c 11ba
00000010: fec2 b2b9 860a 65ba dd96 81b8 eada 8138
00000020: 11f1 373a b0c6 3436 fe1c 3dba fcb2 c9b9
00000030: 9e9d e1b8 1e91 23b9 6276 30b9 5e5b 5eb8
00000040: 4ebc 2fba c144 9ab9 8367 4cb9 6c10 82b8
00000050: 0bc7 57ba 8472 ecb9 74ad b6b8 84b9 93b8
00000060: 1484 f537 9f93 c0b9 9c75 8f37 77dc f9b9
00000070: 9433 6bb9 27eb 13b9 50a5 f6b8 7be2 f639
00000080: df8e 49ba f3ef 5db8 f229 fab8 c4cd 1539
00000090: 5a1c ceb9 fa92 01b8 21b6 0f3a a069 9b39
000000a0: 1bbe 1fba d124 c1ba 85d9 bc39 be8d 32ba
000000b0: 91fb 4a39 5eb8 dcb8 635d e8ba 389b 1eba
000000c0: d3eb 11b9 f2e0 e7b7 9591 8b39 2540 05ba
000000d0: 00d4 a139 e05d 92b8 f585 a738 faf4 22bb
000000e0: 9050 25b7 3196 12ba 4ae2 65b9 0715 e4b8
000000f0: 82ef 17b9 8c9c 00b8 d168 4aba ec6c bd39
00000100: 954c 37ba 7cc5 3cb8 1683 9eb8 623f d3b8
00000110: 7914 25ba 62e1 1bb9 f4fe 42ba 0ef2 02b9
00000120: a432 9fb9 e473 79b8 a4ff 8f39 baad 3039
00000130: 5a6a d8b7 651f f037 caf7 19b8 9295 ab38
00000140: 2e48 15b9 2911 78ba 31a6 b339 98fa 35ba
00000150: 71e0 8db8 5a6b c539 0a0b 213a 0f0c f439
00000160: 3466 88b9 d0aa c939 1ab3 20b8 08c6 33b9
00000170: d66b a7b8 2ec4 10b9 e8ad c5b6 dc36 a438
00000180: 23a6 a3b9 5691 3f39 768c a337 e080 2bb6
00000190: db0b a53a 017f c8b9 e43b 9739 e89b dfb9
000001a0: f4d0 43b9 fa52 34ba fc40 62b7 e453 b5b9
000001b0: fd66 8eba 6f67 48b8 54b0 6839 3c1f 9cb9
000001c0: beb0 023b cd39 19ba 5287 2db9 bd2a 05ba
000001d0: 97ce 15bb bfd1 1a3a c865 7db8 22e9 98ba
000001e0: 0724 12ba 96a9 07ba c635 fc37 84c7 92b8
000001f0: ec71 e8b8 0626 a3ba c107 2bb9 aedc 57b9

action_model._continuous_distribution.log_sigma f4 [1, 2]
0.003051186 -0.004223078
00000000: 68f6 473b bf61 8abb

action_model._continuous_distribution.mu.weight f4 [2, 128]
-0.014452845 -0.013588072 0.009052997 -0.01312105 0.006358471 -0.0131736575 0.03981859 -0.03653347
0.040340252 -0.021665227 -0.016305523 -0.0047360803 -0.0175971 0.0023685805 0.0254972 0.012239953
0.007052165 -0.016875219 0.01628301 0.015260338 0.008015515 0.0071053673 -0.010302544 0.04041556
0.012072187 -0.015797658 0.0074568843 -0.017055461 -0.007281651 0.014558563 -0.010283658 0.019995404
-0.0021445146 -0.020253468 0.018807702 0.004384615 -0.0019796072 0.012736947 -0.019253677 -0.009448608
-0.010095904 -0.01071353 -0.034912933 -0.007571708 0.04632428 -0.020989986 -0.00038766654 -0.0039260257
-0.009225271 -0.02143451 -0.0010060299 0.0006100653 0.014889704 0.0009776882 0.007883056 0.04031683
-0.017920725 0.0001379128 -0.010806744 -0.006333384 -0.009095583 0.0012824293 -0.010158994 -0.038365733
0.00023664403 -0.017936133 0.013536379 -0.019080998 0.0022164579 -0.0057551325 -0.014242058 -0.005747529
-0.03427798 0.011069145 0.01733187 0.008948658 -0.013908322 0.030486671 -0.012358709 -0.0045812135
0.013540864 -0.024355356 0.018258207 -0.0026172828 -0.0030029798 -0.0012488571 0.031871393 0.01600435
-0.004836972 0.0020744205 -0.013609237 -0.0022036545 -0.0033842998 0.020217657 -0.021928681 -0.026843986
-0.0011253922 0.008068603 -0.004003168 -0.024298562 2.6470896e-05 -0.019677348 0.0051098447 -9.669519e-05
-0.0017704829 -0.0056873346 0.028613526 0.0025618302 -0.0023583905 -0.011586251 0.02143502 0.015205181
-0.019151688 -0.0039141662 -0.0054501006 0.0032773141 0.006773469 0.026145514 0.007769336 -0.0021190392
-0.008999409 -0.006745309 -0.020518105 -0.011332899 0.013318083 0.0025748813 0.0070179394 -0.004399877
-0.011954534 0.0065047457 -0.007887439 -0.004369227 0.03881805 -0.0009889874 0.034270722 0.00442017
-0.0029655497 -0.011939793 -0.018865166 -0.005285357 0.035643775 0.027541699 0.016318135 -0.014022545
0.0024767402 0.0049856594 0.00061056606 0.019264506 0.041023362 0.013322601 -0.010492031 -0.00956826
0.0087302 -0.016291121 0.005306756 -0.025702342 -0.011772065 0.0046288236 0.009507866 -0.0017849348
0.010083668 0.027274491 -0.0038077608 -0.010307537 0.0030709298 -0.02149936 -0.0062988014 -0.022459416
0.0012247385 0.003732668 0.009838174 0.004973752 -0.023187159 -0.025052907 -0.0016365153 0.018650152
-0.014182289 0.025738021 0.029849757 0.008733142 -0.0049186256 -0.01532057 -0.0025501833 0.0057426263
0.017106932 -0.008719401 0.011576269 0.012398448 -0.01605313 -0.022819193 0.010253188 -0.007901844
0.0072094537 -0.009108164 -0.013663161 -0.0077166846 0.025082305 0.008578803 0.0148699265 0.02082105
-0.012185355 0.023595097 -0.015057751 0.034216918 0.0046282914 0.040673897 -0.012790212 -0.040710792
0.0045507774 -0.02128981 -0.014732374 0.00066868705 -0.013600499 -0.028433371 0.021877417 -0.009240397
-0.0070444862 0.029384004 -0.012115348 -0.0034878582 -0.04702139 0.0060086995 -0.013234401 -0.013521711
0.0088373 -0.030934602 0.032615196 -0.021908872 -0.025826002 0.021743033 -0.019035662 -0.009951091
0.019054107 0.010193462 0.0011147932 0.028273579 -0.005712561 0.00065524294 0.01768967 -0.010609995
-0.010476003 -0.023339648 -0.0042292764 0.007274276 0.0031279775 0.018019363 -0.0005669596 -0.0020544534
0.008955895 -0.005282412 0.0051305527 0.030596511 0.01294926 -0.022932114 0.008705853 -0.0011390387
00000000: a0cb 6cbc 81a0 5ebc 0653 143c acf9 56bc
00000010: b85a d03b 53d6 57bc d118 233d 1fa4 15bd
00000020: d23b 253d 467b b1bc 2993 85bc 1f31 9bbb
00000030: cb27 90bc 303a 1b3b 81df d03c 158a 483c
00000040: d915 e73b e63d 8abc f263 853c 7f06 7a3c
00000050: 8253 033c 24d4 e83b 00cc 28bc c98a 253d
00000060: 6cca 453c 176a 81bc e158 f43b e5b7 8bbc
00000070: ea9a eebb 0a87 6e3c ca7c 28bc 67cd a33c
00000080: fc8a 0cbb 9aea a5bc 9c12 9a3c d1ac 8f3b
00000090: 4cbc 01bb a1ae 503c e3b9 9dbc 56ce 1abc
000000a0: 4a69 25bc cd87 2fbc dd00 0fbd 171c f8bb
000000b0: 87be 3d3d 31f3 abbc b93f cbb9 e4a5 80bb
000000c0: 9725 17bc 6d97 afbc c3dc 83ba caec 1f3a
000000d0: f2f3 733c c625 803a ef27 013c 4323 253d
000000e0: 7cce 92bc af9c 1039 c50e 31bc 4788 cfbb
000000f0: a405 15bc 3017 a83a e971 26bc 6325 1dbd
00000100: a623 7839 ccee 92bc b0c7 5d3c c14f 9cbc
00000110: fe41 113b 8d95 bcbb 8557 69bc c555 bcbb
00000120: 1167 0cbd 5c5b 353c 91fb 8d3c 649d 123c
00000130: bbdf 63bc 2fbf f93c 2f7c 4abc 011e 96bb
00000140: 80da 5d3c e284 c7bc 3c92 953c b886 2bbb
00000150: a4cd 44bb b1b0 a3ba 948b 023d 8e1b 833c
00000160: 767f 9ebb 00f3 073b 47f9 5ebc 306b 10bb
00000170: 21cb 5dbb 809f a53c c7a3 b3bc ebe7 dbbc
00000180: e581 93ba 2d32 043c 022d 83bb c70d c7bc
00000190: d10d de37 6432 a1bc 7c70 a73b d6c8 cab8
000001a0: 8c0f e8ba d25c babb ea66 ea3c 61e4 273b
000001b0: 3a8f 1abb 42d4 3dbc 7f98 af3c 271f 793c
000001c0: 00e4 9cbc 6842 80bb c296 b2bb 35c8 563b
000001d0: faf3 dd3b 1e2f d63c ea95 fe3b 94df 0abb
000001e0: 4272 13bc c107 ddbb 9615 a8bc a0ad 39bc
000001f0: 1734 5a3c 57bf 283b bef6 e53b d82c 90bb
00000200: f3dc 43bc c325 d53b 513a 01bc bc2b 8fbb
00000210: adff 1e3d e9a0 81ba 755f 0c3d 13d7 903b
00000220: ab59 42bb 1f9f 43bc 1f8b 9abc ca30 adbb
00000230: 35ff 113d 219f e13c 9cad 853c d1be 65bc
00000240: ce50 223b be5e a33b 650e 203a 99d0 9d3c
00000250: 1d08 283d 0a47 5a3c c5e6 2bbc 31c4 1cbc
00000260: 1d09 0f3c f574 85bc 4ce4 ad3b b88d d2bc
00000270: 9fdf 40bc 63ad 973b e1c6 1b3c 79f4 e9ba
00000280: f835 253c c16e df3c a08b 79bb f2e0 28bc
00000290: a741 493b 6d1f b0bc 2d66 cebb cffc b7bc
000002a0: 6887 a03a c79f 743b 4b30 213c dbfa a23b
000002b0: fff2 bdbc c13b cdbc 5780 d6ba 34c8 983c
000002c0: d55c 68bc 8bd8 d23c 7a87 f43c 7415 0f3c
000002d0: 6c2c a1bb 2103 7bbc fa20 27bb a42c bc3b
000002e0: d623 8c3c d2db 0ebc 64aa 3d3c dc22 4b3c
000002f0: db81 83bc 51ef babc fdfc 273c bc76 01bc
00000300: 483d ec3b 693a 15bc 73db 5fbc 3edc fcbb
00000310: 6879 cd3c 1c8e 0c3c fea0 733c e890 aa3c
00000320: 15a5 47bc 814a c13c c9b4 76bc 0a27 0c3d
00000330: eca8 973b ac99 263d 0a8e 51bc 5cc0 26bd
00000340: b01e 953b f867 aebc 0e60 71bc d44a 2f3a
00000350: a1d4 5ebc 1aed e8bc 4538 b33c 0965 17bc
00000360: 6fd5 e6bb b9b6 f03c 747f 46bc 8d94 64bb
00000370: 8099 40bd a0e4 c43b 1ad5 58bc 2b8a 5dbc
00000380: 53ca 103c 906a fdbc 8397 053d 3c7a b3bc
00000390: 0d91 d3bc 721e b23c adf0 9bbc e709 23bc
000003a0: 5c17 9c3c 7a02 273c 411e 923a fe9d e73c
000003b0: 6f30 bbbb 9cc4 2b3a ede9 903c 8bd5 2dbc
000003c0: 8ba3 2bbc ca32 bfbc be95 8abb 0d5d ee3b
000003d0: c1fe 4c3b 589d 933c 04a0 14ba 02a4 06bb
000003e0: bfbb 123c 1518 adbb 321e a83b 89a5 fa3c
000003f0: 2229 543c 21dc bbbc fea2 0e3c cc4b 95ba

action_model._continuous_distribution.mu.bias f4 [2]
-4.2892614e-05 -8.768854e-05
00000000: 98e7 33b8 6de5 b7b8

exp_avg f4 [128, 6]
-4.9070797e-05 -8.247183e-05 0.00012083991 2.4843754e-05 -8.429654e-05 8.487116e-05 -1.6433167e-09 -3.6744554e-09
4.693339e-09 1.1068908e-09 -3.755751e-09 3.7813486e-09 3.939751e-06 -1.0689826e-06 -4.3232956e-07 3.220292e-07
-1.0926567e-06 1.1000968e-06 -0.00012181808 -0.00016218914 0.00026166378 4.8857717e-05 -0.00016577714 0.0001669068
-0.0004474004 -0.0004894132 0.0007340628 0.00014743058 -0.00050024147 0.0005036506 3.1175867e-07 2.8017394e-07
-4.4226593e-07 -8.439958e-08 2.8637274e-07 -2.8832397e-07 9.808722e-07 1.7499218e-06 -2.8547627e-06 -5.271451e-07
1.7886427e-06 -1.8008309e-06 1.9441379e-05 1.02638005e-05 2.1797432e-06 -3.0919202e-06 1.0490793e-05 -1.0562342e-05
-0.00045401521 -0.0004412848 0.0006523274 0.00013293244 -0.0004510483 0.00045412107 -2.7168364e-05 -6.8543354e-06
1.0753962e-05 2.06482e-06 -7.0059286e-06 7.0537894e-06 3.0876816e-07 1.6195337e-07 -2.8294843e-07 -4.8786564e-08
1.655377e-07 -1.6666488e-07 -7.251031e-05 -0.00011009565 0.00017003046 3.3165084e-05 -0.00011253133 0.0001132981
0.00025122525 0.00025609354 -0.00038211324 -7.714561e-05 0.0002617595 -0.00026354418 -4.072537e-05 -2.7439537e-05
5.21006e-05 8.265871e-06 -2.8046596e-05 2.8237782e-05 -3.0024934e-05 -3.814291e-05 7.012197e-05 1.1490188e-05
-3.898689e-05 3.9252456e-05 -0.00018996898 -0.00025064964 0.0004088135 7.550569e-05 -0.0002561955 0.00025794137
0.0002929141 0.00030081722 -0.00045540134 -9.061792e-05 0.00030747242 -0.0003095674 1.4117315e-08 1.0114658e-09
2.369847e-09 -3.0463046e-10 1.0337498e-09 -1.0410257e-09 -0.00012733835 -0.00011248854 0.00015083305 3.388608e-05
-0.00011497732 0.000115760806 9.5429415e-09 5.8320484e-08 -6.8488866e-08 -1.7568395e-08 5.961035e-08 -6.001671e-08
-1.2023635e-05 -1.225616e-05 2.0578225e-05 3.692036e-06 -1.2527355e-05 1.2612694e-05 -3.7949942e-06 -7.162316e-06
1.0602507e-05 2.1575675e-06 -7.3208075e-06 7.3706674e-06 -3.7522568e-05 -3.688873e-05 5.6410845e-05 1.11123345e-05
-3.7704933e-05 3.7961716e-05 -1.2268581e-06 -1.7098555e-05 1.7271277e-05 5.1507773e-06 -1.7476907e-05 1.7596009e-05
0.0005657195 0.0006118682 -0.0009197983 -0.00018431856 0.00062540546 -0.00062966644 7.2348257e-06 4.597207e-05
-8.048703e-05 -1.3848713e-05 4.6989582e-05 -4.7309753e-05 0.00066435547 0.0007216405 -0.0010979826 -0.00021738664
0.0007376062 -0.0007426331 -3.118203e-05 -3.3311277e-05 5.22418e-05 1.0034678e-05 -3.40483e-05 3.4280318e-05
-2.9925038e-06 -2.9542957e-06 4.513184e-06 8.8994864e-07 -3.0196588e-06 3.040231e-06 5.8346467e-07 1.2061307e-06
-1.172102e-06 -3.6333844e-07 1.2328208e-06 -1.2412257e-06 -5.621182e-07 -1.1706621e-06 2.3608197e-06 3.5265057e-07
-1.1965604e-06 1.20472e-06 0.00015055631 0.00019338659 -0.0003070447 -5.825579e-05 0.00019766555 -0.00019901218
-6.0974355e-05 -0.000120670236 0.0002012771 3.6350684e-05 -0.00012334067 0.00012418015 -1.5615025e-05 5.741516e-06
-2.846325e-06 -1.7295744e-06 5.8685514e-06 -5.9085355e-06 -0.00026863816 -0.00024584585 0.00035236092 7.40585e-05
-0.00025128468 0.00025299838 4.1650535e-05 9.3964925e-05 -0.00015324823 -2.830605e-05 9.604401e-05 -9.669843e-05
0.0003946785 0.00043330068 -0.00066102255 -0.00013052729 0.0004428875 -0.00044590552 0.0005553448 0.0006046421
-0.00091103127 -0.00018214187 0.0006180201 -0.0006222309 3.652086e-06 2.345531e-06 -1.846782e-06 -7.0656847e-07
2.3974264e-06 -2.4137616e-06 2.418067e-05 3.9819082e-05 -6.3509855e-05 -1.1995092e-05 4.070007e-05 -4.09775e-05
5.366398e-06 5.2701703e-06 -8.036556e-06 -1.5875887e-06 5.3867834e-06 -5.4234893e-06 -2.7803635e-05 -2.142261e-05
2.861124e-05 6.4533274e-06 -2.1896552e-05 2.2045786e-05 1.9851017e-05 3.7404436e-05 -4.0913077e-05 -1.12676835e-05
00000000: 5ed1 4db8 baf4 acb8 6f6b fd38 8e67 d037
00000010: 5cc8 b0b8 dbfc b138 11db e1b0 b481 7cb1
00000020: 0c43 a131 4221 9830 ef0b 81b1 18ed 8131
00000030: 3432 8436 f679 8fb5 ec1a e8b4 5be3 ac34
00000040: 66a7 92b5 0aa7 9335 9578 ffb8 5111 2ab9
00000050: eb2f 8939 93ec 4c38 76d4 2db9 b403 2f39
00000060: 1191 eab9 f74b 00ba 1f6e 403a 9897 1a39
00000070: a322 03ba 6b07 043a c95f a734 d06a 9634
00000080: 9170 edb4 293f b5b3 c5be 9934 f2ca 9ab4
00000090: 83a6 8335 dbde ea35 7394 3fb6 2381 0db5
000000a0: 4c11 f035 14b4 f1b5 0b16 a337 b032 2c37
000000b0: b447 1236 c97e 4fb6 9d01 3037 ea34 31b7
000000c0: e408 eeb9 3e5c e7b9 f300 2b3a c863 0b39
000000d0: ae7a ecb9 1917 ee39 9ee7 e3b7 4bfe e5b6
000000e0: ea6b 3437 5691 0a36 7814 ebb6 97af ec36
000000f0: c6c4 a534 67e5 2d34 23e8 97b4 6589 51b3
00000100: a8be 3134 7ef4 32b4 ad10 98b8 27e3 e6b8
00000110: 344a 3239 bd1a 0b38 ccfe ebb8 749a ed38
00000120: e2b6 8339 4b44 8639 5f56 c8b9 3cc9 a1b8
00000130: c43c 8939 4d2c 8ab9 88d0 2ab8 f52d e6b7
00000140: 9886 5a38 a5ad 0a37 9b45 ebb7 2de0 ec37
00000150: 0ede fbb7 a3fb 1fb8 720e 9338 fbc5 4037
00000160: db85 23b8 01a3 2438 6932 47b9 a069 83b9
00000170: 0556 d639 cf58 9e38 fa51 86b9 4e3c 8739
00000180: 4492 9939 01b7 9d39 efc2 eeb9 200a beb8
00000190: 4034 a139 6f4d a2b9 9c88 7232 ca03 8b30
000001a0: cada 2231 ed78 a7af d613 8e30 d613 8fb0
000001b0: 2186 05b9 d3e7 ebb8 f028 1e39 e720 0e38
000001c0: fb1f f1b8 9cc4 f238 4df2 2332 0d7c 7a33
000001d0: 2714 93b3 4fe9 96b2 2303 8033 89e2 80b3
000001e0: 1eb9 49b7 ce9f 4db7 679f ac37 b2c4 7736
000001f0: 942c 52b7 1c9b 5337 81ad 7eb6 d353 f0b6
00000200: 6ce1 3137 baca 1036 42a5 f5b6 8d51 f736
00000210: 8d61 1db8 f9b8 1ab8 af9a 6c38 1d6f 3a37
00000220: 5d25 1eb8 1539 1f38 86aa a4b5 de6e 8fb7
00000230: c9e1 9037 d7d4 ac36 5f9b 92b7 249b 9337
00000240: cb4c 143a c865 203a 9e1e 71ba a345 41b9
00000250: 40f2 233a 3310 25ba aec2 f236 22d2 4038
00000260: 25cb a8b8 c557 68b7 ae16 4538 766e 46b8
00000270: 2428 2e3a 792c 3d3a 2fea 8fba 48f2 63b9
00000280: ea5b 413a 44ad 42ba 73c9 02b8 b6b7 0bb8
00000290: 351e 5b38 9d5a 2837 15cf 0eb8 36c8 0f38
000002a0: d3d2 48b6 6a42 46b6 f56f 9736 cee4 6e35
000002b0: 58a5 4ab6 c506 4c36 639f 1c35 56e2 a135
000002c0: 1e51 9db5 db10 c3b4 6677 a535 3198 a6b5
000002d0: 78e4 16b5 a51f 9db5 936e 1e36 ed53 bd34
000002e0: 8199 a0b5 ddb1 a135 a7de 1d39 d1c7 4a39
000002f0: d8fa a0b9 ae57 74b8 7144 4f39 edad 50b9
00000300: b7be 7fb8 5710 fdb8 e90d 5339 4077 1838
00000310: 0255 01b9 5b36 0239 03fd 82b7 3fa7 c036
00000320: 7e03 3fb6 b923 e8b5 79ea c436 ef41 c6b6
00000330: 01d8 8cb9 dfe4 80b9 15bd b839 db4f 9b38
00000340: dcbe 83b9 dea4 8439 ecb1 2e38 090f c538
00000350: 42b1 20b9 c872 edb7 3c6b c938 93ca cab8
00000360: daec ce39 a22c e339 7948 2dba 27de 08b9
00000370: 5b33 e839 6dc8 e9b9 8f94 113a d880 1e3a
00000380: 46d2 6eba 56fd 3eb9 a002 223a 351d 23ba
00000390: 5c16 7536 ea67 1d36 f2de f7b5 04ab 3db5
000003a0: 79e3 2036 1cfc 21b6 98d7 ca37 6a03 2738
000003b0: 9830 85b8 873e 49b7 5eb5 2a38 41df 2bb8
000003c0: 0211 b436 6bd6 b036 bfd4 06b7 2215 d5b5
000003d0: 1ec0 b436 6bfb b5b6 da3b e9b7 b4b4 b3b7
000003e0: 2c02 f037 a989 d836 7dae b7b7 f7ee b837
000003f0: bc85 a637 b5e2 1c38 159a 2bb8 550a 3db7

exp_avg_sq f4 [128, 6]
1.0915024e-08 2.2474211e-08 4.0401467e-08 2.0394282e-09 2.3479693e-08 2.3800773e-08 4.1505863e-18 1.8299955e-17
2.8554563e-17 1.6606333e-18 1.9118662e-17 1.9380117e-17 1.0520329e-09 1.3215452e-09 2.930999e-09 1.199239e-10
1.3806711e-09 1.399551e-09 7.032775e-08 8.068568e-08 1.5831178e-07 7.3218436e-09 8.429544e-08 8.544821e-08
2.61802e-07 2.448747e-07 5.711547e-07 2.2221215e-08 2.5583023e-07 2.5932871e-07 2.1623882e-13 2.4731785e-13
4.8428476e-13 2.2442922e-14 2.5838267e-13 2.6191609e-13 3.337896e-11 2.5801458e-11 4.8260215e-11 2.3413606e-12
2.695579e-11 2.7324431e-11 3.1974373e-08 1.9375737e-08 4.936539e-08 1.7582567e-09 2.0242592e-08 2.0519424e-08
4.7441992e-07 3.8498422e-07 9.19022e-07 3.493545e-08 4.0220792e-07 4.07708e-07 9.626863e-10 6.0365632e-09
9.019352e-09 5.4778937e-10 6.306631e-09 6.3928796e-09 2.9620387e-13 5.879934e-13 9.688951e-13 5.3357628e-14
6.142997e-13 6.227005e-13 2.065646e-08 2.6327603e-08 5.000515e-08 2.3891065e-09 2.750548e-08 2.7881626e-08
1.9991498e-07 1.3305589e-07 3.4638614e-07 1.2074199e-08 1.3900873e-07 1.4090979e-07 1.6895311e-09 1.2450085e-09
3.0032419e-09 1.1297854e-10 1.3007093e-09 1.3184966e-09 1.6581431e-08 1.3781158e-08 2.9926834e-08 1.2505755e-09
1.43977195e-08 1.4594603e-08 1.4514922e-07 1.4946973e-07 3.224941e-07 1.35636755e-08 1.5615707e-07 1.582925e-07
2.1265183e-07 1.6355388e-07 4.1164614e-07 1.4841743e-08 1.7087119e-07 1.7320781e-07 5.395004e-15 3.1582647e-14
4.506597e-14 2.8659747e-15 3.2995643e-14 3.3446844e-14 9.467751e-08 6.904324e-08 1.6720516e-07 6.265348e-09
7.213218e-08 7.311858e-08 2.7715692e-14 9.673277e-14 1.5426362e-13 8.778041e-15 1.0106054e-13 1.02442496e-13
2.6875116e-10 1.9778706e-10 4.735373e-10 1.7948245e-11 2.0663606e-10 2.0946167e-10 2.1884955e-10 2.5335176e-10
4.97358e-10 2.299048e-11 2.6468683e-10 2.6830624e-10 6.2995134e-09 3.786704e-09 9.318874e-09 3.4362527e-10
3.9561163e-09 4.0102175e-09 3.1356903e-10 9.413984e-10 1.3977186e-09 8.542751e-11 9.835162e-10 9.969664e-10
4.3036934e-07 3.926873e-07 9.271561e-07 3.5634518e-08 4.1025564e-07 4.15866e-07 4.0545405e-08 5.5003813e-08
1.01411004e-07 4.9913367e-09 5.7464668e-08 5.8250528e-08 6.876844e-07 6.352376e-07 1.4808021e-06 5.764481e-08
6.6365783e-07 6.727335e-07 1.2010316e-09 1.0873339e-09 2.6787839e-09 9.8670405e-11 1.1359809e-09 1.1515153e-09
1.0287725e-11 1.1952127e-11 2.667153e-11 1.084598e-12 1.2486857e-11 1.2657618e-11 4.4977945e-11 3.1406683e-11
8.866601e-11 2.8500097e-12 3.2811795e-11 3.3260485e-11 2.6241008e-11 1.9507397e-11 3.862464e-11 1.7702048e-12
2.0380145e-11 2.0658855e-11 9.7747986e-08 9.881144e-08 2.0545149e-07 8.966666e-09 1.0323214e-07 1.04643895e-07
1.2239147e-07 1.2524872e-07 2.5944706e-07 1.1365724e-08 1.3085221e-07 1.326416e-07 4.4693071e-10 1.5962363e-09
2.369963e-09 1.4485081e-10 1.667651e-09 1.6904568e-09 2.1543296e-07 1.4416247e-07 3.846844e-07 1.3082068e-08
1.5061214e-07 1.5267187e-07 6.878777e-08 6.664893e-08 1.4347728e-07 6.04808e-09 6.963077e-08 7.058298e-08
1.8482113e-07 1.9216971e-07 4.4088597e-07 1.7438488e-08 2.0076723e-07 2.0351268e-07 5.8608737e-07 5.1669707e-07
1.230734e-06 4.6887816e-08 5.3981387e-07 5.4719567e-07 6.996971e-11 4.050786e-11 1.056548e-10 3.675894e-12
4.2320106e-11 4.2898837e-11 9.537512e-09 2.1475758e-08 3.55126e-08 1.9488229e-09 2.243656e-08 2.274339e-08
4.981417e-11 7.144325e-11 1.4951308e-10 6.4831413e-12 7.463959e-11 7.5660284e-11 5.5870597e-09 3.1848344e-09
9.342718e-09 2.8900862e-10 3.327321e-09 3.3728242e-09 9.514746e-10 4.59281e-09 7.2199446e-09 4.167757e-10
00000000: c984 3b32 500d c132 e285 2d33 0026 0c31
00000010: 64b0 c932 7472 cc32 2e21 9922 8cc9 a823
00000020: 47af 0324 f410 f521 aa56 b023 02c0 b223
00000030: 1e97 9030 bda1 b530 ae6a 4931 94db 032f
00000040: 0cc2 bd30 535a c030 1707 9733 6c45 ad33
00000050: 69fc 2934 9e93 fb31 e905 b533 a67f b733
00000060: cb8d 8c34 5377 8334 7451 1935 f8e0 be32
00000070: 0a59 8934 de39 8b34 9976 732a 423a 8b2a
00000080: 6550 082b db25 ca28 de74 912a 1672 932a
00000090: 5ecd 122e b8f3 e22d 2c40 542e 34c2 242c
000000a0: 0b1b ed2d 2659 f02d 3254 0933 b26f a632
000000b0: d205 5433 28a7 f130 eee1 ad32 b142 b032
000000c0: c7b3 fe34 d4af ce34 b6b2 7635 ef0b 1633
000000d0: 09ef d734 f6e2 da34 834f 8430 2c6a cf31
000000e0: 88f3 1a32 4093 1630 b7b1 d831 5da8 db31
000000f0: 7abf a62a 6481 252b 205c 882b 284d 7029
00000100: f5e8 2c2b 4d46 2f2b 0970 b132 0327 e232
00000110: 3ec5 5633 9b2d 2431 3145 ec32 5880 ef32
00000120: 36a8 5634 20de 0e34 f3f6 b934 e46e 4f32
00000130: 6e42 1534 fd4c 1734 1735 e830 d81c ab30
00000140: 9761 4e31 4471 f82e a4c4 b230 7a36 b530
00000150: f46e 8e32 2dc2 6c32 e788 0033 b7e0 ab30
00000160: d759 7732 bebb 7a32 50da 1b34 ed7d 2034
00000170: 4023 ad34 ad05 6932 21ac 2734 1cf7 2934
00000180: 4a55 6434 599d 2f34 3700 dd34 adfa 7e32
00000190: b778 3734 00fb 3934 2160 c227 503c 0e29
000001a0: 87f5 4a29 e783 4e27 6399 1429 96a1 1629
000001b0: 8351 cb33 ec44 9433 0189 3334 9546 d731
000001c0: 16e7 9a33 5d05 9d33 09a4 f928 a5d2 d929
000001d0: 76af 2d2a 9221 1e28 6f91 e329 14ae e629
000001e0: 5dbf 932f 1c78 592f 3a2a 0230 dbdf 9d2d
000001f0: e132 632f 384e 662f aca0 702f 1748 8b2f
00000200: 75b6 0830 f539 ca2d 5c83 912f bf80 932f
00000210: 1b73 d831 331c 8231 d718 2032 f5e8 bc2f
00000220: 5eee 8731 3fca 8931 eb62 ac2f 8362 8130
00000230: da19 c030 6adb bb2e 662c 8730 a305 8930
00000240: 830d e734 88d2 d234 afe1 7835 910c 1933
00000250: 1b41 dc34 3044 df34 2524 2e33 553d 6c33
00000260: 4ac7 d933 4380 ab31 12cf 7633 222f 7a33
00000270: 5099 3835 3285 2a35 f9bf c635 2495 7733
00000280: 3826 3235 e595 3435 8b11 a530 2971 9530
00000290: aa15 3831 80fa d82e c620 9c30 5843 9e30
000002a0: cbfb 342d 9843 522d f29a ea2d c3a4 982b
000002b0: ceab 5b2d d8ac 5e2d aad0 452e c820 0a2e
000002c0: 87fa c22e 368d 482c cc4e 102e fa47 122e
000002d0: 7fd1 e62d c196 ab2d 7bdf 292e 5922 f92b
000002e0: 0244 b32d 9bb7 b52d 86e9 d133 2a32 d433
000002f0: 139a 5c34 d00b 1a32 78b0 dd33 97b8 e033
00000300: b66a 0334 1b7c 0634 224a 8b34 fc42 4332
00000310: 6280 0c34 3f6c 0e34 e8b3 f52f 9262 db30
00000320: d4dc 2231 e143 1f2f 4133 e530 a955 e830
00000330: c351 6734 14cb 1a34 9f86 ce34 8bbf 6032
00000340: f3b7 2134 20ee 2334 7ab8 9333 a320 8f33
00000350: bc0e 1a34 79cf cf31 ec87 9533 6793 9733
00000360: 3f73 4634 3557 4e34 e8b2 ec34 a4cb 9532
00000370: 7a92 5734 2485 5a34 9e53 1d35 27b3 0a35
00000380: b32f a535 b361 4933 bae7 1035 00e3 1235
00000390: 72dd 992e cc27 322e 5d56 e82e 8255 812c
000003a0: 3420 3a2e ccab 3c2e 6cda 2332 b179 b832
000003b0: 8486 1833 0eec 0531 84ba c032 3e5d c332
000003c0: c515 5b2e f91a 9d2e 3164 242f f21a e42c
000003d0: 5b22 a42e f460 a62e 4cf8 bf31 33dc 5a31
000003e0: b581 2032 59e2 9e2f daa6 6431 5ac7 6731
000003f0: 09c5 8230 c9ce 9d31 4e13 f831 f71f e52f

exp_avg f4 [128]
1.4360561e-05 6.3982153e-10 1.8614188e-07 2.8241453e-05 8.522001e-05 -4.8785843e-08 -3.0470875e-07 -1.7871948e-06
7.683952e-05 1.1935298e-06 -2.8200507e-08 1.9170586e-05 -4.459283e-05 4.777962e-06 6.6417288e-06 4.364486e-05
-5.238031e-05 -1.761173e-10 1.9587324e-05 -1.015516e-08 2.134127e-06 1.2471505e-06 6.4233172e-06 2.9773219e-06
-0.000106542626 -8.005019e-06 -0.000125657 5.8003907e-06 5.144214e-07 -2.1002053e-07 2.0384428e-07 -3.367381e-05
2.1011907e-05 -9.99754e-07 4.280839e-05 -1.6361857e-05 -7.544932e-05 -0.000105284416 -4.0842065e-07 -6.9335742e-06
-9.1768044e-07 3.7302486e-06 -6.5131153e-06 4.718544e-05 3.231012e-08 -1.2770171e-06 2.6348964e-05 0.000101496305
-5.3779518e-06 6.896008e-08 2.8363935e-05 5.818059e-07 -8.357558e-06 -4.158168e-08 -5.268616e-05 2.256165e-09
3.128053e-05 9.199084e-06 5.9262115e-05 1.8993987e-05 -1.2952576e-05 3.1677973e-07 -1.2281168e-06 -9.952643e-07
-5.861397e-07 1.3744028e-07 7.512146e-05 5.8428155e-05 -9.341712e-08 -5.289742e-05 9.714876e-06 6.887706e-07
-8.836892e-07 1.8476436e-06 6.1157302e-06 -8.987902e-06 4.7744143e-05 5.8633308e-05 -4.0942624e-08 6.231662e-05
-1.0229313e-05 3.8489526e-07 6.027085e-08 9.842119e-07 -7.2512773e-07 1.7877642e-06 6.370239e-07 -1.8776374e-05
2.804459e-05 8.455591e-06 2.0510532e-05 4.0106514e-08 -3.114123e-05 1.2886608e-06 -4.5847086e-05 -2.322886e-09
3.0529104e-06 -4.5156736e-05 4.416603e-06 -2.8512422e-05 0.00010856739 -4.8533273e-08 5.668284e-06 -3.174576e-08
7.853271e-06 8.930852e-05 9.011139e-05 -7.12737e-07 8.0461476e-05 4.239101e-05 2.9449655e-05 -1.0248666e-08
-4.876266e-05 -2.5825915e-09 4.4471755e-05 7.663504e-05 7.3113654e-08 -6.113072e-06 4.1757114e-05 3.1206477e-05
5.0280996e-05 1.4328368e-05 5.577127e-05 6.971603e-05 5.656499e-06 -0.0001567382 0.00012468899 2.6558257e-05
00000000: 24ee 7037 70df 2f30 4ade 4734 0fe8 ec37
00000010: 25b8 b238 9a88 51b3 da96 a3b4 8cdf efb5
00000020: e724 a138 5f31 a035 923d f2b2 85d0 a037
00000030: 3009 3bb8 6252 a036 04dc de36 500f 3738
00000040: eeb2 5bb8 9da4 41af 754f a437 de76 2eb2
00000050: 0638 0f36 c463 a735 e087 d736 00ce 4736
00000060: a36f dfb8 4b4d 06b7 cbc2 03b9 faa0 c236
00000070: c516 0a35 0182 61b4 4ae0 5a34 fa3c 0db8
00000080: ba42 b037 492f 86b5 298d 3338 d240 89b7
00000090: 8c3a 9eb8 24cc dcb8 e844 dbb4 f3a6 e8b6
000000a0: 8556 76b5 2f55 7a36 3c8b dab6 fbe8 4538
000000b0: 5ac5 0a33 f965 abb5 f807 dd37 6ada d438
000000c0: 4174 b4b6 3417 9433 16ef ed37 662d 1c35
000000d0: 7037 0cb7 8a97 32b3 55fb 5cb8 e00a 1b31
000000e0: 3733 0338 c455 1a37 3690 7838 4755 9f37
000000f0: e44e 59b7 e011 aa34 c6d5 a4b5 0595 85b5
00000100: 3757 1db5 4c93 1334 878a 9d38 c110 7538
00000110: 9b9c c8b3 2cde 5db8 13fd 2237 f5e3 3835
00000120: a936 6db5 8dfc f735 b935 cd36 bfca 16b7
00000130: e240 4838 09ed 7538 e4d8 2fb3 fbaf 8238
00000140: 919e 2bb7 9aa3 ce34 406e 8133 4319 8435
00000150: 66a6 42b5 1cf3 ef35 f3ff 2a35 f581 9db7
00000160: 4c41 eb37 7ddc 0d37 080e ac37 9441 2c33
00000170: a49d 02b8 0cf6 ac35 ef4b 40b8 a5a0 1fb1
00000180: 9ae0 4c36 ad66 3db8 5532 9436 f62d efb7
00000190: acae e338 e672 50b3 3032 be36 d558 08b3
000001a0: 8bc1 0337 264b bb38 2ffa bc38 ea52 3fb5
000001b0: 6dbd a838 00cd 3138 a70a f737 1c12 30b2
000001c0: 8286 4cb8 6e79 31b1 2f87 3a38 20b7 a038
000001d0: a802 9d33 e31e cdb6 5c24 2f38 b3e3 0238
000001e0: cfe4 5238 df63 7037 f2eb 6938 8234 9238
000001f0: f5cc bd36 175a 24b9 f2be 0239 6cc9 de37

exp_avg_sq f4 [128]
6.8142203e-10 5.5485756e-19 4.0069486e-11 2.4464037e-09 7.4246462e-09 7.498724e-15 7.8230516e-13 5.8747585e-10
1.16727765e-08 1.8302965e-10 1.7828067e-14 7.9825746e-10 4.0342805e-09 3.7748877e-11 4.1784723e-10 4.5319513e-09
4.9589834e-09 9.575915e-16 2.0934028e-09 2.9329558e-15 5.99694e-12 7.681673e-12 1.14813506e-10 2.854337e-11
1.1906353e-08 1.6677266e-09 1.9260515e-08 3.2968156e-11 3.6239054e-13 9.522562e-13 5.914681e-13 2.995979e-09
3.797562e-09 4.8398167e-11 4.3710315e-09 2.0208084e-09 5.826617e-09 1.5666352e-08 1.2282049e-12 6.5114875e-10
2.1661724e-12 9.656474e-11 1.3925482e-10 1.5789922e-09 1.5930538e-14 2.7336687e-11 4.892738e-10 1.4091823e-08
3.746629e-11 4.992746e-15 5.403351e-10 4.065693e-13 3.2151568e-09 6.4376124e-14 4.449966e-09 7.428123e-17
2.167625e-09 8.8065e-11 3.4561227e-09 2.897012e-10 8.405028e-10 2.2388784e-13 1.9618567e-12 7.708241e-12
9.276282e-13 4.5595645e-14 7.1215798e-09 4.864008e-09 1.1008304e-14 4.569478e-09 1.6296887e-09 5.863978e-12
1.6442996e-12 8.3892355e-12 5.637638e-11 6.252204e-11 2.616802e-09 2.5755456e-09 4.7322572e-14 4.295901e-09
5.034909e-09 8.303268e-13 9.0201e-15 4.5422195e-12 4.7271484e-12 1.3404714e-12 2.5614112e-12 1.0252363e-09
1.7129148e-09 6.3259037e-10 2.0995023e-09 4.393455e-14 1.8223503e-09 7.776133e-11 3.725167e-09 3.029909e-17
1.8689992e-09 4.128973e-09 1.7643862e-09 1.461207e-09 1.1430924e-08 8.699927e-13 1.998868e-09 6.713005e-15
5.5181765e-11 8.713069e-09 8.994208e-09 4.843257e-12 6.6146906e-09 2.6350064e-09 4.6794884e-09 8.6871196e-17
3.203923e-09 9.476147e-18 2.1247695e-09 6.7242065e-09 8.060734e-12 1.331794e-09 4.8390305e-09 1.7073135e-09
2.7997833e-09 3.385987e-09 3.6889867e-09 6.7953754e-09 3.103883e-11 3.7702705e-08 1.5737934e-08 1.5006414e-09
00000000: d04e 3b30 dac3 2321 3b3a 302e 971d 2831
00000010: e11b ff31 c315 0728 0733 5c2b f07b 2130
00000020: 6a89 4832 443e 492f b994 a028 606c 5b30
00000030: e89d 8a31 7505 262e c5b6 e52f 77b7 9b31
00000040: ae63 aa31 e400 8a26 88db 0f31 7c57 5327
00000050: a2ff d22c 2e23 072d 427a fc2e f511 fb2d
00000060: b28c 4c32 ea35 e530 5272 a532 d8fe 102e
00000070: fb01 cc2a a504 862b c57b 262b d2e1 4d31
00000080: b57b 8231 7edb 542e 0030 9631 70de 0a31
00000090: 7733 c831 ac92 8632 bfda ac2b 85fc 3230
000000a0: 4b6e 182c 1e59 d42e bf1c 192f d903 d930
000000b0: 527d 8f28 bf74 f02d 957d 0630 7e18 7232
000000c0: 4bc7 242e f4e1 b327 b486 1430 d0e0 e42a
000000d0: a3f1 5c31 4ff6 9029 51e6 9831 e647 ab24
000000e0: 43f5 1431 30a8 c12e c180 6d31 d243 9f2f
000000f0: 2009 6730 4713 7c2a ab0d 0a2c d59a 072d
00000100: 548d 822b 3358 4d29 14b2 f431 4420 a731
00000110: d74e 4628 8e01 9d31 93fb df30 0552 ce2c
00000120: 236a e72b c295 132d 29f2 772e c87c 892e
00000130: 45d3 3331 7afd 3031 361f 5529 259b 9331
00000140: 87ff ac31 5ab7 692b de7d 2228 add0 9f2c
00000150: 5e52 a62c 92a7 bc2b 483e 342c 4ce8 8c30
00000160: d56b eb30 97e2 2d30 d646 1031 16dd 4529
00000170: 4076 fa30 bdff aa2e d5fd 7f31 daba 0b24
00000180: c86f 0031 d5de 8d31 d27e f230 a7d3 c830
00000190: bc61 4432 95e1 742b 755c 0931 8bdc f127
000001a0: 25b1 722e 7cb0 1532 f284 1a32 2e68 aa2c
000001b0: 6f47 e331 8613 3531 37c9 a031 b44f c824
000001c0: 022c 5c31 d7cd 2e23 5703 1231 bf0a e731
000001d0: 52ce 0d2d 560a b730 9044 a631 c1a6 ea30
000001e0: 4f66 4031 eaae 6831 5781 7d31 c17c e931
000001f0: 9e82 082e 90ee 2133 1530 8732 203f ce30
