ML Agent Practice/results/ppo/MoveToGoal/MoveToGoal-48720.pt (torch, 441756 bytes, 36 tensors)

network_body._body_endoder.seq_layers.0.weight f4 [128, 6]
00000000: 7bcb 073e d979 863e bce9 dabd b187 15bc
00000010: bfde 533d d26d ac3c bf72 d9be 334f cd3e
00000020: 882f 96bd c318 bfbe ec98 8b3d 2de7 33bd
00000030: 5766 5a3e 5516 083f 17fe c53c d79c 833e
00000040: 7f08 d43e 01dd cb3c 78d8 e5be 94ba bcbd
00000050: a772 5dbe b741 71bf 9d5d e33c 6d1d debe
00000060: 8c11 4c3e f45a cf3e ee81 4a3f 0949 403c
00000070: 1d03 a2be 43fa 0bbf f7b4 d13e 286f c9bd
00000080: 5a3b 8abe 514f 8fbe d13d a73e 3a4a 89bd
00000090: 504d 203f b50e 013f 24d2 0d3f c679 a9be
000000a0: e745 b7bd f79e 19be a48f b03e f44a 1a3f
000000b0: 89c6 e23e 6e87 efbd 8df4 0e3c 6545 18bf
000000c0: cb3a 373d 9500 4e3f cb40 9cbe 5145 923d
000000d0: ba4d c6be 6df7 563e 6fdb 533e 06e4 073f
000000e0: 04f2 dd3d 2647 273e a7d8 e1be 6975 bebe
000000f0: b7ac 02bf c211 db3e 7acf 91be 82f4 1ebe
00000100: 1df0 7b3e e7f9 a03e 5100 f83d 7998 31bf
00000110: d88a 013e 0f7b 2c3f 1c40 b93e 9645 dfbd
00000120: d2ab 29bf 31cc 8e3e e87d d5bd c6aa e7be
00000130: 28a7 0fbf a3f6 62be ef84 1cbe 5dfd 38bf
00000140: 3195 b0be ed5b 993e e8ae dfbe 9d9e 09bf
00000150: ee97 523f 28ba 38bf eab0 2ebf 26a0 253e
00000160: 2b7c 3fbf 8634 a2bc f8bf 85be 64f4 213f
00000170: 6ad2 2f3e 61e4 d3be e271 903e ec76 4c3f
00000180: c7dd a6be 035b b93d 1818 d33c 3de5 71be
00000190: 40c6 f7be 8951 7b3e 3a4c a83e 3201 943e
000001a0: b9e1 eb3e 4f36 9b3e 2c3e 433e e2b1 80be
000001b0: e3d9 14bf 5112 92be 4f13 cfbe c31d f5be
000001c0: 9722 97be ad80 12bf 1356 943e d761 293e
000001d0: e234 fb3d 8e9a cfbe d625 5cbf 814c a13d
000001e0: ac4b a1be 5755 1abf 8458 2bbf 1ade 98be
000001f0: 1971 e4be 46ef 6e3e 8858 b5be 488b 6fbf
00000200: df65 b13e ab38 213d 1fba f4be 9af0 bf3e
00000210: 8070 973e d3f4 16bf ce04 92be 9eb7 8d3d
00000220: a163 263e 3d6b c3be 7474 4fbe 6264 b4be
00000230: 432c 09be ccc9 b73c ca51 97be 60c8 2ebe
00000240: 747c 633f 026d 3d3e bf6d fe3e f96e 05bf
00000250: 8da4 3abe 37fc c93d d1aa 633e 7351 d73e
00000260: 4b52 6e3d 940d 60be 56be 7c3e 97fd 0e3f
00000270: 87e4 d13e 1d91 14bd a7d5 773e 29ca cf3e
00000280: 7738 993e cfd7 e5bd 412a d3be 7fa1 a6be
00000290: e65c 223d c4e0 7bbe bd96 363e 2853 013f
000002a0: cb35 2ebe be38 c0be 39b2 ebbe 991a 80be
000002b0: e534 a53d 5011 82be 6c1d 8d3e 35a7 2a3e
000002c0: bcac 1ebd 4082 3fbe 0731 2dbf 5814 353e
000002d0: 7d32 e7bc 3853 f53b db61 353e 2bca d0be
000002e0: f876 223f 83bb e0be bb73 9dbe 9d8e 1abe
000002f0: 85fa 743f affd 873e 313a eebe b22e 853e
00000300: 6e78 213f 597d 2ebe 9c42 31be 7de9 863d
00000310: bdbf 7a3f b8de 57be 334a b53e 308e 1a3e
00000320: 7f05 e23e 5a6e b13d 90ab be3a 402b ea3c
00000330: a5df aabd 509d e93e 788f 883e 2e40 dcbe
00000340: 9bc0 c5be 579a 143e 20e2 dd3e 528a 37bf
00000350: 609a 423e 3e0c 76bd d95f 47be 4e0f 7c3e
00000360: 5bcd 1fbe 8b0a 253e 6dbb 6d3f a618 543e
00000370: e8a6 e63d 9b6d 28bd d7ee 33be 3a05 9ebe
00000380: f71b e3be 344c b3be 2748 cbbe 2af5 403e
00000390: 86ba e03e deec 1c3e 4cae 363f 822a 83be
000003a0: 62a2 d8be 98e9 4e3e 6545 c3bb 5fe0 babe
000003b0: 72ab aabe 0010 0f3f e005 59be 63e1 4b3d
000003c0: b8ca 49bf 384e 0dbf 6553 44bf 0509 84be
000003d0: 3b33 81bf 8f2a 4a3e cf34 2e3f f585 9d3e
000003e0: 3601 503b f102 87be 613e 59be 2029 743e
000003f0: d1d8 c33d 25a7 bcbd 31c3 943e 45ac 1fbd
0.13261215 0.26264837 -0.106891125 -0.00912659 0.0517261 0.02104846 -0.42470357 0.40099487
-0.073332846 -0.3732358 0.06816277 -0.04392164 0.21328102 0.53159076 0.024169011 0.25705597
0.41412732 0.024885656 -0.44891715 -0.092152745 -0.21625768 -0.942409 0.0277546 -0.43381825
0.19928569 0.4049908 0.79104507 0.011736163 -0.31643 -0.54678744 0.40958378 -0.098356545
-0.26998407 -0.279902 0.3266435 -0.06703611 0.6261797 0.50413066 0.55398774 -0.33100718
-0.0894888 -0.15002047 0.3448459 0.6027062 0.44292095 -0.11695753 0.008725298 -0.5948089
0.044733804 0.8046964 -0.30518183 0.07142127 -0.38731176 0.20992823 0.20689176 0.5308231
0.108371764 0.16335735 -0.44110605 -0.37198952 -0.5104479 0.42786986 -0.28478605 -0.1552296
0.24603315 0.3144066 0.12109435 -0.6937328 0.12650621 0.6737527 0.36181724 -0.10901944
-0.662778 0.2789016 -0.10424405 -0.45247477 -0.56114435 -0.22164397 -0.15285085 -0.722616
-0.34488824 0.29952946 -0.4368813 -0.5375765 0.82263076 -0.7215905 -0.682387 0.16174373
-0.7479884 -0.019800436 -0.26123023 0.63263535 0.1717011 -0.41385177 0.28211886 0.7986896
-0.32591078 0.09050562 0.025768325 -0.23622604 -0.4839344 0.24542822 0.32870656 0.28907162
0.4607065 0.30314872 0.19066685 -0.25135714 -0.5814497 -0.285296 -0.4044442 -0.4787427
-0.29518577 -0.57227594 0.2897192 0.16541229 0.12265946 -0.40547603 -0.85995233 0.0787592
-0.31503046 -0.6028647 -0.6693194 -0.2985695 -0.44617537 0.23333463 -0.35419106 -0.935719
0.34648034 0.039360683 -0.4779825 0.37488252 0.29578018 -0.5896732 -0.2851929 0.06919788
0.16248943 -0.38167754 -0.20259267 -0.35232836 -0.13395791 0.022435091 -0.29554588 -0.17068624
0.88861775 0.18498614 0.49693105 -0.52122456 -0.18226834 0.09862559 0.2223313 0.42054328
0.05818395 -0.2188018 0.24681982 0.558557 0.40994665 -0.036271203 0.24202596 0.40583923
0.29925892 -0.11222803 -0.41243175 -0.32545087 0.039639376 -0.2459746 0.1783094 0.5051751
-0.17012708 -0.3754329 -0.4603441 -0.25020292 0.080667295 -0.25403833 0.2756151 0.16665347
-0.03873895 -0.1870203 -0.67652935 0.17683542 -0.028222317 0.007486727 0.1771311 -0.40779242
0.6346278 -0.4389306 -0.30752358 -0.15093465 0.9569476 0.26560733 -0.46528772 0.26012188
0.63074386 -0.17040004 -0.17310566 0.06587503 0.9794882 -0.21081054 0.35408172 0.15093303
0.44144818 0.08663626 0.0014546979 0.028585076 -0.08343438 0.45627832 0.26671958 -0.43017715
-0.3862351 0.14512001 0.43336582 -0.71695435 0.19004202 -0.06007027 -0.19470157 0.24615213
-0.1560568 0.16117303 0.92864114 0.20712528 0.112623036 -0.041120153 -0.17571579 -0.30863363
-0.44357273 -0.35019076 -0.39703485 0.18843523 0.43892306 0.15324733 0.71359706 -0.25618368
-0.42311388 0.20206296 -0.0059592 -0.36499307 -0.33333927 0.5588379 -0.21193647 0.049775492
-0.7882495 -0.5519748 -0.7668975 -0.2578813 -1.0093759 0.19742797 0.6804933 0.30766264
0.0031739003 -0.26369432 -0.21215202 0.23843813 0.09562839 -0.09211568 0.2905517 -0.03898265

network_body._body_endoder.seq_layers.0.bias f4 [128]
00000000: 82f7 0a3b 974f 11ba 3d26 823b fdcd 8cbb
00000010: 473d 18bc 979f 41bb d490 2c3b defe 6a3b
00000020: fee0 23bb 71d9 1d3b 3dc6 a3bb f030 cb3a
00000030: 489c 943a d68e c9ba 5722 99bb 9bb9 bbbc
00000040: c8b6 57bb 9381 813b 3b07 153c 0c91 31ba
00000050: d773 fb3a a113 7bbb 91ac e8bb 6f34 afba
00000060: 354d 23bc bd93 a0ba 91f5 903b 7e76 e73a
00000070: 3497 95bb af40 ceba eaf6 50bb 6edb 94bb
00000080: 608f cb3a 9869 fe3a a132 f4b9 b5b2 02bb
00000090: de96 1c3b 3164 423b 9e37 cfb9 df77 573a
000000a0: b989 61ba 4431 eabb 4282 1dbb 4b35 8d3b
000000b0: 7fb4 373b bbcd 023b 1d54 1f3b 62d7 f5ba
000000c0: 91cb 3aba ed99 2cbc deeb 04bb 1dda 9abb
000000d0: ed15 b6ba 4a3e c4bb 89a5 3fbb c875 f83a
000000e0: 978e 53ba bc57 bdbb de80 29bc 61a6 63b9
000000f0: 8285 34ba 268e 5dba 8557 81bb d4e1 803b
00000100: d40d 26bc 9ceb 5d3a 3ddd 7cba 91e0 ecbb
00000110: 6075 d13a c7bb 8fbb a79d b53a 50e8 ad3b
00000120: dbdf e33b 5e49 7a3a cb06 7939 47e0 3eba
00000130: 630a 12bb 9929 493a 977d ff3a 547e 1f3a
00000140: a720 ab3b 2fa5 bbbb be9c 84ba dd20 b0b8
00000150: b874 1fbc 4cab 60bb 77d2 8fbb bfd0 c9b8
00000160: 625f 98bc 2b33 60ba 3762 d63a 90ad c63a
00000170: 1fd6 143b 67f5 2dbb dc6d 21b9 15c7 e839
00000180: 5a84 74bb ffc5 5b3c 0b7b 6abb 8790 10bc
00000190: c032 c63a fc4a 28bc 76b0 f33a ce81 4339
000001a0: 9351 33ba 01bb 213b 550a 52bb 64b3 c93a
000001b0: c219 09bb e3ee c13b 792f 9d3a 00b6 9d3a
000001c0: 0381 4b3b 42ae 5fba aec7 cdbb 7bc3 12bb
000001d0: 13cc 6fbc 1c8c 1c3c 3697 08bb d4e0 233a
000001e0: abd7 c23a cff9 e93b 60e9 913b 0003 2134
000001f0: 979e ef39 2ae2 8e3a ee0e 8ebb a0b1 1d3b
0.0021204655 -0.0005543171 0.0039718435 -0.0042970167 -0.009291953 -0.0029544586 0.0026331441 0.003585748
-0.0025005932 0.0024085904 -0.004997997 0.0015502255 0.0011338079 -0.0015377651 -0.004673283 -0.022915652
-0.0032915343 0.003952214 0.009095962 -0.0006773628 0.0019184303 -0.003831126 -0.0071006496 -0.0013367067
-0.009967138 -0.0012251061 0.004423805 0.0017659215 -0.004565144 -0.001573583 -0.0031885453 -0.0045427596
0.00155304 0.0019410131 -0.00046577028 -0.0019942943 0.0023893635 0.002966177 -0.00039523555 0.00082194613
-0.0008603591 -0.007146986 -0.0024033939 0.0043093315 0.0028031168 0.001995905 0.002431161 -0.0018756206
-0.00071256707 -0.010534746 -0.002028219 -0.004725708 -0.0013892032 -0.0059888707 -0.0029242954 0.0018956
-0.0008070259 -0.005778281 -0.010345666 -0.00021710388 -0.00068863493 -0.0008451663 -0.0039472007 0.003933171
-0.010135133 0.00084655895 -0.0009646004 -0.007228919 0.0015980415 -0.0043863985 0.0013856188 0.005307235
0.006954176 0.0009547676 0.00023749021 -0.0007281345 -0.0022284023 0.000767374 0.0019492385 0.0006084193
0.0052223983 -0.0057264785 -0.0010117514 -8.398455e-05 -0.009732418 -0.0034281788 -0.004389103 -9.623309e-05
-0.01860017 -0.00085525465 0.0016356175 0.0015157927 0.0022710634 -0.0026543976 -0.00015395082 0.00044398816
-0.0037310333 0.013413905 -0.0035778906 -0.0088235205 0.0015121326 -0.010271784 0.0018592018 0.00018645005
-0.00068404636 0.0024678113 -0.0032049615 0.0015388546 -0.0020919894 0.00591837 0.0011992297 0.001203239
0.0031052239 -0.00085327413 -0.006279907 -0.0022394347 -0.014636057 0.009554889 -0.0020842082 0.00062514585
0.00148653 0.007140375 0.0044528693 1.4995385e-07 0.0004570379 0.0010901142 -0.004335276 0.0024062172

network_body._body_endoder.seq_layers.2.weight f4 [128, 128]
00000000: b9bf 8abd b01b a6bc bbe3 223e 5942 0f3c
00000010: f8bc c2bd 7013 8f3d 7e64 893d 7d0c bdbd
00000020: 884f 06be bcae 273e f52e db3d 7770 64bc
00000030: 0055 e43c 144d c0bd fd4e 36bd 9f1b b2bc
00000040: 29a2 c2bd 9963 a7bd 7548 00bc 4aab 523e
00000050: 5342 0ebd 9a4f e03d fa64 babc 0fcc 9dbd
00000060: 2d2d 1739 e5f6 57be 23d0 3d3d cd8e a53c
00000070: dfc2 83bc ff2a 9e3d 5dc3 4bbc 1214 8abc
00000080: c6c8 22be 977d 35be 5824 96bd 5d0e 04bd
00000090: 3b1c 1dbd ee61 733d 3912 9c3d 8f92 b53d
000000a0: 44e8 2bbc a640 2c3e 2c45 87bc b474 403c
000000b0: b44c f6bd 4cc7 f83d c32c 88bc 2c13 743d
000000c0: 7719 a53d 5c8d 663d 5951 a83d 09d6 a03d
000000d0: eac8 c2bc 789c a9ba 861d a93b 2b2d 273e
000000e0: f153 db3d f562 ee3d a5c6 4ebc 495e dd3d
000000f0: 45ce 243e 1b16 89bd dd59 963d a3e5 87bd
00000100: 164f ebbc 8a2f d5bd 119a a3bd a25e 3a3c
00000110: d50d afbd a752 0b3d 2648 b33c 2813 3abc
00000120: 2dc0 aebd 780e 943d 8fec 9abd a9a5 44bd
00000130: fa04 1f3d 79bd 50bd 33da 353e fa71 6c3d
00000140: 14ca 033d e7c6 aa3d f871 333c 347b b83d
00000150: b92a b3bd 684b e43d 7bdb 83be adad a93d
00000160: 8ca1 62bd 9d8e 503c 9135 a13c 082f a3bd
00000170: 5ce2 bebd a23e 56bd b4b4 62bd 447d 663c
00000180: e033 53bd dbe7 95bd 2a2e 49bd 981d 953c
00000190: 3cba a93c 654a 233d 8c19 e2bc f60c 843d
000001a0: 3f5a 22bd 9f6e 703d 40d7 5bbd 7f9c af3d
000001b0: 1ff9 0f3e aa8a 9cbc df24 b4bd 738e b3bd
000001c0: a206 17bd c3f4 47ba 57a9 b73d 11a1 233e
000001d0: ec6b 33bc 8081 8ebd 279b d4bd 09a6 133d
000001e0: de62 36bd 994c d2bd 6a53 4abe 81fe f5bd
000001f0: a951 d33d 5049 c63d fc1b 56be a4e0 1abd
00000200: 526e e5bd a81b 36bd 9854 e93c 3825 6abd
00000210: d667 57bd 0752 00bd cdc8 823e fbd4 533d
00000220: 4bd0 533d 2d73 ed3d 7c80 843e 0c6e 513d
00000230: 5fa1 c63c 546c c63d 3d35 b93c d821 003e
00000240: 6a00 01be f9b9 443e 1252 1c3d cc1d 90bd
00000250: 0ca1 8e3d 3d6f 0ebe d238 f83d 934a 89bc
00000260: dbb7 54bd 06bd 043e 5bc1 043e 106e 1b3e
00000270: e1ba a53d d134 14bc bb2e ccbd 748d 79b9
00000280: 7e01 763a 9770 933d df91 a93d 5536 343d
00000290: 38aa 15be b6ad 943d 9608 583d e0ad d73c
000002a0: 362c 13bd 47e6 3fbe a3e6 a43d 5768 d3bc
000002b0: c3d9 0f3e 22fc 2f3d b328 6cbc 8d2f 3abe
000002c0: 3e31 bf3c 59e0 dd3d 0386 b33c 1459 ffbc
000002d0: b428 13bc a7da 3ebd f824 0cbd befc b83d
000002e0: 1ddb a93d 0d64 acbd becf 613d 8770 973c
000002f0: 2961 72bd f620 963b f914 04be 085c 4cbd
00000300: 971a 59bc 8296 49bd 1c6b b63d fa8c 0c3e
00000310: 009f 3c3a 03aa 003e 0551 dc3d 9054 6a3d
00000320: bd5d dcbd 9b25 1ebd 937a 7abd 5070 2b3d
00000330: 058b 8abd 5233 03be 85f6 9a3c 1cd9 143c
00000340: fc95 33bd 62ce b93d 8548 6cbd 4468 c33d
00000350: 9672 663d 7b41 e33d 0761 5fbb e205 603c
00000360: b575 01be c32b e83b 0dc0 a03d 37dd d2bc
00000370: a3d4 993d 19ae 9fbd 0918 0dbd 6f7b c63d
00000380: 5a99 0e3e 48f1 f43d dd61 d3bd cdcd 3d3c
00000390: f589 0f3e 385d 5c3a 1959 cd3c 6f10 c73d
000003a0: 9297 99bc e29e 94bc f77b 193e 4322 d7bd
000003b0: 407f 86bd 2d9e b5bc a851 403c 9335 04bd
000003c0: 5ce4 e1bd c325 5c3d e539 b6bc b2d1 023d
000003d0: d1fc d3bc da20 ce3c 3c85 84bb 3ce0 473d
000003e0: e079 16bc aa2a 683d a699 773c a8e4 be3c
000003f0: 4c98 2ebe 7ca3 9b3d d1f6 c6bd 740c cc3d
-0.067748494 -0.020276874 0.15907185 0.008743846 -0.09508699 0.06986129 0.067086205 -0.092308976
-0.13116276 0.1637525 0.10702316 -0.013942829 0.027872562 -0.093897015 -0.044508923 -0.021741686
-0.09503586 -0.081732936 -0.007829775 0.20573154 -0.03473122 0.10952683 -0.022753228 -0.07704937
0.00014417311 -0.21090277 0.046341073 0.020209694 -0.016084133 0.077230446 -0.012436715 -0.016855273
-0.15896901 -0.1772369 -0.07331151 -0.03224026 -0.038357 0.059419565 0.07620663 0.088658445
-0.010492388 0.16821536 -0.016512476 0.011746574 -0.12026349 0.12147388 -0.016622907 0.059588596
0.08061498 0.056287155 0.08218641 0.07853324 -0.023777444 -0.0012940308 0.00516099 0.16325824
0.1070937 0.11639968 -0.012620603 0.10808999 0.1609431 -0.066936694 0.07341359 -0.066355966
-0.028724235 -0.10409458 -0.0798837 0.011375101 -0.0854756 0.03401437 0.021884989 -0.011357106
-0.08532748 0.07229322 -0.07564651 -0.04800955 0.038823105 -0.050961945 0.17759018 0.057725884
0.03217514 0.08338719 0.010952465 0.09007874 -0.08748383 0.11147195 -0.25753388 0.08285079
-0.055329844 0.012729314 0.019678863 -0.07967955 -0.093205184 -0.052305825 -0.055348113 0.014067952
-0.051563144 -0.073196135 -0.04911629 0.018202588 0.020718686 0.03986587 -0.027600072 0.064477846
-0.039636847 0.058699246 -0.053672075 0.08574771 0.14059876 -0.019109089 -0.08796095 -0.087674044
-0.03687156 -0.000762772 0.08967846 0.1597941 -0.010951024 -0.06958294 -0.103811555 0.036047015
-0.04452788 -0.10268516 -0.19758382 -0.120114334 0.1031831 0.09681952 -0.20909113 -0.03781189
-0.112026826 -0.04445997 0.02848272 -0.0571644 -0.05258926 -0.031328227 0.25543824 0.051716786
0.051712316 0.11594234 0.25879276 0.05113034 0.02424687 0.09688631 0.022608394 0.1251291
-0.12597814 0.19211568 0.038164206 -0.07036933 0.06964311 -0.13909622 0.121202126 -0.016759193
-0.05193315 0.12962732 0.12964384 0.15178704 0.08092285 -0.009045796 -0.09969851 -0.00023799186
0.00093843776 0.07199209 0.08279776 0.043997128 -0.14615715 0.07259695 0.052742563 0.026328027
-0.035930835 -0.18740188 0.08051803 -0.025806589 0.14047913 0.042965062 -0.014414 -0.18182202
0.02333891 0.108338065 0.021914488 -0.031170405 -0.008981872 -0.046595242 -0.034214944 0.09032582
0.08293746 -0.08417521 0.05512976 0.018486274 -0.05917469 0.004581566 -0.12898625 -0.049892455
-0.013250968 -0.0492158 0.08907148 0.13725653 0.00071953237 0.12564854 0.10757641 0.05720955
-0.10760067 -0.038610082 -0.061152052 0.041855156 -0.06764797 -0.12812546 0.018916378 0.009084966
-0.043844208 0.090725675 -0.057686348 0.095413715 0.05626162 0.11096474 -0.0034084932 0.013673278
-0.12642558 0.007085295 0.07849131 -0.02574025 0.0751126 -0.07796878 -0.03444675 0.09691512
0.13925686 0.11960083 -0.103214 0.011584711 0.1401747 0.00084062247 0.0250669 0.09719931
-0.018749032 -0.018142167 0.14988695 -0.10504582 -0.0656724 -0.02217015 0.011738218 -0.032277655
-0.11029884 0.05374695 -0.022244403 0.031938262 -0.025877388 0.02516215 -0.004044203 0.04879783
-0.009184331 0.056681313 0.015112316 0.023302391 -0.17050284 0.075995415 -0.09715045 0.09963313

network_body._body_endoder.seq_layers.2.bias f4 [128]
00000000: 2d97 92bb ac92 0f3b ef2e b03b 4940 02bb
00000010: 6211 043c 8c90 16b7 73c9 323a 53ef 2b3b
00000020: 3541 cbba 73de d6ba 8b77 8fbb 0d65 3e3a
00000030: e8c4 2539 dba8 bdb8 cf7f 503a 26dc 6c39
00000040: 33bd c83a 04af 2aba 988b 123a 237f deba
00000050: ce45 b9b9 c86a 773a 3125 9aba 9ed6 5cb9
00000060: 868c 86b9 4caa 223b 48e1 463b 7254 9a39
00000070: 292f 3fbb 0995 923b efad 0ebb bbd9 70bb
00000080: 78c6 9bbb 4664 643a 6fb7 b339 f255 fe3b
00000090: 9f69 8fba 216e 82b9 8f95 3bbb 6f2a edba
000000a0: b514 0a3c a848 32bb 39f8 913a c9b7 473b
000000b0: 286c baba d906 27ba f934 8fba 79b6 ab3a
000000c0: d977 3e3b fa60 d9b9 280e 9c39 b919 95ba
000000d0: 453c a4ba 2e09 f1bb 2db5 acba 6b5d e7ba
000000e0: bc5d 8b3b 2da8 bfba e321 95b8 b4c1 493b
000000f0: cb35 b9ba 882c 18ba 92dc 0bbb d3f0 783b
00000100: c4cb 603b 0afd daba 75d9 33ba a46e d43a
00000110: d679 0dbb 4394 a13b 3db3 273b 3c80 613b
00000120: 5349 19bb 6516 8f3b a8e6 acbb 165f 32bb
00000130: b0ea df3a 04a4 ce3a f700 e1ba f5b8 96ba
00000140: d296 04bb 43dc d0ba a0e8 373b a732 ac3a
00000150: 6dcc 08bb 2ab1 0bbb c4d4 083b 52df 413b
00000160: f7ab a6ba d05d b1bb 5724 3abb 245e b23b
00000170: 8cef 07bb 5191 16ba 0897 193a 8164 ce3a
00000180: 3702 5aba 5c49 81ba 5522 2eba 6bba 4f3a
00000190: e83d 05bb ec44 a0ba e7f6 073c ea1d afba
000001a0: 4cab 1fbb c148 bebb 2c71 4fba fb2c babb
000001b0: 4e76 efb9 00ed bf3a 5ae9 753a 204d 6dba
000001c0: 74fe 67b9 6ddd 8438 6438 be39 adfb 5b3a
000001d0: b561 053b 0939 31bb 4323 21bb f2c3 983b
000001e0: 63df 0cbb c223 20bb 1759 0fbb 2f90 7e3a
000001f0: a1f1 6ebb f75e 2aba 347c 39bb 700e c63a
-0.004473588 0.0021907492 0.0053766887 -0.0019874743 0.008060785 -8.974352e-06 0.00068201794 0.0026235178
-0.0015507104 -0.0016393199 -0.0043782643 0.00072629825 0.0001580898 -9.043674e-05 0.0007953615 0.00022588726
0.0015315175 -0.0006511065 0.0005590259 -0.0016975146 -0.00035337958 0.0009438214 -0.0011760351 -0.00021060786
-0.0002566317 0.0024820743 0.003034668 0.00029436086 -0.0029172397 0.004473333 -0.0021771153 -0.0036750871
-0.004753884 0.00087124517 0.0003427821 0.0077617103 -0.0010941512 -0.00024877585 -0.002862308 -0.0018094311
0.0084277885 -0.002720395 0.0011136598 0.0030474535 -0.0014222907 -0.0006371565 -0.0010925821 0.0013100646
0.0029063134 -0.00041461719 0.00029765186 -0.0011375464 -0.0012530169 -0.0073558306 -0.0013176553 -0.0017651742
0.0042531174 -0.0014622264 -7.1111856e-05 0.0030785622 -0.0014130411 -0.00058049755 -0.0021341187 0.003798534
0.0034301141 -0.0016707492 -0.0006860712 0.001620729 -0.0021587512 0.0049310043 0.0025589012 0.003440871
-0.0023389652 0.0043666833 -0.00527652 -0.002721732 0.0017083492 0.0015765433 -0.0017166425 -0.0011499213
-0.0020231497 -0.0015934784 0.002806224 0.0013137654 -0.00208738 -0.0021315315 0.0020878771 0.0029582572
-0.0012716044 -0.0054127946 -0.0028403008 0.0054433513 -0.0020742146 -0.00057437 0.0005858992 0.0015746505
-0.000831637 -0.0009863782 -0.0006642689 0.0007924202 -0.0020331088 -0.0012227572 0.008298612 -0.0013360356
-0.0024363576 -0.005807013 -0.0007913287 -0.0056816316 -0.00045673776 0.0014642775 0.00093807804 -0.0009052325
-0.00022124668 6.335494e-05 0.00036281638 0.00083916896 0.0020352427 -0.0027042052 -0.0024587668 0.0046620304
-0.0021495454 -0.0024435376 -0.002187317 0.0009710816 -0.003645994 -0.0006499136 -0.002830279 0.0015110504

action_model._continuous_distribution.log_sigma f4 [1, 2]
00000000: 379b cebc 2f60 53bb
-0.025220497 -0.0032253375

action_model._continuous_distribution.mu.weight f4 [2, 128]
00000000: aebb 2c3c ed24 f2bc 63bf 8f3b 50ce aeba
00000010: 235a 77bd 03e0 be3b a341 973c 36dd a23b
00000020: 082b 98bc 3383 b6ba fd7d a13b adbb 8dbb
00000030: 36f1 b13c 0933 a2bc 55f5 8dbb 6ae9 57bc
00000040: fd8f 013b fa53 8bbc bda6 a93c 10f8 d43c
00000050: 82f1 a13c 67a0 c1bb 6798 a4bc a882 b33c
00000060: f3de 5d3c 4180 823b dc4b 093c 01da aebc
00000070: 9c94 85bc 12c5 8d3c 7081 0a3c 6dea e43c
00000080: 0e52 1d39 1cbc 8c3b 7f87 5dbc d8d8 3b3c
00000090: 08fa 98bc 1d63 e7bc 31fa 29bc 4ce0 d9bb
000000a0: ede7 8b3c 442f b73c c11e 14bb 43ff 14bd
000000b0: 72f4 00bc 4865 00bd 1d6e 2f3b 6268 19bd
000000c0: f7e1 38bc b19a a23b 85e7 4e3b 2831 efbb
000000d0: 38c6 643c c196 dd3c 0b32 b53c b6fb bfbb
000000e0: 38e1 e03b 6601 3bba 96cd a83c 72d3 a23c
000000f0: b497 3bbc 8a0a 3cbb 68ae 6b3c 310d 1d3c
00000100: c32d 4abd 5e92 f8bb f827 debb 5176 abbc
00000110: 6c4c 973c f9f7 183d 61c2 073c 0fde 983c
00000120: 94c0 8abc 3f0f 13bc 5d8a dcbb 6d3c 143b
00000130: 45a6 69bc acd1 0ebd fa94 283b 295c b73c
00000140: b3e7 c23c f77b 493b 552f 273d c480 26bc
00000150: 1d19 283c 2f03 eb3b 61b0 8ebc fba6 e53c
00000160: 19d8 ddbb 34c1 ec3c 6da6 9c3b 6f19 9c3c
00000170: 8233 403c 1189 4e3d 5738 f0bc 3a08 2cbc
00000180: 24cc c7bc cced 0fbc 95e1 d2bc 660a 063b
00000190: 28bf df3c 2c6f b33b 8a56 d93c 66d6 18bc
000001a0: 2f4d 8c3b beab 9bbb b0b4 aabc 40bb a7bb
000001b0: 7909 ef3c f3be bf3b e841 d63b 84ca 86bc
000001c0: 8ec7 613b b928 b63b ee74 28bd d287 473a
000001d0: e22d 7f3c 91c8 d3bc a458 5d3c 06e4 3e3d
000001e0: b9bb a03b 6f5f a83a 1857 0cbd dd80 e5bc
000001f0: f425 91ba 2a39 3e3d 1f5d 11bc 24e5 8ebc
00000200: 5e48 4bbb 7be6 44bc aad8 17ba 8552 d5bb
00000210: d8a5 503c fa4c cd3b 6bd9 8d3c 8e8c 91bc
00000220: 3875 90bc 78f8 9e3c 9a95 0b3b ddf2 c73b
00000230: 309d 483c 6652 0abd 89bf bc3b cffc 92bc
00000240: fc2b 9f3c 1464 01bc 03ec 69bc fd52 4abd
00000250: 6f77 863c 97c8 013c 4947 d9bb b200 e43b
00000260: 560f 8abc 9341 0bbd c26c 66bc e527 683b
00000270: 7246 0c3d 53af f23b 586a 8cbb 1759 f13b
00000280: ff43 d23a a203 983c 11c1 be3c 0fd6 37bd
00000290: daa7 e6bc 3084 40bc 6109 53bc c2e7 c1bc
000002a0: 7e78 bdba d017 123a bd4f 853c b93e 29bc
000002b0: b9d1 d4bc 70fb 8fbc 30f7 7f3c 6a9b 85bc
000002c0: a070 b33c 4f33 9dba 5355 00bd 1b99 c9bc
000002d0: b71f 68bc 35ea 42bc c1b2 25bb a924 a7bb
000002e0: e5bf cebc 3c33 cabc 153c f03b bee1 733c
000002f0: d5e5 3bbd 1e9e 34bc f50e 20bc a75c 63bb
00000300: 97e4 a93c e2b7 09bd c6ad 6dbb 222f b83c
00000310: 409d 82bc 1310 90bc 4b2d 19bc 5b92 c4bc
00000320: 6f62 903c 4254 11bd 7bcf 3fbc c7d0 6dbb
00000330: 90c3 d83b 797d f03c 997f ffbc cc80 8cba
00000340: 1648 52bc 4db0 60bc d529 853c 7bf6 ab3c
00000350: 3032 74bc 8407 f6ba 9ecd 003d 06cd 05bd
00000360: dfb7 abbb c463 dc3c 6b7d 093c e3e8 b63c
00000370: 7b82 43bc 54b5 133b 34b0 443c e4c4 913c
00000380: c298 adbc 5f52 94bb 01f6 40bb ac33 8c3c
00000390: 87c7 c0bb 4fd0 fe3b 1a22 c6bc f004 d6bc
000003a0: 7250 373c 15f6 5cba 4c2f c6bb 36e6 afbb
000003b0: 33f1 2439 8e14 453d 76c6 093d e5c3 9fbc
000003c0: 4add 333b be8f fa3b f561 82bb ffb2 e1bb
000003d0: 0cfd a43b 7d18 ecbb a053 c73c 7339 11bc
000003e0: 236b 0abc 8e3d 143c 19cc e43b e07f 0b3c
000003f0: 6d07 80ba b85b 233c aab6 13bd 9541 ae3c
0.010542793 -0.029558623 0.0043868287 -0.0013336632 -0.060388695 0.005825044 0.018463915 0.004970218
-0.018575206 -0.0013924598 0.004928349 -0.004325351 0.021721464 -0.019799726 -0.0043322244 -0.013178209
0.0019769662 -0.017007817 0.02070939 0.025997192 0.01976848 -0.005909014 -0.020092202 0.021912888
0.013541925 0.003982574 0.008379903 -0.021344187 -0.016306214 0.017305885 0.008453712 0.027943814
0.00015003255 0.0042948853 -0.013521074 0.011465274 -0.018673912 -0.028245503 -0.010374592 -0.0066490527
0.017078364 0.022361405 -0.0022601339 -0.03637625 -0.00787078 -0.03134659 0.0026768513 -0.037453063
-0.011284343 0.0049622883 0.0031571102 -0.007299561 0.013963275 0.027049424 0.022118589 -0.0058588637
0.0068627857 -0.0007133692 0.020605844 0.019876216 -0.011449743 -0.0028692805 0.014384843 0.009585665
-0.049360048 -0.0075858077 -0.006779667 -0.020930441 0.018469058 0.03734586 0.00828609 0.018660573
-0.016937532 -0.008975803 -0.0067303614 0.0022619024 -0.014260833 -0.034867927 0.0025723563 0.022382813
0.023792123 0.0030744055 0.040816624 -0.010162536 0.010259894 0.0071720104 -0.017418088 0.028033724
-0.0067701456 0.02890072 0.0047805817 0.019055096 0.01173103 0.050423685 -0.02932374 -0.010500008
-0.024389334 -0.008784723 -0.025742332 0.0020452975 0.02731283 0.005475899 0.026530523 -0.00932846
0.004281662 -0.004750698 -0.020838112 -0.0051187575 0.029179322 0.0058516203 0.0065386184 -0.016453989
0.003445122 0.0055590537 -0.041127138 0.00076114864 0.015574904 -0.025852473 0.013509903 0.04660418
0.004905191 0.0012845824 -0.034262747 -0.028015548 -0.0011073933 0.046441235 -0.008872299 -0.017443247
-0.0031018476 -0.012017841 -0.00057924783 -0.0065100812 0.012734853 0.00626528 0.017315587 -0.017767217
-0.01763402 0.019405589 0.0021298886 0.0061019496 0.012244508 -0.033769988 0.0057601375 -0.017942814
0.019430153 -0.007897396 -0.014277461 -0.04939555 0.016414372 0.0079213595 -0.0066308123 0.0069580907
-0.016853016 -0.033998083 -0.014064016 0.003542417 0.03424687 0.007406154 -0.004285138 0.0073653567
0.0016041993 0.01855642 0.02328542 -0.044881877 -0.02815621 -0.011750266 -0.012880654 -0.023670081
-0.0014455465 0.00055730063 0.016273374 -0.010329896 -0.02597891 -0.01757595 0.015622899 -0.016309459
0.02190429 -0.001199344 -0.03133137 -0.02460914 -0.014167718 -0.01189666 -0.0025283548 -0.005100806
-0.025237987 -0.024682634 0.007331381 0.014885364 -0.04587348 -0.011024026 -0.009769191 -0.0034692676
0.020738883 -0.03362263 -0.0036266907 0.022483412 -0.015944123 -0.01758579 -0.009349178 -0.023995569
0.017625062 -0.035480745 -0.011707182 -0.003628777 0.0066151097 0.029356705 -0.031188773 -0.0010719537
-0.012834569 -0.013713908 0.016255299 0.020991554 -0.014904544 -0.001877055 0.03144609 -0.03266623
-0.005240425 0.02690304 0.008391718 0.022327846 -0.011932964 0.00225385 0.012004901 0.01779408
-0.021191005 -0.004526421 -0.0029443505 0.017114483 -0.0058831605 0.007776297 -0.024186183 -0.026125401
0.011188613 -0.0008429003 -0.0060481187 -0.0053680195 0.00015730113 0.048115306 0.033636533 -0.01950259
0.002744513 0.00764653 -0.0039789625 -0.006887793 0.0050350484 -0.0072050677 0.024331868 -0.008863795
-0.008448395 0.009047879 0.006982338 0.0085143745 -0.0009767838 0.009970598 -0.036062874 0.021271506

action_model._continuous_distribution.mu.bias f4 [2]
00000000: cead 4bba 4da4 a73a
-0.00077697344 0.0012790054

exp_avg f4 [128, 6]
00000000: d050 3e38 9284 6538 8345 54b8 d56b 4db8
00000010: 8798 6a38 60a6 2cb8 ae77 b638 6072 9038
00000020: 49d0 13b9 1c48 81b8 89a4 9338 5850 59b8
00000030: b213 4fb7 ca69 0cb7 a97b e537 ae57 fb36
00000040: fe84 0fb7 b73e d336 3905 d0b5 16ac aeb5
00000050: 2443 3d36 7755 9c35 6089 b2b5 b764 8335
00000060: a1ef dbb9 be8a d5b9 2073 413a 621f bf39
00000070: 3844 dab9 d5a1 a039 75d7 5b35 2583 8bb5
00000080: 27c0 f335 0cbb 7935 6699 8eb5 ece3 5135
00000090: 9cfa c638 f290 8c38 ab69 2bb9 e99d 7bb8
000000a0: 1aad 8f38 bd79 53b8 de7b 67b8 0e67 86b8
000000b0: 2c15 1239 6495 7038 4760 89b8 ea33 4a38
000000c0: c019 0bb8 b840 95b7 e053 7838 4795 8537
000000d0: 078e 98b7 9b8b 6037 b0e8 c6b7 dcfc 1bb8
000000e0: c1b9 d738 6d9c 0b38 6170 1fb8 4dad ea37
000000f0: 1d5b 9938 a113 7638 86e4 20b9 cd3d 5cb8
00000100: 4985 7b38 1e1b 39b8 6043 8f39 161e dd39
00000110: 9f96 03ba 28e7 c5b9 8702 e239 b654 a6b9
00000120: 8269 3b3a 85a8 053a 1e2d 91ba 6140 efb9
00000130: 959d 083a 3015 c9b9 2fa1 a0ba 2c30 66ba
00000140: e191 0a3b 8205 4e3a f947 6bba 6b27 2d3a
00000150: 3947 ecb7 cd44 b438 70e2 1439 e757 a1b8
00000160: ef41 b838 7f9a 87b8 8fc1 c5b9 fa9b eeb9
00000170: 86cd 2c3a e88e d539 73e3 f3b9 1a7d b339
00000180: 6bc4 153a c7f6 0d3a 0d46 acba 6f1e feb9
00000190: dc1a 113a 2b94 d5b9 963a 2aba 3c90 39ba
000001a0: 6b88 f739 f014 263a 5dab 3dba 1396 0b3a
000001b0: f7e5 5938 b528 7a38 5c04 3737 4fe5 5fb8
000001c0: 98b1 7f38 422d 3cb8 a91a 46b9 b7d9 38b9
000001d0: d2a7 f739 9271 2539 c4f0 3cb9 ce0c 0b39
000001e0: 5b42 29ba b4dc 5339 05ed fe39 cd9e 3db9
000001f0: 2b8d 5839 8e5e 1fb9 4e28 6f37 08f9 a9b8
00000200: 523f 9db9 f920 9838 c2bb adb8 72b7 7f38
00000210: aa00 d6b8 02a7 ceb8 f125 3d39 dcf4 b838
00000220: 8139 d3b8 2673 9b38 63b6 bb39 aea5 7739
00000230: 312c 6bba bba5 5db9 6f20 7d39 8749 3ab9
00000240: 619f 35b9 016d 8bb9 1629 063a 4e93 7939
00000250: b182 8eb9 91c2 5139 440e a238 75d7 8638
00000260: 2690 f5b8 ba5e 71b8 2fd3 8938 00dd 4ab8
00000270: 373c 41ba 9ad8 4aba 667f 953a b18c 353a
00000280: 7455 4fba 1c96 183a 3e19 94ba 6fbd 7dba
00000290: 18d9 023b c719 633a 5aad 81ba d4de 3e3a
000002a0: d92b c6b7 6a0f a5b7 1583 4338 23bb 9337
000002b0: 49b6 a8b7 7153 7837 1d49 28ba 4720 25ba
000002c0: 469b ac3a 30ca 133a 86c7 28ba c56c f839
000002d0: 7623 7cb6 2e81 98b6 b2d6 4837 537e 8836
000002e0: f6e0 9bb6 c26f 6536 1637 d6b9 6312 10ba
000002f0: 1c86 f839 2ff2 003a 6942 13ba f5bf d839
00000300: 2804 0135 ae03 0835 5751 27b4 4478 f3b4
00000310: 3206 0b35 d1a0 ccb4 19b8 433a b591 353a
00000320: bb2a 65ba b881 22ba 2596 393a de94 08ba
00000330: c648 d539 2e8e c339 ba4b 93ba 5906 afb9
00000340: 02e2 c739 511a 93b9 f150 f9b9 c50e 23ba
00000350: 8922 383a 57f0 113a 5eaa 26ba 3150 f539
00000360: ef93 7439 805b 4139 a1d0 94b9 a40e 2db9
00000370: aba2 4539 e872 11b9 dda7 8d38 f5e7 273a
00000380: 86f3 1aba 2f47 16ba f19e 2b3a 719b fcb9
00000390: 266b 1f38 9967 91b7 7e1c 8c38 b123 8237
000003a0: 3d9f 94b7 5bc1 5a37 1fb5 b43a 076e a33a
000003b0: bb61 09bb 8245 92ba a60b a73a 86df 75ba
000003c0: 60b6 d239 60a4 e038 cea6 10ba 810e c9b8
000003d0: b79c e538 79fb a8b8 4db0 f634 b6a9 4f36
000003e0: 5612 7635 5adc 39b6 c841 5436 c735 1cb6
000003f0: ead0 3dba f09e 59ba aa58 ad3a fdc5 423a
4.5374793e-05 5.472132e-05 -5.0609477e-05 -4.8976235e-05 5.5932e-05 -4.1162944e-05 8.700728e-05 6.887759e-05
-0.00014096605 -6.164631e-05 7.040153e-05 -5.1811658e-05 -1.2342747e-05 -8.369281e-06 2.7356511e-05 7.49059e-06
-8.554429e-06 6.295591e-06 -1.5498728e-06 -1.3014094e-06 2.8202276e-06 1.1647779e-06 -1.3302015e-06 9.789572e-07
-0.00041949473 -0.00040729897 0.00073795207 0.0003645374 -0.00041631027 0.00030638152 8.189739e-07 -1.0394475e-06
1.8160835e-06 9.303192e-07 -1.0624469e-06 7.819024e-07 9.4880554e-05 6.7027184e-05 -0.00016347195 -5.999013e-05
6.851014e-05 -5.0419698e-05 -5.5190052e-05 -6.408813e-05 0.00013931532 5.735959e-05 -6.550602e-05 4.82089e-05
-3.3164164e-05 -1.7792321e-05 5.9205922e-05 1.5924348e-05 -1.8185949e-05 1.3383945e-05 -2.3711793e-05 -3.7190373e-05
0.00010286598 3.3285865e-05 -3.8013215e-05 2.7975673e-05 7.31258e-05 5.866925e-05 -0.0001534392 -5.2509644e-05
5.9967195e-05 -4.4132692e-05 0.00027325284 0.0004217482 -0.0005019698 -0.00037746993 0.00043107962 -0.00031725102
0.0007149206 0.0005098659 -0.0011076068 -0.00045633598 0.000521147 -0.00038353493 -0.0012255068 -0.0008780982
0.002114408 0.0007859097 -0.00089752633 0.00066053 -2.8166558e-05 8.595884e-05 0.00014198734 -7.693451e-05
8.786085e-05 -6.466079e-05 -0.0003771898 -0.0004551111 0.00065919047 0.00040733 -0.00046518035 0.00034234748
0.00057131675 0.0005415496 -0.0013143435 -0.0004846933 0.00055353134 -0.0004073692 -0.00064937153 -0.00070786825
0.0004721315 0.00063355174 -0.0007235313 0.0005324792 5.1951003e-05 5.9642556e-05 1.0908665e-05 -5.3380903e-05
6.0962135e-05 -4.4864842e-05 -0.00018892683 -0.00017628713 0.00047236547 0.00015777934 -0.0001801877 0.00013260843
-0.0006456726 0.00020204746 0.0004862325 -0.00018083602 0.00020651954 -0.00015198646 1.4254894e-05 -8.104934e-05
-0.0002999255 7.2540664e-05 -8.2842555e-05 6.0967584e-05 -0.00010204439 -9.853953e-05 0.00018038579 8.819412e-05
-0.00010071975 7.412424e-05 0.00035803308 0.00023617476 -0.00089711236 -0.00021137942 0.00024140043 -0.00017765733
-0.00017320878 -0.0002659336 0.00051178166 0.00023801366 -0.00027181723 0.00020004275 7.727419e-05 6.42975e-05
-0.0001170936 -5.75471e-05 6.572005e-05 -4.8366375e-05 -0.00073713384 -0.00077379646 0.0011405766 0.00069255667
-0.0007909157 0.0005820708 -0.0011299027 -0.0009679412 0.0019965824 0.0008663204 -0.0009893582 0.0007281129
-2.3623857e-05 -1.967671e-05 4.6613703e-05 1.7610908e-05 -2.0112044e-05 1.480138e-05 -0.0006419586 -0.000629906
0.0013168834 0.0005637733 -0.0006438423 0.00047383286 -3.7571567e-06 -4.5449915e-06 1.1970917e-05 4.067822e-06
-4.645549e-06 3.418871e-06 -0.00040858303 -0.0005495904 0.00047402165 0.00049189007 -0.0005617501 0.0004134175
4.8062293e-07 5.06693e-07 -1.5582678e-07 -4.5349782e-07 5.179055e-07 -3.811497e-07 0.00074660924 0.0006926314
-0.0008742024 -0.0006199139 0.0007079563 -0.0005210171 0.00040680746 0.0003729923 -0.0011237778 -0.0003338333
0.00038124627 -0.00028057632 -0.00047553287 -0.00062201574 0.0007024189 0.00055671245 -0.0006357784 0.0004678979
0.00023324763 0.0001844 -0.000283842 -0.0001650402 0.00018847983 -0.00013871084 6.754671e-05 0.0006405109
-0.00059109216 -0.0005732653 0.00065468164 -0.00048180998 3.8008344e-05 -1.7333588e-05 6.681027e-05 1.5513828e-05
-1.7717126e-05 1.3038832e-05 0.0013786888 0.0012468704 -0.0020962793 -0.0011159631 0.001274456 -0.0009379316
0.000401902 0.000107117696 -0.000551802 -9.5871284e-05 0.00010948761 -8.057705e-05 4.5949346e-07 3.0944188e-06
9.1668824e-07 -2.769541e-06 3.1628751e-06 -2.3277114e-06 -0.00072409085 -0.00083015766 0.0013225276 0.0007430015

exp_avg_sq f4 [128, 6]
00000000: 43d7 3133 d633 5633 22e1 6533 1696 2b33
00000010: 2cc9 5f33 6969 f232 7ed9 a032 ea4c b032
00000020: 8607 e232 9b39 8d32 2430 b832 af84 4732
00000030: 7387 1630 eddb 6430 b9d1 9d30 ac53 3730
00000040: 1a19 6f30 d67f 0130 85bd 922f 9afc 6f2f
00000050: cdbf 542f a23d 402f 35b9 7a2f b7cb 072f
00000060: fc44 8e33 4d93 b633 4c7f 2a34 5940 9233
00000070: 60be be33 999e 4e33 58b4 722c 54ef 0d2d
00000080: e362 e22c 9c64 e32c f548 142d 83a0 a02c
00000090: b06c 2e31 d989 b931 23e2 4a32 ff9f 9431
000000a0: ded6 c131 0df9 5131 276c b130 9844 1731
000000b0: cc9b b331 6658 f230 1a09 1e31 6a30 ab30
000000c0: f7ed 7132 5c7b 7032 f3e1 7c32 25a3 4032
000000d0: b13d 7b32 7813 0832 3815 9a31 c5de a931
000000e0: bd06 b231 f012 8831 5678 b131 bf3d 4031
000000f0: 2db4 3632 77da 5a32 8e30 b532 d14f 2f32
00000100: 08a5 6432 d2ac f731 6943 6335 51a3 8d35
00000110: 0405 8d35 cbea 6235 84f9 9335 774a 2035
00000120: 7835 8335 5c5f 8035 d2aa d135 24aa 4d35
00000130: a31d 8635 4247 1135 dabc 9e36 b2ef 9f36
00000140: bf18 dd36 d91d 8036 8417 a736 c9ff 3436
00000150: 848d 5335 4f5a 8e35 33ba 6f35 0110 6435
00000160: b9b8 9435 9319 2135 27b0 0c34 75e3 ec33
00000170: 9b19 5d34 3fc2 bd33 a27c f733 ef0a 8633
00000180: 1c58 2f35 881c 6635 eac1 c735 7f54 3835
00000190: 1168 7035 3d35 0235 6433 7334 3969 0435
000001a0: 0bdf bf35 8922 d434 c755 0a35 53d9 9534
000001b0: d7d7 bb33 5a58 8a33 3d72 3a33 44a4 5d33
000001c0: d888 9033 7790 1c33 32a2 5936 16d8 7836
000001d0: 14ab 8d36 f255 4736 13fd 8136 cace 0c36
000001e0: 7a5c bc36 b958 e036 f98e 1037 54b6 b336
000001f0: 3c62 ea36 4fe4 7d36 09a7 e235 55ba 1536
00000200: 2972 2c36 d3e0 ef35 3e6d 1c36 3e72 a935
00000210: 711b b531 353b d731 5125 2e32 0c69 ac31
00000220: 50dc e031 7693 7331 5abb f435 217a 1a36
00000230: 3795 4e36 9a7c f735 6363 2136 20d2 ae35
00000240: 064c 9e31 b799 1332 7c82 af32 4278 ec31
00000250: 3634 1a32 df09 a731 97b9 de32 0189 0533
00000260: a303 3333 94ef d532 6e82 0b33 fd1e 9732
00000270: 8015 c834 7874 4e35 a1c0 df35 4561 2535
00000280: 0bb1 5735 daa4 e934 997c b736 2f7c d336
00000290: b7af 0737 db68 a936 64f2 dc36 2956 6f36
000002a0: 9e43 c731 9568 e931 8704 2932 9ef8 ba31
000002b0: d9d9 f331 d612 8431 6a8b b434 0e32 e934
000002c0: 9636 3835 f0cc ba34 e6a0 f334 fbf3 8334
000002d0: a902 182f b8fd 2a2f e293 822f d0f8 082f
000002e0: 1ea4 322f 7982 c12e 7ebf b835 3ee0 df35
000002f0: 3258 0936 d155 b335 58e4 e935 fc5b 7d35
00000300: 36be c22b 2b4a 162d 2f8e b82c 3bc7 f02c
00000310: 7b03 1d2d 0415 aa2c aba0 d435 e404 0836
00000320: 8370 5c36 57ea d935 c31a 0e36 a4ee 9935
00000330: e57d 1135 a4ac 2935 d941 a235 d0ea 0735
00000340: fb43 3135 0e05 c034 6254 d336 c208 f936
00000350: 6b60 0237 f37c c736 8216 0237 52ea 8c36
00000360: 6f7b 9c35 9db2 a335 9041 bc35 2a21 8335
00000370: 7c05 ab35 8041 3935 db1e 8036 2049 9f36
00000380: 4af1 9a36 cb30 7f36 7a69 a636 4743 3436
00000390: 6cb3 3634 8c5f 6134 c658 7a34 db88 3434
000003a0: c674 6b34 c60d ff33 9ab4 f736 ce22 0437
000003b0: 1727 2937 b9b1 d336 360c 0a37 9e89 9536
000003c0: 59b3 9035 0762 a835 14a6 da35 eee1 8635
000003d0: 93ea af35 db8e 3e35 1a05 012f 5d68 652f
000003e0: 8e7a 8c2f 2ac4 372f d8ab 6f2f 44cf 012f
000003f0: 11d8 fc35 f252 0d36 2bb4 3536 096a e235
4.1406803e-08 4.9872902e-08 5.3522974e-08 3.9950542e-08 5.21042e-08 2.8220443e-08 1.8725355e-08 2.0524073e-08
2.6313284e-08 1.6440756e-08 2.1442311e-08 1.1613493e-08 5.4762167e-10 8.325845e-10 1.148286e-09 6.6693917e-10
8.6983365e-10 4.711159e-10 2.6691907e-10 2.1826665e-10 1.9349429e-10 1.7484195e-10 2.2803166e-10 1.2350553e-10
6.6249385e-08 8.501829e-08 1.5878794e-07 6.8103596e-08 8.8821935e-08 4.8107356e-08 3.449038e-12 8.068064e-12
6.434285e-12 6.462898e-12 8.429026e-12 4.565294e-12 2.5382114e-09 5.39988e-09 1.1809365e-08 4.3255564e-09
5.641467e-09 3.0555072e-09 1.2909184e-09 2.2012383e-09 5.2272977e-09 1.7632942e-09 2.29972e-09 1.2455648e-09
1.4082153e-08 1.3997887e-08 1.47197055e-08 1.1212966e-08 1.462415e-08 7.920669e-09 4.484402e-09 4.9438733e-09
5.181248e-09 3.960274e-09 5.1650586e-09 2.7974776e-09 1.06347615e-08 1.2738943e-08 2.1093253e-08 1.0204489e-08
1.33088705e-08 7.2082935e-09 8.4662184e-07 1.055285e-06 1.0506778e-06 8.453323e-07 1.1024972e-06 5.9713005e-07
9.775822e-07 9.564496e-07 1.5621429e-06 7.661604e-07 9.992403e-07 5.4120403e-07 4.730752e-06 4.7664735e-06
6.589194e-06 3.818172e-06 4.9797254e-06 2.6970977e-06 7.880956e-07 1.0606108e-06 8.9305394e-07 8.495991e-07
1.1080621e-06 6.001439e-07 1.31026e-07 1.10309806e-07 2.0591544e-07 8.8363315e-08 1.15245044e-07 6.24185e-08
6.5320796e-07 8.5723195e-07 1.4883092e-06 6.86683e-07 8.9558404e-07 4.8506246e-07 2.2649834e-07 4.932695e-07
1.4295523e-06 3.9513205e-07 5.153383e-07 2.7911537e-07 8.747127e-08 6.442197e-08 4.34104e-08 5.160497e-08
6.730414e-08 3.645297e-08 3.242993e-06 3.7080658e-06 4.2220436e-06 2.9703338e-06 3.8739613e-06 2.0981993e-06
5.6136023e-06 6.686049e-06 8.616357e-06 5.3558415e-06 6.9851794e-06 3.783283e-06 1.6886926e-06 2.231119e-06
2.5696447e-06 1.787232e-06 2.3309399e-06 1.262473e-06 5.270913e-09 6.2640546e-09 1.0136618e-08 5.0178013e-09
6.5443047e-09 3.5444976e-09 1.8233943e-06 2.3018877e-06 3.0783247e-06 1.8439198e-06 2.404872e-06 1.3025165e-06
4.607048e-09 8.591477e-09 2.0432019e-08 6.8821757e-09 8.975851e-09 4.861462e-09 2.5928598e-08 3.109108e-08
4.1679993e-08 2.4905411e-08 3.2482085e-08 1.7592805e-08 3.7268546e-07 7.6910464e-07 1.6670857e-06 6.1608836e-07
8.0351373e-07 4.3519577e-07 5.46833e-06 6.302747e-06 8.087539e-06 5.0487993e-06 6.584729e-06 3.5663927e-06
5.7993494e-09 6.793082e-09 9.838124e-09 5.441577e-09 7.096997e-09 3.843847e-09 3.362905e-07 4.3436052e-07
6.8624774e-07 3.4794311e-07 4.5379346e-07 2.457817e-07 1.3825265e-10 1.5551549e-10 2.375194e-10 1.2457524e-10
1.6247312e-10 8.7998005e-11 1.37648e-06 1.6680058e-06 2.0465927e-06 1.3361515e-06 1.742631e-06 9.43837e-07
1.3837323e-12 8.542981e-12 5.24538e-12 6.8433293e-12 8.92519e-12 4.834024e-12 1.5841991e-06 2.0268426e-06
3.2848045e-06 1.6235962e-06 2.1175226e-06 1.1468842e-06 5.419991e-07 6.320863e-07 1.2089105e-06 5.0633116e-07
6.6036563e-07 3.5766465e-07 6.2981135e-06 7.421798e-06 7.771053e-06 5.945208e-06 7.753844e-06 4.1996036e-06
1.165883e-06 1.219643e-06 1.4026173e-06 9.769913e-07 1.2742089e-06 6.9013186e-07 3.8182893e-06 4.747082e-06
4.6176474e-06 3.8026362e-06 4.9594646e-06 2.686125e-06 1.7015344e-07 2.0989518e-07 2.331536e-07 1.6813594e-07
2.1928562e-07 1.1876868e-07 7.3821984e-06 7.875917e-06 1.0082286e-05 6.3089797e-06 8.228284e-06 4.456567e-06
1.0781033e-06 1.2545505e-06 1.6290601e-06 1.0049532e-06 1.3106786e-06 7.09884e-07 1.1734294e-10 2.0864506e-10
2.5552932e-10 1.6713445e-10 2.1797975e-10 1.1806117e-10 1.8838347e-06 2.1058918e-06 2.7075973e-06 1.6869172e-06

exp_avg f4 [128]
00000000: 64dc 1fb7 6f37 49b7 f598 c335 2352 7334
00000010: cbbb 9438 c657 4234 8ccf 43b7 8339 3b37
00000020: 5ee9 4f36 154b d936 ec64 2bb7 9602 9ab8
00000030: 1d30 bab8 f153 2039 191e 7bb7 7531 a638
00000040: 11c2 c5b8 173f 0139 e83c 2eb7 f5bf 0038
00000050: 6290 13b8 48c6 6c37 5bef 8f37 e07c 2cb8
00000060: e438 4238 14d6 3bb7 a248 0d39 63bb 3039
00000070: 74ee 6536 e805 e638 ed70 5435 bab1 c838
00000080: 7478 bdb3 c1ed fcb8 d034 88b8 5724 e338
00000090: c7ac 06b8 50e5 e9b8 278d 4a36 faa8 63b9
000000a0: 1177 9cb7 81a3 10b5 1e93 1739 2cbf a6b7
000000b0: 79f8 b3b8 c8eb 0a39 4a73 fcb8 3d19 02b9
000000c0: 503a 8937 88a3 2437 eb46 de35 051d 11b6
000000d0: 0c0c e736 7f5f 9fb6 ca33 7cb8 dc5f 0a36
000000e0: 180a 24b9 7ac3 74b8 7579 5336 b037 5239
000000f0: 41b6 8c39 1b28 0db9 0476 62b3 c46f 45af
00000100: f604 ad37 cfc8 54b9 076a 2139 d29f feb6
00000110: 5f8b 52b9 4864 41b8 d846 f1b8 54ff 0db8
00000120: 18f8 a6b4 53d6 86b8 70ea 56b6 b9e4 d237
00000130: 1002 da33 bd2e 8037 3b5a 42b7 9452 88b6
00000140: e96c b8b6 8413 d831 f84e b5b7 84a6 ae37
00000150: ab09 88b8 2273 9938 56fa 3d32 7f66 6bb8
00000160: 53ad 7a37 28fb bab6 3e8e e4b8 5930 00b9
00000170: 419d e036 ef5d c4b3 03a4 2338 4215 e1b8
00000180: e9b7 42b7 5497 18b7 f852 68b8 73b3 d4b6
00000190: 22bb 81b7 4497 e637 9cc4 8eb7 cc25 6238
000001a0: b714 0939 55a3 e9b3 ebad 4536 f9c0 3cb8
000001b0: 7641 dd31 fead 9139 765b 90b8 35ef 6331
000001c0: 55d9 e3b7 a07a 3835 7fa4 3837 f2ff a536
000001d0: c408 8238 ce26 18b7 c002 0a38 5e9e 7b39
000001e0: 0b0b df38 0a81 12b7 07d9 93b9 3573 47b9
000001f0: a990 1238 9b5e 9db7 83a4 5335 d506 c4b5
-9.528452e-06 -1.199344e-05 1.4573149e-06 2.266102e-07 7.092169e-05 1.809959e-07 -1.1671229e-05 1.1159459e-05
3.0981241e-06 6.4758447e-06 -1.0215892e-05 -7.343774e-05 -8.878133e-05 0.0001529006 -1.49677735e-05 7.924709e-05
-9.42984e-05 0.00012325901 -1.0385389e-05 3.0696352e-05 -3.5181998e-05 1.4112862e-05 1.7158387e-05 -4.1124295e-05
4.6306188e-05 -1.11959125e-05 0.00013473866 0.00016854475 3.4262457e-06 0.00010968355 7.9140483e-07 9.569847e-05
-8.8229086e-08 -0.000120605815 -6.4948224e-05 0.00010830972 -3.2109e-05 -0.000111530186 3.0182507e-06 -0.00021711356
-1.8652094e-05 -5.388211e-07 0.00014455288 -1.9877763e-05 -8.581667e-05 0.00013248541 -0.00012037771 -0.00012407168
1.6358827e-05 9.813237e-06 1.6560929e-06 -2.1623575e-06 6.885739e-06 -4.7496865e-06 -6.0129714e-05 2.06194e-06
-0.00015644019 -5.8356185e-05 3.1512147e-06 0.00020047906 0.0002683867 -0.00013461748 -5.272706e-08 -1.7956753e-10
2.0625517e-05 -0.00020292703 0.00015393655 -7.5883954e-06 -0.0002007908 -4.610818e-05 -0.00011504971 -3.3854813e-05
-3.1100421e-07 -6.429539e-05 -3.2024946e-06 2.5140458e-05 1.0151791e-07 1.5280553e-05 -1.15843095e-05 -4.062729e-06
-5.496306e-06 6.288646e-09 -2.1613654e-05 2.0819956e-05 -6.486786e-05 7.317054e-05 1.1058168e-08 -5.6123823e-05
1.4941516e-05 -5.5724704e-06 -0.00010898382 -0.00012225042 6.694027e-06 -9.144048e-08 3.9014976e-05 -0.000107327956
-1.1606121e-05 -9.09514e-06 -5.539038e-05 -6.338983e-06 -1.5465139e-05 2.7488575e-05 -1.7019272e-05 5.39178e-05
0.00013073055 -1.0879618e-07 2.945652e-06 -4.5002413e-05 6.4393886e-09 0.0002778619 -6.883491e-05 3.316882e-09
-2.7161712e-05 6.8723784e-07 1.1005554e-05 4.947179e-06 6.200516e-05 -9.068941e-06 3.2904325e-05 0.00023996222
0.000106355255 -8.732322e-06 -0.00028199723 -0.00019021037 3.4943838e-05 -1.8759913e-05 7.884302e-07 -1.4605126e-06

exp_avg_sq f4 [128]
00000000: 39d4 cf30 040e 2b30 af0c de2d 9bd8 e82c
00000010: 9d24 3131 2eb6 892a 9704 342f 5bc4 922e
00000020: 9353 e92f d7d0 242f 6b57 d42f 6c6c 0933
00000030: 081b f932 792d 1b34 041e 0a33 12d7 6531
00000040: c143 df32 a478 8032 873a 0631 a170 f133
00000050: d6ab 5934 df45 9133 c5d3 502f 73e1 9533
00000060: 6c35 8f2f da8f 8130 dd4f c832 4631 4d34
00000070: ae76 622f cd41 6232 3fe7 a52c f636 5933
00000080: 6cd1 912a d6f8 8333 3da0 a432 d19f 7134
00000090: b4d3 1e33 da8b 1a34 d8aa da31 4f34 8034
000000a0: 725f 2333 ef94 de2c 731e 8933 e52b 8732
000000b0: cf73 ee31 5cd3 cc32 dd14 4133 5cea c833
000000c0: 9e89 1933 75fb 5330 9cad d42f 5f8d 892f
000000d0: 736c 8b32 fe27 892e 6a5b ac32 9f3d 962e
000000e0: a874 0634 38dc aa32 7f6d 022f be84 0734
000000f0: 532c 7e34 a099 1532 146d be2b 504c 0725
00000100: 75c4 f62f 64ec b633 91e6 e933 ed18 192f
00000110: 4259 8534 f308 e432 5320 8633 87dc 622f
00000120: 4d12 f02a c413 b333 9be2 4e2e ad57 7a33
00000130: 4b54 592d 7531 5031 c344 862f 328c e32f
00000140: a021 7830 374b 8027 59fd 2e32 ce67 1433
00000150: 6a54 5c31 3e0c 0832 5cf5 a927 29e5 ef31
00000160: 66f1 4c30 59fe 072f 76a7 bc33 6cbd f133
00000170: db3b 9332 035b 7a2b 649b a333 f6dc c633
00000180: 0776 4631 2ae2 d331 0fca 9d32 b759 c630
00000190: 82a8 2e2f 2eb0 2f32 2828 a030 b7a1 e232
000001a0: abd1 3334 fff4 1229 f29f 052e 5748 c031
000001b0: f74a 6427 2174 2e34 fe55 d932 d69c 9829
000001c0: 00e8 2733 7987 ca31 1c80 7e2f f1a0 3a2f
000001d0: 5574 0531 3b1e 8a30 53ed 3f34 3853 b233
000001e0: fbf7 5433 37fc b52e f884 a432 2af6 4734
000001f0: 6e80 cb32 b1b2 8b30 fbf8 c52c 3724 1d30
1.512155e-09 6.2229355e-10 2.524411e-11 6.6178846e-12 2.5777702e-09 2.44625e-13 1.6372535e-10 6.674191e-11
4.2441836e-10 1.4989908e-10 3.862469e-10 3.1996407e-08 2.8999708e-08 1.4452043e-07 3.2157928e-08 3.344614e-09
2.5991428e-08 1.4956022e-08 1.9532835e-09 1.1242924e-07 2.0272213e-07 6.764798e-08 1.8992725e-10 6.979362e-08
2.6049507e-10 9.42687e-10 2.3319382e-08 1.9110038e-07 2.0596744e-10 1.3169893e-08 4.7152555e-12 5.0574236e-08
2.590249e-13 6.145426e-08 1.916498e-08 2.2503015e-07 3.6979785e-08 1.4393245e-07 6.3640577e-09 2.3879917e-07
3.8038202e-08 6.3261544e-12 6.385098e-08 1.573603e-08 6.9398776e-09 2.384484e-08 4.495529e-08 9.3558555e-08
3.574825e-08 7.7118695e-10 3.8685932e-10 2.5020605e-10 1.6231047e-08 6.237143e-11 2.0065006e-08 6.8321564e-11
1.2522162e-07 1.9890749e-08 1.1862332e-10 1.2621146e-07 2.3671718e-07 8.707872e-09 1.3530587e-12 1.1735239e-16
4.488673e-10 8.5180346e-08 1.0891848e-07 1.3924124e-10 2.4838124e-07 2.6546763e-08 6.245741e-08 2.0632927e-10
4.2645263e-13 8.3389324e-08 4.7040243e-11 5.82874e-08 1.2353739e-11 3.0296097e-09 2.4423316e-10 4.1390674e-10
9.026966e-10 3.5608685e-15 1.0185738e-08 3.4553345e-08 3.2062197e-09 7.919025e-09 4.717294e-15 6.981868e-09
7.4557815e-10 1.2368541e-10 8.784893e-08 1.1256893e-07 1.7140271e-08 8.8944146e-13 7.6185444e-08 9.260286e-08
2.8879883e-09 6.16662e-09 1.8369091e-08 1.4431895e-09 1.5885074e-10 1.0226399e-08 1.1652945e-09 2.6383402e-08
1.6746951e-07 3.2631013e-14 3.038276e-11 5.5961595e-09 3.1681995e-15 1.624726e-07 2.530123e-08 6.777363e-14
3.909372e-08 5.894375e-09 2.3146679e-10 1.697378e-10 1.9420174e-09 1.0049414e-09 1.7874599e-07 8.303908e-08
4.9585633e-08 8.2757294e-11 1.915258e-08 1.8622873e-07 2.3690713e-08 1.0164368e-09 5.626719e-12 5.716773e-10
