ML Agent Practice/results/ppo/MoveToGoal/MoveToGoal-121406.pt (torch, 441819 bytes, 36 tensors)

network_body._body_endoder.seq_layers.0.weight f4 [128, 6]
000000 aa bf 07 bf 50 fd ac 3d bc 62 1d 3f 2f 19 ad be
       -0.5302683 0.08446753 0.6147878 -0.33808276
000010 5e 52 15 bf d9 87 b2 bc 74 cd 6c 3e 61 fc 89 3d
       -0.5832881 -0.021793293 0.23125249 0.067375906
000020 67 10 b3 3e 66 a1 9b 3e 16 1a 17 be cc 60 92 3e
       0.34973451 0.30396575 -0.14756045 0.28589475
000030 ae 9c 92 3b 92 61 09 bf f0 fd 65 bd 39 9f 99 be
       0.004474244 -0.53664505 -0.056150377 -0.3000429
000040 d6 6f a2 3d 90 6a 3a 3d 54 e0 aa 3d c7 2f cf bb
       0.07931487 0.045511782 0.083435684 -0.006322834
000050 90 18 aa 3e 0f 1f 16 3e f9 be 3e bd af 1b bd be
       0.33221865 0.14660285 -0.046568844 -0.36935183
000060 fa a0 04 3f 14 85 83 bf 4c fc 04 3f d7 de db 3e
       0.5180813 -1.0274987 0.51947474 0.4294345
000070 cf 03 81 bd d0 cc d4 bd 53 9c db 3e 40 32 90 be
       -0.062995546 -0.103906274 0.42892703 -0.28163338
000080 08 09 c3 be 63 fd a1 bc 76 5b e7 bd 54 85 01 be
       -0.38092828 -0.019774145 -0.11296742 -0.12648517
000090 22 9a 54 be 82 82 63 be e2 43 c0 bd 2f 1b 37 be
       -0.20761922 -0.22217754 -0.093879476 -0.17881463
0000a0 af 74 7a 3f 75 4b df be 67 44 30 3f ea 9d d2 3d
       0.97834295 -0.43612257 0.68854374 0.10284026
0000b0 eb 62 da 3c da 78 01 be 6a e7 36 3f 80 20 bf 3e
       0.026658496 -0.12643757 0.7144686 0.37329483
0000c0 14 c4 06 3f 6e 56 7b bd c8 50 3e bf e0 5c 33 3f
       0.5264294 -0.061361723 -0.7434201 0.7006359
0000d0 e9 9e dd 3d 8e 1d 1a be af 3d 1e bf 68 f9 df be
       0.10821325 -0.15050337 -0.6181287 -0.4374497
0000e0 7a fe f6 bd 40 cb 9f be 0c 7a 68 bf 37 f4 45 3f
       -0.12060256 -0.31209755 -0.9081123 0.7732577
0000f0 69 73 09 3d 44 c1 7b be d9 14 9d be 9c c9 dd 3e
       0.03355733 -0.24585444 -0.30679968 0.43317878
000100 1a f5 4b 3e d4 a1 87 3d b0 83 65 3e ba ad 1c bf
       0.19917718 0.06622663 0.22413516 -0.61202586
000110 0a 13 8a 3e 96 c8 0e be f3 72 59 3d 4c f9 78 3e
       0.2696765 -0.13943705 0.05308814 0.24313849
000120 19 4e 24 3f 52 3e e3 be 5e a8 0b 3e a6 36 4e 3e
       0.6418167 -0.44383484 0.13638446 0.20138034
000130 fc 30 f3 be 0d 59 e7 be f7 e9 16 3f 3e 02 11 bf
       -0.4749831 -0.45185128 0.5895075 -0.56644046
000140 6a d6 2d bf 6a 3c b2 bd a5 27 7a 3e bc cd 44 3f
       -0.67905295 -0.08702929 0.24429186 0.76876426
000150 3a bb 5c 3e 59 45 1b 3d 2f 5d 2c bf 4d e4 ea 3d
       0.21555796 0.037907932 -0.67329687 0.11469326
000160 71 b8 d1 3e d2 65 8a bf 10 38 c4 3e ea a6 be bd
       0.4096103 -1.0812323 0.38324022 -0.0930918
000170 29 37 43 3e 9b 49 ca bc 58 46 23 bf c7 63 82 be
       0.1906401 -0.024693301 -0.6377921 -0.2546675
000180 5d 13 67 be 87 3f 98 be 82 af 09 bf 62 a1 57 be
       -0.2256598 -0.29735968 -0.5378343 -0.21057656
000190 1e 11 82 bc 0d 32 dd 3e 04 8d cb be 6c b3 79 3c
       -0.015877303 0.43202248 -0.39756024 0.015240531
0001a0 48 a3 b1 3e df 39 4a bf cb 45 ec 3e 08 9e 50 3e
       0.34694886 -0.78994554 0.46146998 0.20372784
0001b0 6b 05 ee 3e 9c 43 59 3e 5d b8 f6 bd 44 3e c0 be
       0.4648851 0.21217197 -0.12046883 -0.37547505
0001c0 fd b1 ba 3d ff b8 a6 bd ea 8d 1e 3f 02 79 10 3f
       0.0911598 -0.08140754 0.61935294 0.56434643
0001d0 20 7c f1 3e db 80 0f bf 44 02 c2 3d 87 e5 25 3e
       0.47165012 -0.5605599 0.094730884 0.16200839
0001e0 4f 36 af be 1b 6a 95 3e 73 fc 46 3f b2 0f 58 3e
       -0.34221122 0.29182515 0.77728957 0.21099737
0001f0 75 9b 54 bd 88 8c 83 be a8 24 c0 3e cc 4c 59 be
       -0.051906068 -0.25693154 0.37527966 -0.21220702
000200 d9 cd bb bd dd c6 1a bf a5 4b af bd 8d c2 a8 bd
       -0.09170122 -0.6045969 -0.0855935 -0.082402326
000210 a2 80 d5 be cf e7 60 bf f8 95 3d 3f b1 28 94 3d
       -0.41699702 -0.8785371 0.7405696 0.07234324
000220 7d 7e e3 be 3e c7 9c 3d 9c b7 3d 3f b5 cb b0 3e
       -0.4443244 0.0765519 0.7410829 0.34530416
000230 1e e0 1e bf 57 69 f3 be 12 2e 97 bd a5 72 1e be
       -0.62060726 -0.47541305 -0.07381834 -0.15473421
000240 cd f7 1a bf f0 84 1a be 5f df 35 3f 56 92 1e bf
       -0.60534364 -0.15089774 0.7104396 -0.6194204
000250 ac 4d ad 3e 55 67 25 be 48 98 8c be 37 59 d3 3e
       0.3384832 -0.161527 -0.2745993 0.41279003
000260 34 10 ce 3d b4 bf ff 3e 8c 0b e6 bd b4 af ce be
       0.10061684 0.49950945 -0.11232671 -0.40368426
000270 a1 af 39 bf 91 68 0b 3e 5b 77 bd 3e 83 4a 15 be
       -0.72533613 0.13614108 0.37005123 -0.14579205
000280 8b 2c c8 3a cb ae 2a bf 4c e7 6c 3d 30 56 df be
       0.0015272064 -0.6667296 0.05783777 -0.43620443
000290 41 ed ee 3e 6a 5d 8c be a3 47 25 bf b6 9f 83 3e
       0.46665385 -0.2741502 -0.64562434 0.25707787
0002a0 3d c7 61 be 9e 0b 15 be df f3 ce 3d 7c 87 3e be
       -0.2204866 -0.14555213 0.101051085 -0.1860637
0002b0 7a 44 bd be 31 b6 14 3f ae 18 e9 3e 94 5d 76 3d
       -0.36966306 0.580905 0.45526642 0.060147837
0002c0 68 8e 87 bc 7f 53 9f 3e 62 f7 bd 3e cd 5f 8d 3c
       -0.016547397 0.3111839 0.371028 0.017257595
0002d0 21 bc 85 3e 6a f9 40 3d 74 02 da 3e b7 b3 01 3e
       0.26120093 0.04711286 0.42579997 0.12666212
0002e0 4e ee 53 3e 82 48 d5 3e 92 ce cd 3e 2a a3 40 bc
       0.20696375 0.41656882 0.40196663 -0.011757651
0002f0 76 99 b6 3e 31 c5 97 bb 3a 57 05 3f 5f ae 53 3e
       0.35663956 -0.0046316613 0.5208622 0.20671986
000300 0a ab f7 3e 4d 8f 56 3e 0d 62 38 3f d1 29 6c be
       0.4837268 0.20953102 0.72024614 -0.23062827
000310 12 eb 43 be 1d 26 a5 3f 1d e7 a1 be 0b 6d 8f 3d
       -0.19132641 1.2902256 -0.31621638 0.0700322
000320 e2 91 83 be e1 1d 66 3e 59 d9 91 3d 29 f4 ab 3e
       -0.25697237 0.22472335 0.07121534 0.33584717
000330 a2 1e ad be 5b 7b 43 3f ab 13 77 3e bc b8 cc 3e
       -0.33812433 0.763601 0.24128596 0.3998469
000340 db 41 ab be 49 58 15 be 83 f7 44 3f 0d 7a 82 bd
       -0.3344868 -0.1458446 0.7694017 -0.063709356
000350 a3 fc 8e 3e 05 eb 92 3e 35 70 20 3e e6 dc 97 be
       0.27927122 0.2869493 0.15667804 -0.2966072
000360 e0 e2 03 3f f6 41 a7 be 1d 29 03 3f 8a c4 0e bf
       0.5151806 -0.32667512 0.5123461 -0.55768645
000370 bb 73 37 3e 1e 20 0c 3f b8 ac fd 3e 53 1c 3d bf
       0.17915241 0.54736507 0.49545836 -0.73871344
000380 9a c7 90 3e 53 3b 79 bf 90 0a cc 3d 72 f4 3d 3e
       0.28277284 -0.97356147 0.09962952 0.1855028
000390 31 21 f5 be 5c 12 db 3d 02 3f 89 bf 11 2d 19 bf
       -0.47876886 0.10696861 -1.0722353 -0.5983439
0003a0 b1 63 22 3e b5 fa 05 bf e4 2c f6 be 16 6b 8f bc
       0.15858342 -0.52335674 -0.48081124 -0.017507117
0003b0 a6 c6 f1 3c 66 25 ad 3e cc 74 65 bd b8 70 18 bc
       0.029513668 0.33817595 -0.05601959 -0.009304218
0003c0 f1 1c 55 3e c3 24 b1 3e d7 47 61 3c f7 bb b3 3e
       0.20811822 0.3459836 0.013750038 0.35104343
0003d0 53 d6 f2 be 24 9c 71 bf 51 56 b0 be 26 a1 19 be
       -0.4742914 -0.94378877 -0.34440854 -0.1500288
0003e0 a3 51 5c be 6a 93 2b be 32 75 d6 3e e7 a6 13 bf
       -0.21515517 -0.16755453 0.41886288 -0.5767655
0003f0 28 0f 09 bf ea 7e d7 be 1d 48 3d bf a7 61 8f bf
       -0.5353875 -0.42089015 -0.7393816 -1.1201676

network_body._body_endoder.seq_layers.0.bias f4 [128]
000000 d3 73 91 3b aa 7f 91 3a ba 65 ff ba 62 6d 11 bb
       0.004438856 0.0011100669 -0.0019485273 -0.0022190441
000010 d7 30 67 3a 89 7e c1 3c 7a b8 a3 bb 13 5d 57 3b
       0.00088192284 0.023619907 -0.0049963566 0.0032861873
000020 b1 c7 33 bb f8 71 93 3a cf 10 b8 3b fd 40 a5 bb
       -0.0027432258 0.0011249175 0.005617238 -0.0050431476
000030 0e 9a a9 bb db c3 69 bb 20 25 07 bc 7c a9 6b bb
       -0.0051758355 -0.0035669717 -0.008248597 -0.0035959175
000040 8d a6 f9 ba 62 ee d6 3b 5d c5 69 3a 5a db 27 3c
       -0.0019046828 0.006559179 0.0008917654 0.010245169
000050 b2 b8 79 bb fc 98 30 3c 3d 05 2d bb aa 8f 4b ba
       -0.0038104472 0.010778662 -0.0026400827 -0.0007765243
000060 0f 03 00 bb 35 de 11 3c da 46 92 3b 4a ef 60 ba
       -0.0019533073 0.008903076 0.0044640126 -0.0008580579
000070 27 cd 2e ba 52 e1 04 bc d4 15 bd ba 53 21 c6 3c
       -0.00066681433 -0.008110361 -0.0014426061 0.024185812
000080 96 2f 8e bc da ca 89 bb 8c 2f de 3a 46 98 03 3b
       -0.017356675 -0.00420509 0.0016951426 0.0020079776
000090 5d 43 46 bb ac eb 05 bb f6 31 7e 3b 4d 3d 8d bb
       -0.0030252554 -0.002043466 0.0038787103 -0.004310286
0000a0 fe f7 8f 3a b1 3f 9c ba e2 c4 84 bc 45 53 91 38
       0.0010983942 -0.0011920837 -0.016207162 6.929649e-05
0000b0 ac 11 49 bb b2 85 2f 3b de b8 98 bb af fe ae ba
       -0.00306807 0.002678257 -0.0046607098 -0.0013351048
0000c0 8f 9a a9 bb 3c 9f bb 3c c0 32 e7 3b c9 4b 9a 3b
       -0.0051758955 0.022903077 0.0070556104 0.0047087413
0000d0 a0 61 f8 3a 11 fb 46 3b e4 5d 7c bb 00 79 86 bb
       0.0018949993 0.003036205 -0.0038508112 -0.00410378
0000e0 5e 41 81 3b 85 00 3a bb b7 e3 e9 3a 7a ac 32 bc
       0.00394456 -0.0028381657 0.0017844354 -0.010905379
0000f0 54 3e 79 bc b4 55 00 ba ff 25 85 3b f9 b0 11 ba
       -0.015212614 -0.0004895583 0.0040633674 -0.0005557682
000100 93 13 e7 3c 02 70 3f 3c 98 b3 a8 3b 20 4f ad 3b
       0.028207576 0.01168442 0.0051483624 0.0052889735
000110 b4 09 16 3b 52 69 05 bb e3 9a 63 3b 9d 78 91 bb
       0.0022893967 -0.0020356965 0.003472977 -0.004439427
000120 50 6e c1 ba 18 cf 47 3c 06 ca 1d 3c 32 80 ef bb
       -0.0014757607 0.012195371 0.009630686 -0.0073089832
000130 19 1b 1e bb 8f b9 3f bb 26 57 8a b8 4e 27 67 ba
       -0.0024125038 -0.0029254889 -6.5965854e-05 -0.00088178075
000140 92 a6 de 3a 13 83 c9 3b c8 de 9f 3c bf 9b 05 3c
       0.0016986898 0.0061496585 0.01951541 0.008154809
000150 a0 57 a9 bb dc 05 2c 3a cc 52 2c 3c 20 d5 ab ba
       -0.0051679164 0.00065621524 0.010517787 -0.0013109781
000160 71 67 3f 3c 07 2d 5b 3c f1 f5 87 3b ad 2b 66 3c
       0.011682377 0.013377435 0.0041491915 0.014048499
000170 c0 89 9f bb 51 bb 13 bb ac 49 78 bb 02 2e 8a 3b
       -0.004868716 -0.002254207 -0.0037885709 0.0042169103
000180 ad 8e ab ba df af 43 bb 04 2e da 3a 06 fe c6 39
       -0.0013088785 -0.0029859466 0.0016645794 0.00037954765
000190 af e2 68 3c 50 e7 3f bb 8d bb 9f bb 48 d8 28 3c
       0.014214202 -0.002928216 -0.0048746527 0.010305472
0001a0 d8 80 5f bb 23 62 45 3b b1 aa be bb 06 69 67 3a
       -0.0034103896 0.0030118308 -0.005818688 0.00088276004
0001b0 5e b0 0a ba 6f fb 11 bc 2e 61 a1 3c c5 1e db bb
       -0.0005290563 -0.008910044 0.01969966 -0.0066870176
0001c0 6f a6 66 3b af ba 60 ba 36 46 34 3c f6 1e 43 3c
       0.0035194417 -0.000857274 0.011003068 0.011909237
0001d0 f6 d2 92 ba 37 d0 46 bc 92 cf 96 3b 41 fc ec 39
       -0.0011201787 -0.012134603 0.004602381 0.00045201372
0001e0 d0 3e c0 3a 15 8c 1c b9 52 79 d4 bb 4f d4 0b 3b
       0.0014667157 -0.00014929504 -0.006484189 0.0021336263
0001f0 cb f7 5e bb 2d 45 e9 ba f2 6b 1e 3b 1a 27 a8 ba
       -0.0034022208 -0.0017797105 0.0024173227 -0.0012829036

network_body._body_endoder.seq_layers.2.weight f4 [128, 128]
000000 a0 61 56 3d 5b 4e 43 bd b7 e4 a6 bd da 08 24 bd
       0.052339196 -0.047682147 -0.08149093 -0.040047504
000010 f4 bb 6d bc f5 2e 15 bd 82 6d 0f be 92 05 ad bd
       -0.014510144 -0.036421735 -0.14006618 -0.08448328
000020 8e 41 0b 3d 56 2d 09 3e 1e 4e ce 3d 25 6c ac 3d
       0.033998065 0.133962 0.100734934 0.084190644
000030 ca a0 5a 3d 6e 9f 6e bd 97 65 b1 3d c8 7c 9d 3d
       0.053375997 -0.058257513 0.08661955 0.07689816
000040 d6 01 05 bc ce 90 bd bc b6 6f 42 3b 7b 3c 5c 3e
       -0.0081181135 -0.023140337 0.0029668636 0.21507446
000050 ed 4e 86 3d ed b6 fc bc c9 07 06 bc b5 b0 9d 3c
       0.06558023 -0.030848945 -0.008180567 0.0192493
000060 d5 c0 8a bd 5a e4 ec 3c 70 94 9f bd dd c3 93 3d
       -0.06775061 0.02891748 -0.07791984 0.07215092
000070 23 26 d9 3d 29 d2 2e 3d 81 3a c0 bd 6b ea 0b bd
       0.10602977 0.042680893 -0.09386159 -0.034159105
000080 28 7e 6d 3d a9 db c1 3b b5 67 02 bb 25 6c 0a 3d
       0.05798164 0.005916078 -0.001989824 0.03379454
000090 04 92 2f 3d 88 cb 73 3e bb 2b 14 3e 9f 6a d4 bd
       0.04286386 0.2380811 0.14469807 -0.10371899
0000a0 de 2a 19 bd 39 ce ae bc 86 b8 d0 bc b1 39 07 bd
       -0.037394397 -0.021338569 -0.025478613 -0.033014003
0000b0 2c e4 62 bd 05 8c d4 3c 4b f2 c8 bd 9d 06 ce 3d
       -0.055393383 0.025945673 -0.09811839 0.10059855
0000c0 b3 e7 a6 3d e8 82 68 3e 66 ed cf 3d 41 77 20 3d
       0.08149662 0.22706187 0.10152702 0.03917623
0000d0 c0 ce 2f 3d 96 d7 04 3d ac 4f 6d 3c 3e 5c f4 3d
       0.04292178 0.03243216 0.014484327 0.11931656
0000e0 2d 5b db 3c 04 c1 91 3d 4f f2 5f 3c 66 b0 21 be
       0.026776874 0.07116893 0.013668611 -0.15789947
0000f0 01 2c 90 bc e5 e9 84 bc 45 b2 b7 bd aa 90 4e bc
       -0.017599108 -0.01622481 -0.08969549 -0.012607733
000100 f9 74 be bb f9 1e e6 3c e0 b8 b2 bd e9 91 f5 3d
       -0.005812284 0.02809094 -0.08726668 0.11990721
000110 89 40 5e bd 9c 23 56 bd b8 13 e2 3d 28 5e da 3d
       -0.054260764 -0.052280053 0.11038917 0.1066249
000120 21 3a b9 bd 6d f9 fa bc a0 65 23 bd 20 b8 ac 3d
       -0.0904429 -0.030636514 -0.03989184 0.084335566
000130 2f 67 8b 3d 07 b4 8e bd ba 07 b4 3d df 5b 56 bd
       0.0680679 -0.06967931 0.08790536 -0.05233371
000140 06 de a8 3d bf 2f 5b bd 7f a2 1b 3a 1d cd 95 bd
       0.082454726 -0.05351233 0.00059369946 -0.07314513
000150 3c 4a 02 bc 28 c6 55 3e f2 54 bb 3c b9 af 8c bd
       -0.007952269 0.20876372 0.022867654 -0.06869454
000160 77 c5 b5 3c af b9 bf 3c da c4 04 3e 98 0a 21 3d
       0.022188885 0.02340397 0.12965718 0.039316744
000170 b0 04 b6 3c 07 7f f5 bc 74 a3 77 bc 3c d9 8c 3d
       0.022219032 -0.029967798 -0.015114654 0.06877372
000180 1b eb 5f bc 09 34 0a be 7a ea b6 3c 06 88 82 bd
       -0.013666893 -0.13496412 0.022328604 -0.06373601
000190 c5 b5 8f bc 73 eb 72 bd c1 d9 1d be 49 b1 50 3e
       -0.01754273 -0.059306573 -0.15415098 0.20380129
0001a0 dc 09 77 3d 76 d0 00 be 0c a3 39 bc 91 ff f2 3d
       0.060312137 -0.12579522 -0.011330377 0.11865152
0001b0 e0 69 56 3e ec 24 0a bd 26 3f 2f 3d b7 35 ce bd
       0.20938826 -0.033726618 0.042784832 -0.10068839
0001c0 9b 57 71 bc d7 f4 1f 3d f4 00 a1 bd c6 53 a2 bc
       -0.014730359 0.039051857 -0.0786151 -0.019815337
0001d0 d0 2a 09 bd b4 37 4a 3d 2c a3 1b 3e 70 c1 d3 3d
       -0.033488095 0.04936953 0.15198964 0.1033963
0001e0 0c 7f e6 3d ea 56 9a bd 98 13 0a be 1c 9b bf 3d
       0.11254701 -0.07536109 -0.13484037 0.09355757
0001f0 e4 14 ac 3d 37 3f eb 3c c9 76 9f 3c d1 85 28 3e
       0.08402422 0.028716667 0.01946582 0.16457297
000200 1e 21 07 3c b4 5a fb 3a 6f aa d7 3d b5 59 98 bb
       0.008247642 0.0019176812 0.105305545 -0.004649366
000210 e4 59 5e be 95 c4 93 3d 12 a5 3d 3c d6 d7 b8 3d
       -0.21713978 0.072152294 0.011575 0.090255424
000220 c4 5b a1 3d 43 6b 1c 3e 1b d4 2b 3e 7d 4d 0f be
       0.07878831 0.15275292 0.1678013 -0.13994403
000230 e6 c5 8f 3d 50 b1 2c 3d 7e bc 37 ba 36 a7 04 bd
       0.07020168 0.042161286 -0.00070089835 -0.032386027
000240 88 b6 6c 3d 19 fd de 3d 2e fa 94 3d 89 fb b9 3c
       0.057791263 0.10888118 0.072742805 0.02270295
000250 cf 00 55 3d e2 e8 46 bd fd 04 dc bd cd ac 88 3d
       0.052002724 -0.048561938 -0.10743139 0.06673584
000260 1e 11 b1 3d 85 1b d7 3d c7 aa 1b 3e 80 96 83 be
       0.08645843 0.10503296 0.15201865 -0.2570076
000270 05 4d 15 3c 4c 0f 3a bd 58 35 44 3d d7 17 29 bd
       0.009112601 -0.045424744 0.047902435 -0.0412825
000280 ed 36 15 3e a5 7d 9b bd 13 68 82 bc 38 93 dc 3d
       0.14571734 -0.07592324 -0.015918767 0.10770267
000290 f2 37 5c be a2 7b 4f bd c9 73 95 3d e5 53 7d 3d
       -0.21505716 -0.050655015 0.07297475 0.061847586
0002a0 6c 37 8b bd 70 81 1e be b1 bd 91 bc 63 46 e0 bd
       -0.0679768 -0.15479064 -0.017790647 -0.10950925
0002b0 12 3c d7 3c e4 2d d6 3d b7 38 34 be a2 6d a5 bd
       0.026273761 0.10457972 -0.1759976 -0.080775514
0002c0 65 ab 1d 3e 5f e2 82 bc 3d ec 9c bd 36 81 8b 3d
       0.15397413 -0.015977083 -0.076622464 0.068117544
0002d0 9c 39 12 bd 49 64 ee 3d 78 44 69 bc 7f 17 ce bd
       -0.03569947 0.116402216 -0.014237516 -0.10063075
0002e0 6b 8c 4c bd 02 d6 be bc b1 cd 1d bd 9f 53 9a 3c
       -0.0499386 -0.023295406 -0.03852624 0.018838702
0002f0 39 68 ed bd cd 9b 5b bd e2 dd 65 be 6c 2d 94 bd
       -0.115921445 -0.05361538 -0.22447923 -0.07235226
000300 d0 39 ae bc 7b ef c5 3c b6 de 15 3e 25 23 7e 3e
       -0.021267802 0.024162045 0.14635739 0.24818094
000310 51 a7 11 be f4 89 67 3d c7 53 da bd 0c ad 37 bd
       -0.14223982 0.056528047 -0.106605105 -0.044842765
000320 da b4 f1 bd 32 6d 8f bc 7a ab e9 bd a6 24 14 bd
       -0.11802073 -0.017508123 -0.1140966 -0.036167763
000330 2d 8d 68 bd 05 16 4e 3e 67 be 82 3b 0b 43 2a be
       -0.05677526 0.20125587 0.003989983 -0.16627137
000340 d2 2e f6 bd 93 aa 88 3d a5 8c 80 bd 63 fb 2a 3d
       -0.12020649 0.066731595 -0.06276826 0.041743647
000350 8c 1e dc 3d dd f1 f3 3b db 2b 2a 3e 1e c9 82 3d
       0.10748014 0.007444604 0.16618292 0.06386016
000360 69 b8 20 3d 16 88 8d bd d4 06 97 3c 94 4f 26 bd
       0.039238367 -0.06910722 0.018435873 -0.040603235
000370 6f f7 8d 3d 0a bd 20 bd 22 09 44 3e 2c ed 09 3e
       0.0693196 -0.03924278 0.19144109 0.1346938
000380 30 57 26 bd 41 89 22 3c db d6 03 bc 79 5b a9 3c
       -0.040610492 0.009920419 -0.008046831 0.0206735
000390 c1 12 06 3d d5 d3 c4 3d bc cc 38 bc 4c 15 2f 3b
       0.03273273 0.09610716 -0.011279281 0.0026715575
0003a0 14 86 b0 3d 3b 5c 0b 39 16 8d 1b bd 16 cc 16 3d
       0.086193234 0.00013290432 -0.037976347 0.036815725
0003b0 6f d5 c4 bc 4e 2d 12 bd 4e 61 26 3d 33 fb f0 bb
       -0.024027554 -0.035687737 0.04062014 -0.007354164
0003c0 20 67 4b 3d 6d 3b 89 3d 3c 1d 0e bd 30 5a 12 be
       0.049658895 0.06700788 -0.03469585 -0.14292216
0003d0 a9 9b a7 bc 24 1c f2 3c f4 71 7a 3d 84 d8 92 bd
       -0.020459967 0.029554434 0.06114383 -0.07170203
0003e0 fc 35 29 bd 40 ac 12 3d de e4 bc bd 2d 6c 8f 3d
       -0.04131125 0.0358088 -0.092233405 0.07003055
0003f0 58 31 87 bd 5e 44 80 bc 3e 29 00 3e b2 31 db bc
       -0.066012084 -0.0156576 0.12515733 -0.026757095

network_body._body_endoder.seq_layers.2.bias f4 [128]
000000 be 0e 26 3a ed 26 06 3c 0f bf 76 3c be 03 95 b9
       0.0006334594 0.008187992 0.0150602 -0.00028422283
000010 8b a0 7a bb cd b4 1d bb 07 ab 21 bb 82 9f a5 3a
       -0.0038242664 -0.0024064064 -0.002466859 0.0012636038
000020 8b f3 12 3a 50 de d7 ba eb 3c bf 3a 8f 2c d3 ba
       0.0005605749 -0.0016469453 0.0014590299 -0.0016111302
000030 64 ed f6 3b 4f 97 b3 bb b7 3d 00 3c 68 3b 4f bb
       0.0075356234 -0.005480684 0.007827214 -0.0031621102
000040 9e 85 21 bb b6 09 0b bc 95 14 0c bc 51 4d a0 3b
       -0.0024646292 -0.008486202 -0.008549829 0.0048920293
000050 d6 a2 9f 3b 90 b5 3b 3b 0e fb 6c bb ea a7 93 b9
       0.0048717065 0.0028642155 -0.0036160382 -0.0002816313
000060 f8 d3 7d 3a ca 4c 65 3b ad ca f5 ba 0a ba 6c 3b
       0.000968277 0.0034988397 -0.0018752419 0.003612163
000070 4c 54 1f ba 2b 25 7c 3b 4e b7 ca ba 63 d7 fd 3b
       -0.000607793 0.0038474302 -0.0015466006 0.0077466234
000080 24 0f 61 bb 36 62 1a bb 43 a1 b3 bb 29 ee 99 3a
       -0.00343413 -0.0023557073 -0.0054818704 0.0011743951
000090 2b 34 ce 3a ea ee 30 3c f6 cb 9b 3b e4 89 d5 bb
       0.00157321 0.010799149 0.0047545386 -0.006516682
0000a0 91 e6 ca ba 25 c4 95 bb 62 5e c5 b9 12 a0 0d b7
       -0.0015480091 -0.0045705014 -0.0003764509 -8.441524e-06
0000b0 ec 07 0c 3c 7c bd 05 3a cc 38 94 bb 9d 62 ed ba
       0.008546811 0.0005101783 -0.0045233723 -0.0018111054
0000c0 b6 8d ca ba 62 43 a5 ba a3 a8 a4 3b 01 9a bc bb
       -0.001545361 -0.0012608583 0.005024986 -0.0057556634
0000d0 87 dd dc 3a 42 1e 95 3b 2d 13 0d 3a a1 e6 6a ba
       0.0016850688 0.004550726 0.00053815806 -0.0008960758
0000e0 50 81 67 3a 9e 3a d4 bb 3a b7 56 ba b1 e6 62 3c
       0.000883122 -0.0064767143 -0.0008190755 0.013848946
0000f0 d3 a7 3c ba 3d f7 07 bb ed b8 d1 b8 07 fd b8 39
       -0.00071966386 -0.002074673 -0.00010000342 0.00035283735
000100 e3 5b 7a ba 10 9b 86 bb 78 87 0c bb 59 ad 3b ba
       -0.00095504354 -0.0041078404 -0.002144305 -0.00071593147
000110 16 90 e2 b9 95 d8 88 3a c7 cc 2d 3a d1 f3 6a 3a
       -0.00043213431 0.0010440523 0.00066299405 0.0008962723
000120 57 8b 97 3b 70 2b 0f 3c 6c c9 58 bb 3a f5 a8 3a
       0.004624765 0.008738384 -0.0033079041 0.0012890466
000130 10 84 ef ba 15 ca d0 39 2c 94 8a bb 60 a1 65 3b
       -0.0018273611 0.00039823414 -0.0042290892 0.0035038814
000140 c1 6f a0 bb 69 35 d0 3b 79 a3 49 3b dd b3 53 bb
       -0.0048961346 0.0063540232 0.0030767603 -0.0032303252
000150 f6 a7 92 3a d3 f8 b3 bb 5a 86 8c 39 d1 af 3c b8
       0.0011188972 -0.0054923086 0.0002680298 -4.4986435e-05
000160 30 92 0e 3a 54 b6 a9 39 50 5c b6 b9 2f 08 89 bb
       0.0005438654 0.00032370037 -0.00034782523 -0.0041818838
000170 f5 6c 4b 3a dc 0a f6 38 6f 35 ac ba 89 3c f0 ba
       0.00077600713 0.00011732217 -0.0013138483 -0.0018328588
000180 50 6e d0 3b 8b a2 2d bb 97 14 ca ba 36 78 a3 bb
       0.0063608065 -0.0026494588 -0.0015417513 -0.0049886955
000190 d9 cf 1d bb e9 b1 c6 ba 9b 00 86 bb 3c e3 99 bb
       -0.0024080186 -0.0015159223 -0.0040894276 -0.004696278
0001a0 6e a3 8c ba 42 3d eb ba 17 0d 6d bb 26 15 63 3a
       -0.0010729858 -0.0017947333 -0.0036171132 0.0008662514
0001b0 f6 68 37 3b e2 e1 4a bb 02 2b 1e 3b 5b 06 ca ba
       0.0027986146 -0.003095739 0.0024134521 -0.0015413271
0001c0 dd fa ab 3c f1 58 2c 3a 38 a7 e1 38 f0 96 0c bb
       0.020993644 0.00065745326 0.00010759983 -0.002145227
0001d0 b6 55 fd ba 5a ca 53 3b 46 2c ed bb 71 cf 84 39
       -0.0019327912 0.0032316656 -0.007237944 0.00025331558
0001e0 08 35 1d 3c c7 de 0c bb d1 82 08 bb 39 69 ed ba
       0.009595163 -0.002149509 -0.0020829926 -0.0018113024
0001f0 17 24 54 3b 7d 33 1c 3c 4c 5e 58 39 78 63 41 bb
       0.0032370144 0.00953376 0.00020634494 -0.002950875

action_model._continuous_distribution.log_sigma f4 [1, 2]
000000 3b e2 83 bc 64 ad 49 bc
       -0.016099086 -0.012309406

action_model._continuous_distribution.mu.weight f4 [2, 128]
000000 de 44 ed 3c dc bc 9c 3c fd 3b c2 bc a1 98 97 3a
       0.028963502 0.019133024 -0.023710245 0.0011565873
000010 8e 6d 62 3c 94 21 9a 3c 0b 77 c0 3b 5f 13 e3 bb
       0.013820065 0.01881484 0.005873566 -0.0069297994
000020 df 1d 1c bc 03 fe 0c 3c 23 16 12 3d dd 1a 03 bd
       -0.009528606 0.008605483 0.035665642 -0.03200804
000030 22 0d 8e bc c7 49 64 bb 42 55 03 3d e7 8a 7a 3c
       -0.017340247 -0.0034834014 0.03206373 0.015291906
000040 9c 0c 4f bc eb d2 e1 b9 55 98 5e 3b 76 68 d7 3c
       -0.012637284 -0.0004307249 0.0033965309 0.026294928
000050 8a 59 be bc 0b 88 e6 3c cd 51 9c 3b 32 e2 33 bc
       -0.023236055 0.028141042 0.0047704936 -0.010979222
000060 b5 ee 34 bd 6b a7 58 3b cc 49 d2 bb e7 37 ca 3c
       -0.04417296 0.0033058773 -0.0064174887 0.02468486
000070 ea 09 8e ba c5 57 4b bd 60 79 04 3d d1 5f 65 bc
       -0.0010836695 -0.04964425 0.032342315 -0.013999895
000080 ff 40 db 3b ae b0 58 3c 11 da cd 3b 89 cb 97 bc
       0.0066910977 0.0132257175 0.006282099 -0.01852967
000090 48 cd 3c bd 6f 65 37 3d aa b7 61 bc 92 0d 4a 3c
       -0.04609421 0.04477447 -0.013776699 0.012332337
0000a0 81 db 94 bb 89 4e 8b 3b 8d 87 5a 3b 54 93 6e bb
       -0.0045427685 0.0042513055 0.0033344955 -0.0036403732
0000b0 e8 78 eb 3c 22 97 92 bb 5a ae 45 3a 18 cf 9c bc
       0.028744176 -0.004473583 0.0007540934 -0.019141719
0000c0 74 18 bd ba a6 a8 17 3c 3d 76 87 3b 21 f5 01 3d
       -0.0014426843 0.0092565175 0.004133968 0.031727914
0000d0 3c 34 b4 3c 07 f9 ac bb 01 9b 86 bb 76 59 89 bc
       0.021997564 -0.00527871 -0.0041078334 -0.016766291
0000e0 fe fc 49 3b 00 09 ef bb 45 1f 2b 3c b5 ba 2f 3d
       0.003082096 -0.007294774 0.010444467 0.042902667
0000f0 e4 c3 25 bd 7d d3 8d bb 1c 38 72 bb 2d a4 bd 3c
       -0.04047002 -0.00432819 -0.0036959713 0.023149574
000100 14 83 96 bb 5d 63 1d bd 50 5d 79 3c 1b 1b f1 bc
       -0.0045932624 -0.03842484 0.015220001 -0.02943187
000110 d2 e6 54 3b 72 e7 c5 bc 6f 1e 6e 3b 76 f4 b5 bc
       0.0032486212 -0.024158213 0.0036334058 -0.022211295
000120 b2 0f 8b 3c e4 a1 dc bb aa 6c 81 bb ec 3f 25 3c
       0.016975258 -0.006733166 -0.0039497213 0.010086041
000130 8c dd 18 bb 2c ac 39 3c 5f 6f 2c 3c 73 6c 88 bc
       -0.0023325412 0.011332553 0.0105246 -0.016653275
000140 f4 22 9f 3b f7 c6 f0 bc c1 e8 eb bc b3 9a be 3a
       0.0048564617 -0.029391749 -0.02879751 0.0014541954
000150 ac 9b be bc 85 50 f4 3b 5d b5 ae 3c 9e 93 b5 bb
       -0.02326759 0.0074558877 0.021326715 -0.005541279
000160 aa 66 ff bc e8 84 3d b9 30 0e 2c bb b4 38 91 bc
       -0.031176884 -0.00018073956 -0.0026253574 -0.017727233
000170 63 75 d4 3b b0 14 88 b8 97 22 34 3c 28 6e ac 3c
       0.00648372 -6.488839e-05 0.010994575 0.02104862
000180 2e d6 05 bd 3e fc 28 3b 7e fc c7 b9 28 fd 22 b9
       -0.03267496 0.0025785114 -0.0003814436 -0.00015543832
000190 8a 2d 17 3d 00 b7 d7 3b 8e 4a 5e 3c be 5e 14 bb
       0.036908664 0.0065830946 0.01356758 -0.0022639479
0001a0 94 db 18 bc 6e 4b a6 ba 99 55 5b 3c d5 84 54 3c
       -0.009329695 -0.0012687275 0.013387107 0.012971123
0001b0 d4 d3 01 3d a8 ac 9d bc e5 cb 92 bb a0 b0 89 bc
       0.031696156 -0.019247368 -0.0044798725 -0.016807854
0001c0 2a 20 16 bd 0a 9c af bb 11 67 5b bc de 76 d4 3c
       -0.036651768 -0.0053591775 -0.013391272 0.025935587
0001d0 05 9a a4 bc e0 96 15 3d 40 a9 76 bc 77 b6 ea bc
       -0.020092973 0.03652084 -0.015055001 -0.02865146
0001e0 9f f2 20 3d 2b b4 cd 3c f4 10 ba 3c 9f bd 22 bc
       0.03929388 0.025110325 0.022713162 -0.0099329045
0001f0 a1 ed f3 bc 9a 4c 51 bc 96 c6 9c 3c 54 e6 70 bc
       -0.029776396 -0.012774611 0.019137662 -0.014703352
000200 8b 78 3d bd e3 ab 8f 3c 4e 73 2b 3d 5f 98 31 3c
       -0.046257537 0.017538017 0.04185801 0.010839551
000210 d1 d9 ac bc 9f ec ac 3c 11 48 89 3c d3 f8 71 bb
       -0.021099957 0.021108923 0.016757997 -0.0036921992
000220 17 b5 fc bb 33 27 85 bb 2a bf a9 3c 88 e9 12 3c
       -0.0077120173 -0.004063511 0.020721037 0.008966811
000230 f2 46 06 bb 1c 69 ce 39 02 ee f9 bc 01 14 a5 3b
       -0.0020489064 0.00039369694 -0.030508999 0.005037785
000240 10 91 19 bb 39 b1 d2 ba 65 cc b6 ba ff 97 98 3c
       -0.0023432411 -0.0016074545 -0.0013946412 0.018627165
000250 29 5b 10 3c a6 10 30 3c ef 3c b5 ba 07 90 d4 bc
       0.008810797 0.010746157 -0.0013827364 -0.025947584
000260 d8 c4 a5 3b 0a 18 da 3b 2d 55 c2 3b 40 fc 04 3c
       0.005058866 0.0066556977 0.005930564 0.008116782
000270 3c 05 1b bc ce ea f5 3c 00 c1 81 bb e3 54 e1 3c
       -0.009461697 0.03001919 -0.003959775 0.027506297
000280 23 27 72 3b e7 7e 88 3c 3d fc ac ba d2 f5 96 bc
       0.0036949597 0.016662074 -0.0013197731 -0.018427763
000290 5a c6 12 3c ff 80 06 3c 6c 47 cd bb 4b 9f 28 3b
       0.0089584235 0.008209466 -0.0062646177 0.0025729712
0002a0 88 64 86 3c 22 0d f3 3c 68 88 5a bc 93 00 b9 3c
       0.016405359 0.029669348 -0.013338186 0.022583282
0002b0 e5 72 5b 3b 80 92 84 bc 7e 2e e1 3b a2 6f 1c bc
       0.003348523 -0.016183138 0.0068719974 -0.0095481
0002c0 33 90 fd 3a ac ff ed bc 59 b4 86 3c 7c 50 a1 bb
       0.0019345343 -0.029052578 0.016443418 -0.0049229246
0002d0 7d e5 33 bc 04 ee 42 39 af 94 5e 3c b5 67 b0 3b
       -0.010980007 0.0001858995 0.013585254 0.0053834566
0002e0 ed c2 05 bd 6f 68 cb 3c f3 50 0a bd b9 f5 d3 38
       -0.0326566 0.024830071 -0.033768605 0.000101070334
0002f0 5b 8a 44 bc 22 da b5 3c 05 da eb 3c 11 22 ea 3c
       -0.011995877 0.02219874 0.028790483 0.028580697
000300 93 06 66 bc 91 f7 50 bb ab cf 17 bb b3 74 bd 3c
       -0.014039653 -0.0031885842 -0.0023164551 0.023126936
000310 25 94 f3 3b d0 03 b6 bb e3 d4 75 bc 04 80 f2 bc
       0.0074334317 -0.0055546537 -0.015004369 -0.029602058
000320 5f 9a 76 b9 5d 6a bb 3b d2 85 f5 3b 2f 85 0b bd
       -0.00023517896 0.0057194666 0.0074927593 -0.03406256
000330 5d 47 05 3c 1f b5 91 bc c8 b5 d9 3b b9 df 7c bb
       0.00813469 -0.01778656 0.0066439845 -0.0038585498
000340 c0 15 66 bb 41 7f c4 3c c2 2f b0 3c fb e6 09 3c
       -0.003510818 0.02398646 0.021507148 0.008416886
000350 3d 17 0d bd a2 d3 20 bc c6 8b df bc 8f b7 59 bc
       -0.03444599 -0.009816082 -0.027288329 -0.013288393
000360 8f ff e0 3b 8a 8c 7d 3c a4 4b dc bb aa b1 41 3c
       0.0068664025 0.015475402 -0.0067228843 0.011822144
000370 bc d0 0b bd 88 e6 20 bc 6e ea 3a 3b 51 53 ed bc
       -0.03413461 -0.009820588 0.0028521079 -0.028970392
000380 b8 8b 30 3c 1c 32 6a 3c 4e fc 8a bc 43 84 85 3b
       0.010775499 0.014294174 -0.016966011 0.0040746047
000390 ff 86 27 bd 80 79 cd bb 00 2e a3 3c 66 86 46 3b
       -0.040900227 -0.0062705874 0.019919395 0.003029251
0003a0 96 73 e4 b8 30 39 b6 3c 59 3e 11 3d 12 57 83 bc
       -0.00010893417 0.022244066 0.03545985 -0.01603273
0003b0 a0 be 18 3d 4b ec 2c 3b 7c b7 1d bb bd ee c2 3b
       0.03729117 0.0026385959 -0.0024065664 0.00594887
0003c0 6a 1a 2c 3d 3f c7 96 bc c1 62 ca b9 53 8b 88 3c
       0.042017378 -0.018405555 -0.0003860202 0.016667997
0003d0 a8 b6 f9 bc 51 4a d6 bb 67 07 12 bd 3e ff 02 3d
       -0.030482605 -0.006539621 -0.03565159 0.0319817
0003e0 cf 40 5a bb 48 01 4b 3c f1 dd 15 3d 98 a6 cc 3c
       -0.003330279 0.012390442 0.036588613 0.024981782
0003f0 75 39 67 3c 2e 61 07 3c 1c 94 55 bc e8 4c 33 bc
       0.01411282 0.008262916 -0.0130358 -0.010943629

action_model._continuous_distribution.mu.bias f4 [2]
000000 e7 9a c6 ba 31 40 ae ba
       -0.0015152366 -0.0013294277

exp_avg f4 [128, 6]
000000 bb 04 07 38 39 78 41 b8 45 47 f6 38 74 1f 69 37
       3.2190914e-05 -4.6126752e-05 0.00011743469 1.38952055e-05
000010 fb bf 45 b8 12 19 47 38 31 81 89 38 84 04 9e 39
       -4.7147256e-05 4.7468646e-05 6.556733e-05 0.00030139473
000020 aa 3b 97 b9 a2 67 be b8 8e 83 a1 39 5a 9d a2 b9
       -0.00028845418 -9.079209e-05 0.0003080633 -0.00031016284
000030 ed 70 ce 38 ec bd b4 38 82 3e 21 38 71 c9 d9 b7
       9.8438795e-05 8.6184446e-05 3.8443606e-05 -2.596222e-05
000040 c9 bd b8 38 0a 00 ba b8 97 67 17 b8 8a 65 52 b8
       8.809154e-05 -8.8691784e-05 -3.609768e-05 -5.0162467e-05
000050 a3 b7 88 38 f9 84 7d 37 63 0d 57 b8 82 84 58 38
       6.51919e-05 1.5110935e-05 -5.1272462e-05 5.162182e-05
000060 24 47 e1 b7 99 a9 10 3a 66 eb 56 ba fd 4f 2e b9
       -2.6855218e-05 0.0005518436 -0.0008198529 -0.00016623731
000070 fc dc 13 3a e5 de 14 ba 3d e1 6d b8 4e af 11 39
       0.0005640534 -0.0005678966 -5.6714973e-05 0.00013893584
000080 0c 44 b5 37 4e 8b 2f b8 75 e8 14 39 2f ec 15 b9
       2.1608568e-05 -4.185299e-05 0.00014200977 -0.00014297733
000090 d3 22 d9 b3 44 02 9b 35 df 75 0d b6 83 c7 ba b4
       -1.01111844e-07 1.1549059e-06 -2.1079247e-06 -3.4790364e-07
0000a0 47 70 9e 35 98 84 9f b5 27 f9 9a b6 4f 95 bc b5
       1.1804594e-06 -1.1885013e-06 -4.618563e-06 -1.4050546e-06
0000b0 f5 0d 04 37 60 3c e3 34 a3 c1 c0 b5 9e 11 c2 35
       7.871063e-06 4.2325973e-07 -1.436147e-06 1.4459254e-06
0000c0 79 57 a1 36 6c e2 43 b8 e0 6f 22 38 54 08 6c 37
       4.808357e-06 -4.6702495e-05 3.8728e-05 1.4068635e-05
0000d0 e4 37 48 b8 25 95 49 38 1f 38 c5 b9 23 0f ff ba
       -4.7735768e-05 4.8061036e-05 -0.00037616582 -0.0019459467
0000e0 d1 40 0f 3b f2 aa 19 3a ed 59 02 bb 52 3d 03 3b
       0.0021858702 0.00058619597 -0.0019890026 0.0020025563
0000f0 d9 89 c8 b8 2f 02 b4 b9 cc 8f e3 39 0f e7 d8 38
       -9.562419e-05 -0.00034333902 0.0004340395 0.000103427206
000100 c1 fd b7 b9 a5 3e b9 39 73 8b b0 b7 07 25 d5 b9
       -0.0003509354 0.00035332624 -2.1045771e-05 -0.00040654113
000110 c0 2c d9 39 4d 6a 00 39 53 dc d9 b9 47 58 db 39
       0.00041422807 0.00012246631 -0.0004155362 0.00041836707
000120 9f d2 ba b7 8b d9 f4 38 0b 88 52 b9 5a 84 13 b8
       -2.2271006e-05 0.00011675347 -0.0002007784 -3.5170793e-05
000130 66 44 fa 38 06 f9 fb b8 bf 34 01 b9 0a 43 58 ba
       0.00011933669 -0.00012014997 -0.00012322048 -0.00082497357
000140 53 f1 84 3a 19 4b 82 39 fb 0b 5d ba 8d 8d 5e 3a
       0.0010142721 0.00024851484 -0.0008432266 0.00084897206
000150 b5 3c e2 32 ea db a2 b1 18 e5 d3 b1 a7 3c c4 30
       2.6337469e-08 -4.739822e-09 -6.166953e-09 1.4278115e-09
000160 58 76 a6 b1 df 98 a7 31 ad 54 a8 38 81 41 31 3a
       -4.84469e-09 4.877719e-09 8.026636e-05 0.0006761775
000170 d1 79 60 ba d5 95 55 b9 66 2d 35 3a 77 69 36 ba
       -0.0008563074 -0.0002036908 0.0006911367 -0.00069584645
000180 c0 66 27 38 ef 9c 63 b9 a3 45 f7 39 b2 21 89 38
       3.9911596e-05 -0.0002170687 0.00047163395 6.538945e-05
000190 fc a5 68 b9 cc 3b 6a 39 cc 65 33 37 52 de 0c 39
       -0.00022187078 0.00022338255 1.0692933e-05 0.00013434261
0001a0 ce 5c 05 b9 9c bd 29 b8 2f fc 0f 39 60 f7 10 b9
       -0.00012718441 -4.0469327e-05 0.00013731488 -0.00013825065
0001b0 67 d4 c4 b5 ea 1d 88 b5 0a 0f 03 36 c7 03 a4 34
       -1.4664955e-06 -1.0141496e-06 1.9529275e-06 3.055013e-07
0001c0 72 20 8b b5 5d 13 8c 35 cb 09 08 b5 23 bb cd 38
       -1.036575e-06 1.0436448e-06 -5.06782e-07 9.810019e-05
0001d0 e9 fa cd b8 b1 e5 f7 b7 63 48 d2 38 38 b7 d3 b8
       -9.8218974e-05 -2.9551653e-05 0.000100270634 -0.00010095391
0001e0 a2 75 42 38 c4 ab 92 3a 05 9a 9a ba 72 bb b0 b9
       4.636276e-05 0.0011190106 -0.0011795169 -0.00033708994
0001f0 7c ea 95 3a 01 f0 96 ba c0 26 4f b8 87 99 9a b8
       0.001143768 -0.0011515619 -4.9388735e-05 -7.371889e-05
000200 d6 d9 03 39 39 49 ba 37 2a 05 9e b8 ce 18 9f 38
       0.00012574284 2.2207025e-05 -7.534989e-05 7.586331e-05
000210 dc 42 b0 38 30 58 6a 39 67 c3 37 b9 05 30 8d b8
       8.4047875e-05 0.00022348831 -0.00017525033 -6.732348e-05
000220 8d 87 6f 39 59 29 71 b9 2b 0c 4e 35 93 45 c4 35
       0.00022843313 -0.00022998954 7.6758687e-07 1.4623387e-06
000230 68 0c 6c b5 f6 7f ec b4 3e 9d c8 35 23 fb c9 b5
       -8.7934905e-07 -4.405153e-07 1.4946925e-06 -1.5048757e-06
000240 da e7 05 37 d5 4d 40 3a f1 99 3a ba e5 b7 67 b9
       7.9814e-06 0.00073358166 -0.0007118276 -0.00022098383
000250 0c 8f 44 3a f1 e5 45 ba e1 4e 78 37 85 31 d8 36
       0.0007498122 -0.00075492176 1.4800317e-05 6.4430665e-06
000260 b2 21 31 37 70 40 02 b6 f1 f9 dc 36 4c 7b de b6
       1.0557867e-05 -1.9409017e-06 6.585608e-06 -6.630469e-06
000270 a2 22 c0 b6 dd c3 11 b6 db 80 69 b6 8b a5 2f 35
       -5.7260777e-06 -2.1720691e-06 -3.479471e-06 6.5433477e-07
000280 2c ff 14 b6 31 03 16 36 52 3d 2e b9 ab e6 e5 b9
       -2.2202248e-06 2.23536e-06 -0.00016616777 -0.00043850145
000290 53 d4 c9 39 b5 82 0a 39 cb fc ea b9 bd 96 ec 39
       0.000384959 0.00013209398 -0.00044820303 0.00045125737
0002a0 4d ed 92 b7 d9 1b 10 b7 a8 9c 99 b8 cd a3 2d 36
       -1.7515058e-05 -8.589553e-06 -7.324788e-05 2.5874353e-06
0002b0 4c 4b 13 b7 43 4b 14 37 cd 5d 01 b5 30 5d 26 b9
       -8.779414e-06 8.839011e-06 -4.8192743e-07 -0.00015865709
0002c0 25 a4 17 39 27 76 48 38 78 0b 2a b9 1e 34 2b 39
       0.00014461631 4.7793754e-05 -0.00016216736 0.00016327246
0002d0 e0 d0 83 39 44 c8 65 3a 45 63 64 ba 5d 70 8a b9
       0.0002514189 0.00087654986 -0.0008712302 -0.00026405128
0002e0 b9 dd 6a 3a 65 77 6c ba 7d 90 00 39 e8 76 26 3a
       0.0008959431 -0.0009020477 0.00012260857 0.0006350116
0002f0 8e b8 2b ba 2d 95 48 b9 c3 25 2a 3a 95 4e 2b ba
       -0.0006550633 -0.00019129059 0.0006490612 -0.0006534842
000300 48 aa a0 37 57 cc db 38 d7 2f 83 b9 59 6c 04 b8
       1.915278e-05 0.00010480795 -0.0002502191 -3.157216e-05
000310 42 a9 e0 38 f1 30 e2 b8 01 a0 1b b8 0a cc 03 ba
       0.00010712679 -0.00010785636 -3.7103895e-05 -0.00050276576
000320 07 c3 20 3a 5f cf 1e 39 7e b6 06 ba 86 a1 07 3a
       0.0006132577 0.00015145306 -0.0005138888 0.000517391
000330 e1 b4 78 37 63 7b 2f 38 c8 7b 4a b8 d3 72 53 b7
       1.4824066e-05 4.1838164e-05 -4.8275833e-05 -1.2603315e-05
000340 41 5d 33 38 2f 96 34 b8 72 67 61 b8 65 a2 c6 38
       4.2763775e-05 -4.3055214e-05 -5.374052e-05 9.471624e-05
000350 c0 4a a3 b8 aa 58 ef b7 93 07 cb 38 af 69 cc b8
       -7.786369e-05 -2.8532308e-05 9.681205e-05 -9.747163e-05
000360 8a c5 1e 39 9c 86 84 3a f5 33 97 ba 2a b0 9f b9
       0.00015141643 0.0010110918 -0.001153587 -0.00030458096
000370 3e 75 87 3a 91 61 88 ba 35 a0 d0 38 53 64 88 3a
       0.0010334624 -0.0010405054 9.948054e-05 0.0010405876
000380 a5 8f a7 ba b4 58 a4 b9 e2 68 8b 3a 0d 5c 8c ba
       -0.0012783898 -0.00031346607 0.0010636116 -0.0010708586
000390 59 da 38 35 d4 e2 25 35 b9 ed 6a b4 ee e2 47 b4
       6.886308e-07 6.179737e-07 -2.1879431e-07 -1.8615876e-07
0003a0 85 8e 29 35 3d b6 2a b5 c7 8a 30 38 25 aa db 38
       6.31648e-07 -6.3595127e-07 4.2090916e-05 0.00010474426
0003b0 b6 8e f0 b8 f9 57 04 b8 51 86 e0 38 0b 0e e2 b8
       -0.00011470674 -3.1553183e-05 0.00010706171 -0.000107791355
0003c0 80 b6 2d 37 c0 39 e4 37 c5 ce e6 b7 47 80 09 b7
       1.0354095e-05 2.720661e-05 -2.7514421e-05 -8.195703e-06
0003d0 8f 46 e9 37 6d dd ea b7 fa 71 72 b5 21 02 f4 b6
       2.780862e-05 -2.7998083e-05 -9.0317883e-07 -7.2720145e-06
0003e0 be f5 18 37 8b 02 13 36 2d 68 f9 b6 3e 1b fb 36
       9.117122e-06 2.1906187e-06 -7.432906e-06 7.4835543e-06
0003f0 5f 61 bb b6 f9 6f 0d b6 84 2a ca b5 10 6d 2a 35
       -5.58437e-06 -2.1075814e-06 -1.5062546e-06 6.348864e-07

exp_avg_sq f4 [128, 6]
000000 74 55 00 34 a1 69 9d 34 a5 22 02 34 2c 8d e4 32
       1.1952017e-07 2.9320384e-07 1.2119797e-07 2.6606891e-08
000010 89 74 a4 34 3f b4 a6 34 6c c7 ae 34 55 d6 3d 35
       3.063217e-07 3.1051056e-07 3.2555124e-07 7.071988e-07
000020 c8 f1 c4 34 90 d0 89 33 97 54 46 35 e2 0a 49 35
       3.6683764e-07 6.417497e-08 7.388384e-07 7.489417e-07
000030 9b ec 0f 35 da 15 34 36 af 12 cf 35 34 bc 82 34
       5.361596e-07 2.683481e-06 1.542814e-06 2.4351323e-07
000040 71 24 3c 36 14 b7 3e 36 e2 ec 22 33 71 2d 50 34
       2.8035395e-06 2.8418772e-06 3.7934008e-08 1.9388041e-07
000050 30 c6 3a 34 fe 20 97 32 b3 7d 59 34 29 77 5c 34
       1.73947e-07 1.7593717e-08 2.0255429e-07 2.0532447e-07
000060 95 4e 88 35 34 11 e2 36 de e6 73 36 cc 1d 24 35
       1.015566e-06 6.7373276e-06 3.6344204e-06 6.113812e-07
000070 6d 2e ec 36 3d 69 ef 36 99 89 92 32 4e 96 9f 34
       7.0387528e-06 7.1350064e-06 1.705921e-08 2.972542e-07
000080 64 f4 c0 33 5c b5 e7 32 18 ba a6 34 c4 01 a9 34
       8.985151e-08 2.6974412e-08 3.105531e-07 3.1479988e-07
000090 8f 50 35 2e 21 55 b0 2e d7 e7 22 2e bf 02 00 2d
       4.1226186e-11 8.018675e-11 3.704045e-11 7.276567e-12
0000a0 b5 38 b8 2e a3 bd ba 2e c4 af b3 2e 9b a8 43 30
       8.3774244e-11 8.491987e-11 8.1712e-11 7.118019e-10
0000b0 ab 9e fb 2f 71 0a 8e 2e 91 69 4c 30 37 35 4f 30
       4.5769374e-10 6.459267e-11 7.4364787e-10 7.5381784e-10
0000c0 3d 7d f2 30 d9 ba 0d 32 5a a4 2a 31 f3 c7 4d 30
       1.7643412e-09 8.249764e-09 2.483168e-09 7.486271e-10
0000d0 26 12 14 32 77 18 16 32 43 80 b9 35 ef 2f 44 37
       8.61886e-09 8.736712e-09 1.3820903e-06 1.1693671e-05
0000e0 da 72 21 37 a9 6c 8e 35 e9 f6 4c 37 6e c4 4f 37
       9.623089e-06 1.0611449e-06 1.2216836e-05 1.2383896e-05
0000f0 86 1e 2b 34 5c 3e b4 35 57 6b 31 35 98 d9 02 34
       1.593672e-07 1.3429194e-06 6.609384e-07 1.2186354e-07
000100 b6 4e bc 35 f4 e1 be 35 7e e9 46 35 09 33 d2 35
       1.4029999e-06 1.4221864e-06 7.4100524e-07 1.5661072e-06
000110 d9 05 76 35 c9 98 18 34 84 9a db 35 4d 9b de 35
       9.165065e-07 1.4211686e-07 1.6361741e-06 1.6585487e-06
000120 ab 5a 6a 34 f9 74 8c 35 0d d6 0c 35 ce ee cb 33
       2.1825933e-07 1.0464856e-06 5.246555e-07 9.4963625e-08
000130 a3 bd 92 35 61 bf 94 35 35 f3 01 33 98 0f 6e 35
       1.0933039e-06 1.1082558e-06 3.025635e-08 8.86846e-07
000140 c4 2a 54 35 c1 d2 ac 33 34 b6 78 35 df 1c 7c 35
       7.9038387e-07 8.04771e-08 9.265234e-07 9.391933e-07
000150 e7 5d 35 27 b7 e0 a4 28 f7 79 99 27 d2 63 ef 26
       2.51697e-15 1.8305112e-14 4.2598265e-15 1.6611013e-15
000160 10 41 ac 28 1e 9c ae 28 9f 2a d2 34 c3 47 0f 36
       1.9124052e-14 1.9385586e-14 3.914656e-07 2.1350431e-06
000170 af c2 cd 35 37 08 50 34 c2 b0 15 36 cf bc 17 36
       1.5330351e-06 1.9374498e-07 2.2305617e-06 2.2610654e-06
000180 b8 60 0a 35 43 9c 9c 36 d3 86 1e 36 f2 62 e3 34
       5.154975e-07 4.6673536e-06 2.3622313e-06 4.2354037e-07
000190 f1 9d a3 36 bd da a5 36 b3 86 ec 33 95 c8 08 34
       4.8761653e-06 4.9428477e-06 1.1014108e-07 1.2738958e-07
0001a0 da e7 bb 33 6c 99 46 32 31 e7 0e 34 75 db 10 34
       8.7500396e-08 1.1560001e-08 1.3308888e-07 1.3490883e-07
0001b0 28 d4 b5 2e d7 24 4a 30 4c 18 f2 2f b5 bf 92 2e
       8.2686136e-11 7.3539524e-10 4.4036808e-10 6.673365e-11
0001c0 0a 30 53 30 62 13 56 30 63 b3 b3 2f 9f ed c7 31
       7.682962e-10 7.788029e-10 3.2687372e-10 5.8186767e-09
0001d0 52 7e 85 31 f4 23 11 30 73 df d0 31 a9 ba d3 31
       3.8851704e-09 5.2801785e-10 6.079e-09 6.162129e-09
0001e0 46 aa 6d 34 9e 39 ab 35 c3 11 8e 35 16 9b f8 33
       2.213429e-07 1.2757262e-06 1.0584994e-06 1.157661e-07
0001f0 b2 e2 b2 35 ef 54 b5 35 06 48 bd 31 56 49 81 33
       1.332801e-06 1.351027e-06 5.508812e-09 6.02037e-08
000200 85 7f 0f 33 ce b6 bb 31 19 12 87 33 ee ea 88 33
       3.341076e-08 5.463199e-09 6.289719e-08 6.375727e-08
000210 6c f0 15 35 9f d8 b7 35 81 12 37 35 29 77 05 34
       5.5856685e-07 1.3697608e-06 6.819974e-07 1.242994e-07
000220 49 12 c0 35 aa b2 c2 35 2c a8 c9 2d 46 96 b7 2f
       1.4310436e-06 1.4506124e-06 2.2925738e-11 3.3394282e-10
000230 6a 9c c4 2e f6 46 05 2e f3 cc bf 2f 62 6c c2 2f
       8.940833e-11 3.0303725e-11 3.4888323e-10 3.5365405e-10
000240 f5 67 91 33 c9 6d cc 34 5e c9 b6 34 56 68 14 33
       6.770998e-08 3.807784e-07 3.4046656e-07 3.455383e-08
000250 2c 93 d5 34 d4 7e d8 34 54 31 8c 30 7b 1d 82 31
       3.9781423e-07 4.0325415e-07 1.0200361e-09 3.7868495e-09
000260 5a 47 de 30 d1 ea bc 2f b9 ef 87 31 9c cb 89 31
       1.6172905e-09 3.4363848e-10 3.9562704e-09 4.0103725e-09
000270 c5 46 fb 33 3a bc a0 33 25 63 2a 33 34 60 e9 31
       1.1700971e-07 7.484819e-08 3.967138e-08 6.7921295e-09
000280 38 ed a7 33 14 39 aa 33 8c 15 94 35 78 01 a2 36
       7.819693e-08 7.926624e-08 1.103313e-06 4.828147e-06
000290 ef c0 23 36 6e 38 eb 34 03 41 a9 36 87 91 ab 36
       2.4401195e-06 4.381322e-07 5.044161e-06 5.1131387e-06
0002a0 58 9f 16 35 6d 1b 29 36 88 ef aa 35 e2 87 75 34
       5.611123e-07 2.5198926e-06 1.27357e-06 2.2866837e-07
0002b0 42 ac 30 36 c3 16 33 36 4e 88 87 31 60 dc 4a 33
       2.632631e-06 2.6686328e-06 3.944513e-09 4.723222e-08
0002c0 bc 36 2a 33 f1 44 93 31 cf ef 53 33 c1 d5 56 33
       3.963099e-08 4.286101e-09 4.934537e-08 5.0020166e-08
0002d0 40 4b 0c 35 8a bc d6 36 96 f2 97 36 fb e3 1b 35
       5.226357e-07 6.399646e-06 4.5283914e-06 5.8073755e-07
0002e0 f0 57 e0 36 5d 69 e3 36 38 45 50 32 22 87 27 35
       6.6859575e-06 6.777393e-06 1.2122932e-08 6.240899e-07
0002f0 2c 41 22 35 db 3c 73 33 de 05 2f 35 9c 6a 31 35
       6.044454e-07 5.6633194e-08 6.520112e-07 6.6092775e-07
000300 a8 0c 3f 34 7d 01 2c 35 c8 1c b1 34 45 bd 79 33
       1.7792865e-07 6.407716e-07 3.298976e-07 5.814697e-08
000310 83 b3 33 35 a2 28 36 35 86 7b 63 33 fe bd 15 35
       6.694392e-07 6.785941e-07 5.29649e-08 5.57833e-07
000320 86 2e 03 35 09 6a 59 33 09 71 1c 35 b6 94 1e 35
       4.8869003e-07 5.0620688e-08 5.8279016e-07 5.907599e-07
000330 1f 93 08 34 50 8c 0b 34 f7 a5 bf 33 f0 9c 4a 32
       1.271951e-07 1.2996429e-07 8.9243194e-08 1.1793631e-08
000340 92 ca 11 34 ec c8 13 34 64 2a 03 31 99 57 37 33
       1.3577872e-07 1.3763537e-07 1.9087105e-09 4.2687677e-08
000350 27 8b f7 32 79 19 85 31 79 8b 3f 33 09 2a 42 33
       2.8817864e-08 3.8737054e-09 4.4597503e-08 4.5207376e-08
000360 43 01 6c 33 2a d0 ec 35 78 12 db 35 d9 ea 2b 34
       5.494918e-08 1.7643954e-06 1.6322147e-06 1.6011053e-07
000370 6f 68 f7 35 94 ca fa 35 03 ee 0c 36 8c 6a 0d 37
       1.8433328e-06 1.868541e-06 2.1000167e-06 8.429062e-06
000380 e7 cb bd 36 64 53 4d 35 42 be 13 37 77 c3 15 37
       5.6563763e-06 7.64898e-07 8.806181e-06 8.926602e-06
000390 03 ca 48 2e 72 7e 56 2e 3f 49 f4 2c d6 b6 9b 2c
       4.5654158e-11 4.8770273e-11 6.943029e-12 4.425664e-12
0003a0 1b 17 60 2e 91 27 63 2e e3 0b 62 34 c0 da 50 35
       5.0952225e-11 5.1648966e-11 2.1052215e-07 7.780436e-07
0003b0 b3 b6 e8 34 df 9e 97 33 d5 32 5a 35 bb 2e 5d 35
       4.33463e-07 7.060384e-08 8.12853e-07 8.239692e-07
0003c0 a4 ea 98 2f d2 4d e7 31 43 32 a3 31 05 eb 27 30
       2.781536e-10 6.731832e-09 4.7496385e-09 6.108823e-10
0003d0 0c a7 f1 31 05 f5 f4 31 6c 06 cf 2f 5a 22 46 30
       7.033014e-09 7.12919e-09 3.7657644e-10 7.2080797e-10
0003e0 0c b9 c2 2f 84 d6 8f 2e 90 ff 4e 30 50 d4 51 30
       3.5419878e-10 6.540993e-11 7.530554e-10 7.633547e-10
0003f0 ea 00 17 32 fa 65 ff 31 4f cd c6 30 d4 68 39 30
       8.789565e-09 7.43307e-09 1.4464748e-09 6.745158e-10

exp_avg f4 [128]
000000 cd c0 06 37 0f 1f 5c b8 ed c6 7b b7 09 8b 12 37
       8.031912e-06 -5.2481013e-05 -1.5007082e-05 8.73465e-06
000010 66 84 c9 b8 e5 f0 ca b7 04 ee 57 b4 80 59 83 34
       -9.609088e-05 -2.4192452e-05 -2.0110025e-07 2.446577e-07
000020 5a 6f 08 37 99 a6 b1 39 1a c1 7a 38 f3 74 94 38
       8.132158e-06 0.00033884196 5.9784485e-05 7.0789734e-05
000030 3b 8a aa b7 c7 a0 16 39 77 dd 62 30 78 eb f6 b8
       -2.0329948e-05 0.00014365009 8.253304e-10 -0.000117740536
000040 a9 88 1e 38 5a 3b c4 b7 9d 9c 3d 34 10 4b 8f b7
       3.779741e-05 -2.3392658e-05 1.7658972e-07 -1.7081882e-05
000050 93 50 4c b9 04 5c 57 37 03 39 23 b8 75 b4 88 b4
       -0.00019484972 1.2836423e-05 -3.8915325e-05 -2.5463274e-07
000060 f1 f0 05 b9 86 94 96 b5 f1 0e cb 34 b9 20 a0 38
       -0.00012773626 -1.1219097e-06 3.7822568e-07 7.6354896e-05
000070 60 bd c8 35 61 bf e7 37 89 0b 20 b9 32 e3 e7 b8
       1.4956277e-06 2.7626464e-05 -0.00015263086 -0.00011057257
000080 43 17 99 b7 68 98 b7 38 f1 72 f4 b6 ad 59 8a b7
       -1.8249853e-05 8.754508e-05 -7.2851476e-06 -1.649264e-05
000090 51 9c 38 b9 02 ff 3d b9 03 15 e7 b3 92 ff 98 b7
       -0.0001760584 -0.00018119442 -1.0760598e-07 -1.8238821e-05
0000a0 07 f6 9e b6 1e f4 a9 35 38 06 c5 34 9e cd dd b2
       -4.7374083e-06 1.2662529e-06 3.6698634e-07 -2.582129e-08
0000b0 d7 d3 33 b9 39 ed 0f b4 ee 46 e0 37 2a f9 82 b5
       -0.00017149687 -1.3404214e-07 2.673591e-05 -9.758271e-07
0000c0 65 6a 1b b6 b3 73 3e b7 fe 95 54 b9 c5 fb 6a b6
       -2.315873e-06 -1.1351821e-05 -0.00020273772 -3.5015266e-06
0000d0 06 5a 5a 38 34 fc 57 38 1a e2 84 38 82 91 02 34
       5.205909e-05 5.1494877e-05 6.336365e-05 1.2160129e-07
0000e0 3b e8 f0 38 0c 36 06 37 e5 bd 82 37 1a 1e 2f b9
       0.00011487348 7.999606e-06 1.5585634e-05 -0.00016700514
0000f0 17 b9 b5 b7 0b 85 2d 36 35 4a 04 b7 d7 78 6f 37
       -2.166307e-05 2.585645e-06 -7.885091e-06 1.4273645e-05
000100 57 d5 2b b9 e6 77 36 b6 ab 7b 2a 38 2d a4 e5 b7
       -0.00016387306 -2.7189903e-06 4.0646333e-05 -2.7375378e-05
000110 7e fd 76 34 b2 f6 99 38 d1 55 00 b6 b1 18 d9 38
       2.3002755e-07 7.341559e-05 -1.9123438e-06 0.000103519655
000120 bf fa b8 b8 04 59 27 39 e3 96 c8 b6 6a d8 72 b8
       -8.820509e-05 0.00015959522 -5.97803e-06 -5.7898847e-05
000130 e1 f1 69 b5 63 83 5e b7 a6 44 b3 36 d1 86 38 37
       -8.7151244e-07 -1.3262822e-05 5.3426074e-06 1.0998644e-05
000140 cc d9 d4 38 f4 f7 27 38 56 34 93 37 00 ae c8 b6
       0.000101495156 4.0046827e-05 1.7548136e-05 -5.9807207e-06
000150 0b d1 fc b5 34 2d 2f 39 f4 22 63 36 6d 0a 3d b7
       -1.8836303e-06 0.0001670614 3.3845981e-06 -1.1267705e-05
000160 5c f8 a1 b9 91 ba 2d 36 34 48 2a 36 1d 01 23 b9
       -0.00030893355 2.5887605e-06 2.5374002e-06 -0.00015545306
000170 52 ff 02 b7 75 6f 4a b7 df 04 3e 33 1a bc 18 b5
       -7.80805e-06 -1.2066089e-05 4.4242253e-08 -5.6898136e-07
000180 dc dd 48 b6 fb 48 1f 39 5b 82 a2 b4 0a 69 da b6
       -2.9931462e-06 0.00015190609 -3.0269698e-07 -6.5091344e-06
000190 11 f8 e3 b6 ed 6a e2 33 f6 f9 0c 37 97 44 b1 b7
       -6.794006e-06 1.0543395e-07 8.402849e-06 -2.1131984e-05
0001a0 82 17 80 b6 af 7e dd 31 5c 95 78 34 36 86 f2 b8
       -3.817434e-06 6.446349e-09 2.3151136e-07 -0.00011564458
0001b0 5b cc a0 34 2b 22 50 38 5f fc fa 36 4c 3d 6a b4
       2.995101e-07 4.9622886e-05 7.4799605e-06 -2.1815248e-07
0001c0 18 97 2a b7 12 63 dc 35 29 ad 18 b6 31 77 2d b8
       -1.0167969e-05 1.6420111e-06 -2.2750557e-06 -4.135742e-05
0001d0 44 2f 97 37 dd 33 7c 37 f7 91 b3 38 3a ee c6 38
       1.8022612e-05 1.5032446e-05 8.562573e-05 9.485749e-05
0001e0 88 af b3 b8 22 04 e9 b8 03 e2 34 35 2e c1 85 b8
       -8.5680804e-05 -0.000111110756 6.7384116e-07 -6.377917e-05
0001f0 71 8d 66 b2 bb 55 4c 37 0b 6e b0 38 78 b4 4f 38
       -1.3419922e-08 1.2179308e-05 8.412831e-05 4.952072e-05
