ML Agent Practice/results/ppo/MoveToGoal/MoveToGoal-26837.pt (torch, 441756 bytes, 36 tensors)

network_body._body_endoder.seq_layers.0.weight f4 [128, 6]
000000 a3 94 ea 3d a4 f0 a1 bd 1f cb f7 3d 02 32 d7 be
       0.114541315 -0.07907227 0.12099289 -0.4203034
000010 f6 3e 49 be f2 a2 82 bd 4d 86 7e 3e 72 ba f6 3e
       -0.19652924 -0.063787356 0.24855919 0.4818912
000020 09 46 74 3a c9 cb 3f bf 34 03 0d 3f 85 ce e5 be
       0.00093182974 -0.74920326 0.5508301 -0.44884124
000030 04 1d 90 3e d3 c7 f0 be fa 43 88 3e 6b 4b 7f be
       0.28147137 -0.47027454 0.26614362 -0.24931113
000040 9a fb d2 3d 9b 4a df bd f5 8b fc be 35 9f 13 be
       0.103018954 -0.10902902 -0.4932553 -0.14416201
000050 60 5f 0e bf 93 47 16 3d 86 00 18 3f a0 32 3b be
       -0.5561428 0.036689352 0.593758 -0.1828103
000060 52 8b 96 3e 81 b4 0a be c1 65 ee be 17 01 a2 be
       0.29403168 -0.1354542 -0.46562007 -0.31641456
000070 59 f5 71 3e 96 63 20 bd 37 c1 af bd d7 4b 6a 3f
       0.23628749 -0.039157473 -0.08581775 0.9152197
000080 d4 81 32 3f ba 89 ae 3e fb 36 11 bf 4c 1c 5d 3d
       0.6972935 0.34089452 -0.5672452 0.053982064
000090 23 b2 0a 3e 3e b0 80 3c 58 e5 16 3f 14 c6 7f be
       0.13544516 0.015709039 0.589437 -0.24977905
0000a0 b9 6a 33 be 74 d0 3c 3e 23 d9 79 be 97 a5 8e be
       -0.1752118 0.18438894 -0.24399237 -0.2786071
0000b0 e4 14 25 bb 44 a6 8b 3e 37 19 3e 3e b4 b5 1a 3e
       -0.0025189454 0.27275288 0.18564306 0.15108377
0000c0 be 90 c4 3e bb 34 6e bd dd db 06 3f 2e 5b 98 3e
       0.3839168 -0.058155756 0.52679235 0.29757065
0000d0 77 46 16 bf ed c2 a7 3e 40 f9 ff bd db 80 28 bf
       -0.5870127 0.32765904 -0.124987125 -0.6582162
0000e0 ab 25 83 be cd 0b a2 3e 6f cb c7 3e ca a1 5d 3d
       -0.25614676 0.31649628 0.39022395 0.054109372
0000f0 89 9d c2 bc 8c 23 76 3e 98 51 e2 be eb 90 6f bd
       -0.02375676 0.24036998 -0.44202876 -0.058487814
000100 23 5b c2 3c cf b7 63 3e 32 36 e7 3d 24 f0 bb 3e
       0.023725098 0.22238086 0.11289634 0.3670665
000110 14 1f 7c 3e 10 8e f7 3d 46 b0 ce be 68 4e c9 be
       0.2462123 0.12087643 -0.4036886 -0.39317632
000120 b1 64 08 be 5b b0 3c 3f fc 63 1b 3f 0d 3c a3 be
       -0.1331966 0.737066 0.6069944 -0.31881753
000130 ab a9 08 3e 74 43 a7 3e 3e 4b 6c bd 88 0e 8c bf
       0.13345973 0.3266865 -0.057688944 -1.0941935
000140 e3 62 c9 be b1 06 88 be 6b d0 c6 bf c4 9f ef bc
       -0.39333257 -0.26567605 -1.5532354 -0.029250987
000150 c1 76 98 be 9d 48 43 be cd 16 68 be 8f f5 11 be
       -0.29778102 -0.19070669 -0.22664948 -0.1425383
000160 b1 59 88 3e d8 26 83 3e 1d 71 24 3e 73 74 5e be
       0.2663093 0.25615573 0.16058774 -0.2172411
000170 f8 55 2b bf 69 e5 6d 3f 19 61 9d 3f 00 d3 49 be
       -0.6692805 0.9292818 1.2295257 -0.19709396
000180 42 15 09 bf a8 7d 37 bf e0 52 e1 be f0 09 72 bc
       -0.5354806 -0.7167611 -0.4400854 -0.014772877
000190 56 9e ec be 59 12 94 be 96 cf a6 3e 95 4d b0 3c
       -0.4621455 -0.28920248 0.3258025 0.021521369
0001a0 a3 d7 9d be 01 ce 15 bf 0b a8 24 3f bd 97 92 3e
       -0.3082858 -0.5851746 0.64318913 0.28631392
0001b0 09 17 0c be 2d 04 5f 3e 57 04 be be 4f 4c 1c be
       -0.13680662 0.21778937 -0.37112686 -0.15263484
0001c0 5e 08 e3 bb 4a c5 52 be 92 0e 90 be bf 2f 43 3d
       -0.0069284877 -0.20583072 -0.28136116 0.047652956
0001d0 f0 4a 62 be 63 81 5c bf 1e a6 86 3e e2 eb d8 3d
       -0.22098899 -0.8613493 0.26298612 0.10591866
0001e0 4a 23 b3 be ce a5 04 3e 0a 9b d7 3e ad 2f 4a be
       -0.3498786 0.12953874 0.42110473 -0.1974475
0001f0 f6 b0 f6 bd ba ef 37 bf 67 8d 26 3f 5f cc b5 3d
       -0.12045471 -0.7185017 0.6505951 0.08876871
000200 49 7b a3 be f2 bf c2 bd d7 fa 90 bf c1 52 df 3e
       -0.31929997 -0.09509267 -1.132655 0.43617824
000210 42 24 38 be a5 44 da 3c f3 76 12 bf 17 7e b3 3e
       -0.17982581 0.02664406 -0.5721275 0.35057136
000220 37 39 ed 3e 72 69 16 bf a7 e9 12 bf 1f 06 43 be
       0.46332714 -0.58754647 -0.57387775 -0.19045304
000230 47 6a 8b 3e 83 0f 0e 3e 02 8d a1 3d 50 5b 21 3f
       0.2722952 0.13873105 0.07888223 0.63029957
000240 1e de 3a 3f a8 63 3f 3e 94 15 0a 3f c6 0b 31 bd
       0.72995174 0.1869036 0.53939176 -0.04322412
000250 6f bc 49 3e 34 3c 6f be 51 33 f6 3e 88 77 08 3f
       0.19700788 -0.2336281 0.48086026 0.5330739
000260 02 cf 33 3f 87 13 1f 3e 52 5f 75 3e 47 fe 12 bf
       0.70237744 0.15534793 0.23962143 -0.57419246
000270 cf 92 ed 3e 3f ae 33 3f ee 88 1d 3d 60 6b d6 bd
       0.4640107 0.70187753 0.038460664 -0.10469699
000280 3f 1b 01 bf 0c 68 da 3d ed 05 40 be de 10 40 3e
       -0.504322 0.106643766 -0.1875226 0.18756434
000290 5d 21 ce bd 29 b2 73 be 76 63 06 be 42 f0 76 3f
       -0.10064957 -0.23798431 -0.13123879 0.96460354
0002a0 44 7a 97 bd 0e d7 0c bf 47 7a f2 3b a4 27 40 bd
       -0.07396367 -0.5501565 0.0073998305 -0.046912804
0002b0 90 89 ac 3d 16 0e f5 bc 36 a9 82 3c 0e 2c 3d 3e
       0.084246755 -0.029913943 0.015949827 0.18473837
0002c0 1c 49 a2 be 38 ba cd be 5f 52 0a be 53 31 5b be
       -0.31696403 -0.40181136 -0.13507985 -0.21405534
0002d0 ea 0b a2 be 33 8d 1c 3f 3c a0 86 be 17 dd 1f bf
       -0.31649715 0.6115295 -0.26294124 -0.6244673
0002e0 9d 0d 03 3e bc 45 19 3c 2a fd 21 be 79 aa 1c 3e
       0.12798162 0.009355005 -0.1581923 0.15299405
0002f0 58 a1 5d 3e 34 c4 fa 3e bb 66 2c 3f cb a4 16 be
       0.21643579 0.48977816 0.67344254 -0.14711301
000300 02 da 8e 3e bd 87 a9 3d d8 fc 24 bf b9 7e ea 3e
       0.27900702 0.08277843 -0.6444831 0.45799807
000310 5c aa 87 3e fe 7c 8d 3d 8b 5e fb 3e 16 10 c4 3c
       0.2649716 0.06908606 0.49095568 0.023933452
000320 b5 94 66 bf 6b e0 19 3e 53 9b 41 bd f7 e5 96 be
       -0.9007066 0.15027015 -0.04726727 -0.29472324
000330 31 14 c9 3e eb 4b 22 3f 51 33 37 3e d8 d7 19 bf
       0.39273217 0.6339709 0.1789067 -0.60094976
000340 1f 0a d6 be 0e d3 ef 3e c7 e3 ca be 62 51 1b 3f
       -0.41804597 0.4684071 -0.39626905 0.60671055
000350 66 c9 8d bc 90 b1 e0 3e 55 ca 8a 3c 15 ba 1c bf
       -0.017307948 0.4388547 0.016942183 -0.6122144
000360 c2 91 5b 3e e7 9e 7c 3d e3 69 ab 3e a5 74 9c be
       0.21442321 0.06167498 0.33479223 -0.30557743
000370 3a bc f3 3c 95 6d 42 be d0 ec 07 3e 4e 0b 44 be
       0.02975284 -0.18987115 0.1327393 -0.19144937
000380 ab 6d be 3e 25 5a d5 be 7f 03 6b be 69 ff bc 3e
       0.37193045 -0.41670337 -0.22950552 0.36913612
000390 90 fb a9 3e 1f 30 e5 3e ad 5e 2e bd 9c 68 23 be
       0.3319974 0.44763276 -0.04257076 -0.15957874
0003a0 82 eb 48 bd fe c3 02 bf ab f7 3a bd 63 da e4 3e
       -0.049052723 -0.5108031 -0.04564635 0.44697866
0003b0 dd 55 9e 3e 9b 3e 63 be 10 56 11 3d ef 7c 2c bf
       0.30924883 -0.22191851 0.035482466 -0.67378134
0003c0 d3 64 e4 3e b4 a2 1d 3f bb 56 36 bd d1 35 79 3d
       0.44608173 0.6157639 -0.044516306 0.06084234
0003d0 27 f9 88 bf 12 a8 85 bf 8b a4 03 bf 74 5f 52 be
       -1.0701035 -1.0441916 -0.5142295 -0.20544225
0003e0 db 3a 08 3e c0 60 28 3e 3a 26 b6 bd 44 6b 13 3d
       0.13303702 0.16443157 -0.0889401 0.03599097
0003f0 97 64 ee bd 18 97 fc be 0f f8 d6 3e a9 ab c4 3d
       -0.1164028 -0.49334025 0.4198613 0.09603054

network_body._body_endoder.seq_layers.0.bias f4 [128]
000000 a3 08 66 ba c6 32 0b ba 6a e5 10 ba 21 fa cf bb
       -0.00087750907 -0.0005309995 -0.00055273494 -0.0063469564
000010 6c e7 2e bb 55 65 a3 3a dd 6d ad 3a f6 c7 50 3a
       -0.002668823 0.0012466112 0.0013231594 0.0007964367
000020 e0 21 00 39 66 4a c8 3a 3d 95 de ba 9b 7a 1a 3b
       0.0001221965 0.0015280962 -0.0016981732 0.0023571614
000030 d0 97 6c 38 1f c4 39 3a 83 04 f1 3a 35 de 89 ba
       5.640817e-05 0.0007086414 0.0018388185 -0.0010518493
000040 56 e5 2a ba ea 12 07 bb 2e 2b 0d b9 bf d8 37 bb
       -0.0006519159 -0.002061064 -0.00013462894 -0.0028052775
000050 e1 ed cd 39 cb b6 c4 39 ed ab 83 3b 88 6a 1c ba
       0.0003927788 0.00037520225 0.004018298 -0.0005966802
000060 ff f8 55 3a dc a1 0a 3a 42 e7 60 bb 57 4f 0a 3a
       0.00081624085 0.0005288401 -0.0034317528 0.0005276105
000070 c5 9f 0a ba ea 08 7f ba b6 32 8d 3a aa 7b 33 ba
       -0.000528809 -0.00097288063 0.0010772559 -0.00068467355
000080 25 c9 a2 ba a1 b7 5b bb 4d f4 4c ba 63 0f dc 38
       -0.0012419565 -0.00335262 -0.0007818386 0.000104932835
000090 d3 1c 00 3c 3d 5d cc b7 09 ef 86 3a f6 77 bd b9
       0.007819372 -2.4362113e-05 0.0010294627 -0.00036138267
0000a0 b7 35 f0 b9 e3 dc 8d ba 85 09 14 ba ec 4a 7e ba
       -0.00045816388 -0.0010823276 -0.00056471705 -0.0009700495
0000b0 58 4a 33 b9 08 ff d6 ba 3c 10 36 38 10 f1 04 ba
       -0.00017098465 -0.001640291 4.34073e-05 -0.00050713215
0000c0 8f a3 9f 3a 22 84 f0 b9 4c ad c6 ba 76 9f 46 3a
       0.0012179482 -0.00045874814 -0.0015157848 0.0007576862
0000d0 80 a5 79 ba 03 ed f9 3a 4d c2 f3 b9 c1 35 8b 3a
       -0.00095232576 0.0019067827 -0.00046493337 0.0010620878
0000e0 7e 9f ce b8 15 45 0b 3a aa 99 42 b9 f4 1e dc ba
       -9.852553e-05 0.0005312723 -0.00018558526 -0.0016793893
0000f0 f9 20 45 3a fa 53 b4 ba b9 ae b5 bb 94 9b 25 39
       0.0007519867 -0.0013757937 -0.00554451 0.00015793584
000100 ca 5f a5 ba 95 56 37 39 ba d6 67 3a 6b 35 4e ba
       -0.0012617048 0.00017484494 0.00088439474 -0.0007866236
000110 a4 e5 ba 3a 91 d0 4d 3a 23 9f d3 b7 a9 0b c3 b9
       0.0014259112 0.0007851208 -2.5227264e-05 -0.00037201986
000120 bb 5b 99 3a 2f 89 07 3b 99 ce 86 bb 51 cd a7 ba
       0.0011700311 0.0020681133 -0.004113984 -0.0012802278
000130 8b 7c 3f 3a 84 29 94 3a a3 e1 c4 ba 4b b8 05 b9
       0.000730463 0.0011303877 -0.0015020858 -0.00012752523
000140 62 ff 44 3a a1 dd 48 ba 07 66 a5 b9 00 d8 36 bb
       0.00075148616 -0.000766242 -0.0003154727 -0.0027899742
000150 25 86 3d ba f5 fb dd 3a c1 8d 9e 39 a2 26 47 3a
       -0.0007229767 0.0016936051 0.00030241723 0.00075970043
000160 2c 53 b0 3a dc 51 ee b8 29 cd 8e bb d8 af 2b 3a
       0.0013452522 -0.00011363972 -0.004357953 0.0006549335
000170 e1 c9 82 ba 24 d8 90 bb 3e 2c 57 ba 28 c1 d9 b9
       -0.0009978377 -0.004420297 -0.0008208192 -0.00041533378
000180 bc 62 53 b9 57 1c 3a 3a ea c2 33 ba 4c cb de b8
       -0.0002015931 0.000709956 -0.00068573526 -0.00010623652
000190 8e a8 89 b9 b3 7d fe 39 e4 e3 08 3a 13 e7 0d 3c
       -0.0002625626 0.00048540308 0.00052219466 0.008661049
0001a0 31 87 ce b9 3b 62 6d ba a5 9f 02 bb b3 90 e3 b9
       -0.00039392107 -0.000905547 -0.0019931581 -0.00043404623
0001b0 ee 99 ac 3b 0a 01 1d bb ee 48 ed ba 17 75 17 3a
       0.0052673733 -0.0023956918 -0.00181034 0.00057776406
0001c0 94 97 81 b9 48 44 7f bb 4f d9 a1 3a a2 50 8d 39
       -0.00024717732 -0.003895061 0.0012348088 0.00026953692
0001d0 e5 f3 c9 3a 8b 17 27 3b fb a9 93 ba 36 01 bb ba
       0.0015407769 0.002549621 -0.0011265868 -0.0014267329
0001e0 00 df 28 ba 17 b4 10 3c b8 ea a7 ba 98 87 fa 3a
       -0.0006441921 0.008831999 -0.001281104 0.0019113896
0001f0 38 9e 4a 39 4c 03 c8 38 c0 91 d0 ba ce 74 6d ba
       0.00019323162 9.537357e-05 -0.0015912578 -0.0009058238

network_body._body_endoder.seq_layers.2.weight f4 [128, 128]
000000 98 8b b4 bd cf 26 db bd 42 a2 fc bb 62 55 c2 bc
       -0.08815688 -0.107007615 -0.0077097723 -0.023722354
000010 cf ac f5 3d 9d fc 20 3e 2d dc 82 bd b7 90 54 bd
       0.11995851 0.15721364 -0.063896514 -0.051895823
000020 54 e9 89 bd fe 04 b3 3c a0 49 d1 bc fa ab bd 3c
       -0.06733957 0.021852966 -0.025547802 0.023153294
000030 89 f3 b0 bd 4d 56 88 3b ec c8 a7 bd 6e a3 ae bc
       -0.08640201 0.0041606785 -0.0819262 -0.021318164
000040 cd 3f 25 3b 11 a2 6a bd 34 ee 51 bd 92 d3 e3 3c
       0.002521503 -0.057283465 -0.05125256 0.027810846
000050 17 18 35 be 85 b7 9a bd 9d 07 b4 bd a2 d0 83 3d
       -0.17684971 -0.07554535 -0.087905146 0.06436278
000060 6d c3 bd bd 61 f4 9e bd d0 00 a4 3d f8 55 ac bd
       -0.0926579 -0.07761455 0.080079675 -0.08414835
000070 93 0b c6 3c a0 d1 b3 bc 53 91 63 bd f2 f9 40 3e
       0.02417544 -0.021950543 -0.055558514 0.18845347
000080 77 ec 68 3d ea 67 f9 bd 34 83 73 3a 62 02 35 3d
       0.056866135 -0.12178023 0.0009289265 0.044191726
000090 07 9e 3b 3e 82 3c 99 ba 37 c8 02 3e 1b 37 08 be
       0.18322001 -0.0011691006 0.12771688 -0.13302271
0000a0 b3 98 5e bc fc 88 2f bd b7 3c d2 bd f2 90 cb bd
       -0.013586211 -0.042855248 -0.10265487 -0.099397555
0000b0 76 bf 07 be 9a d2 f0 3d 59 36 ad bd 40 63 b5 3d
       -0.1325663 0.11758919 -0.084576316 0.08856821
0000c0 f1 04 18 3e 91 e7 ca bd 74 41 0d be ab 4c 8e bd
       0.14845635 -0.09907449 -0.137945 -0.06948217
0000d0 bb 04 7b bc ec 04 a1 3d 16 a2 cf bd e0 cc 06 3e
       -0.015320952 0.07862267 -0.10138337 0.13164091
0000e0 3e 1c 10 3d b2 bf 11 bd 2c 8b ca 3d a3 97 43 3a
       0.035183184 -0.035583206 0.09889826 0.00074612553
0000f0 22 52 21 3e 8d 5d 6a 3d cb a3 1e 3e 8d 6c 13 3d
       0.15753987 0.057218123 0.1549217 0.035992194
000100 9f 5d 59 3e 8d e8 3e 3d 36 fd e9 bd d4 4d 1c be
       0.2122712 0.046608496 -0.11425249 -0.15264064
000110 85 bb b1 bc 69 b2 f4 3b 34 48 07 3e 2e 3f d7 bc
       -0.021695862 0.007467557 0.13211137 -0.026275244
000120 33 00 54 3c f8 ae b7 3d 61 9a 90 3a 25 e9 29 bd
       0.012939501 0.089689195 0.0011032337 -0.04148211
000130 49 77 69 3e e5 ce a0 3d 62 b3 d4 3d 4d af 3e bd
       0.2279941 0.07851962 0.10385777 -0.0465539
000140 0b 9b 67 3c 5a 48 36 bd 4d 50 0e 3e 02 83 06 bc
       0.014136086 -0.044502594 0.1389782 -0.008209946
000150 9b fc 7e bd 8f 70 bc bd 78 6b 28 be 03 e3 16 3e
       -0.062252622 -0.09201156 -0.16447246 0.14735036
000160 ba 30 00 be 56 dc e1 bc 1e 0b 94 bc 8a b9 43 bd
       -0.12518588 -0.027570885 -0.018071707 -0.047784366
000170 a8 1e 56 bd 68 f1 95 3c 5b e6 93 3d c5 77 64 3d
       -0.05227533 0.018303588 0.07221671 0.055778284
000180 19 d7 64 bd 52 7c fc 3d da 28 8b bd 8b 2b 4e 3d
       -0.055869196 0.123284 -0.06794901 0.050334495
000190 38 89 17 3d 66 73 c0 bb 2b b4 1a 3d 03 2f 3b 3e
       0.036996096 -0.0058731316 0.037769478 0.18279652
0001a0 a8 cf ab 3d 6e 43 93 bd 46 8d 9f bc c8 ea ac bd
       0.08389217 -0.071905956 -0.019476544 -0.084432185
0001b0 52 9d f5 bd fb 4c 87 bd c1 eb a2 bd b4 f0 0d bd
       -0.11992897 -0.0660648 -0.07955123 -0.03465338
0001c0 d4 f9 c1 3d 64 2b c0 3d bb bd 98 bd 99 0f 79 3d
       0.09471479 0.09383276 -0.07458063 0.06080589
0001d0 02 6a 3b bd 77 17 86 bd df 8d 8c 3c ae 49 24 bd
       -0.045755394 -0.06547444 0.017157493 -0.04010933
0001e0 87 4d f8 bc df e8 88 3c 2c 3b b4 bd e3 96 7a bd
       -0.030310405 0.016712604 -0.08800349 -0.061179053
0001f0 54 35 9b 3d fa 43 5e bd f5 ad 4f 3d 34 a1 15 3d
       0.07578531 -0.054264046 0.050703008 0.03653069
000200 52 8b 1e be 28 24 8d 3d f6 ef 6c bd 49 08 4f 3d
       -0.15482834 0.06891662 -0.057846032 0.05054501
000210 80 1f 9a bd 1a fa 84 bd 6c fc ef 3c ca 0e 40 3d
       -0.075255394 -0.064930156 0.029295169 0.046889104
000220 d0 67 0a bd 67 c0 5d 3d 90 25 c3 bc 9f a6 63 bd
       -0.03379041 0.054138567 -0.023821622 -0.055578824
000230 06 c6 20 be db b4 7d 3d 4a e2 f0 3d 48 ff e9 3b
       -0.1570054 0.061940055 0.11761911 0.0071410276
000240 97 10 4a 3d 8d 7c cb 3d 6b 4e 59 3d 9d 8c 86 3d
       0.049332228 0.099358656 0.0530533 0.065697886
000250 3c 5d f2 3c 38 74 d6 bd 56 b4 e8 3d d1 de c0 3c
       0.029585473 -0.10471386 0.11362521 0.023543747
000260 39 f1 3e 3b ac bf 1c bd 89 5f ab bd ec 2a 1a be
       0.002913548 -0.03826873 -0.08367831 -0.15055436
000270 96 93 c6 3d 7f 5d 17 bc d5 cb 5a 3c df 76 04 3d
       0.096961185 -0.0092386 0.013354261 0.032339927
000280 de 55 9a 3d 31 62 d9 3d 4a fb 58 3d 9c 6e 24 3e
       0.07535909 0.10614432 0.052974023 0.16057819
000290 73 24 8c bc db b5 c7 3d a4 9f d9 bd e4 f9 2f bd
       -0.017107224 0.09751483 -0.10626152 -0.042962924
0002a0 97 0b 42 be fd 7f 89 bb 4b e2 41 3d c1 33 3d 3d
       -0.18949734 -0.0041961656 0.04733495 0.046191934
0002b0 93 7c 92 bd ca 65 2a 3e 93 27 7d 3d ef 96 a1 bd
       -0.07152667 0.16640392 0.06180532 -0.078901164
0002c0 d9 76 0f be c7 c3 87 bd 15 14 9a 3c 75 de 8f 3b
       -0.1401018 -0.066291384 0.018808404 0.0043905326
0002d0 43 b7 52 3e 94 12 8c bd ed 27 da bd 94 f1 81 bc
       0.20577721 -0.06839481 -0.106521465 -0.015862264
0002e0 a6 8e fc 3b 1f af ab bd 6f ca ba bd f6 eb fc 3c
       0.0077074347 -0.08383011 -0.091206424 0.030874234
0002f0 bf 93 8c 3b d8 95 aa 3d 29 ee 3a 3c d6 b7 2d 3e
       0.0042900736 0.08329362 0.011409321 0.16964659
000300 d6 f3 2b 3d 2d 6f 0c be a2 68 28 3d 36 fa fc 3c
       0.041980587 -0.13714285 0.04111541 0.030881029
000310 c2 4c 5e 3d 9f cf d8 bc d8 6a a1 3d ea d3 2f bd
       0.05427242 -0.026466189 0.07881707 -0.042926706
000320 62 06 9b bb b9 44 21 3c ba 68 7d bc 78 9b bc bc
       -0.0047309855 0.009843045 -0.015466863 -0.023023352
000330 df ac d2 3d 9d 6f 64 3d 46 21 94 b9 4d 45 f5 bd
       0.10286879 0.055770505 -0.0002825355 -0.11976109
000340 1b 1a 0f 3c ad ea 8a bd 6f 18 65 3d 91 26 ca bd
       0.008734251 -0.06783042 0.055931505 -0.09870637
000350 12 f3 a5 3d 74 de 52 3d 33 7c 8a bd 66 8c 85 3d
       0.081030026 0.05148168 -0.0676197 0.065209195
000360 6a 3c d3 bd a7 ff 69 bd f1 b3 cb 3d eb 53 bd bc
       -0.103142574 -0.057128575 0.099464305 -0.023111304
000370 1c bd 19 bb 53 bb 6d 3d 4d 63 50 bd f4 8d ff bd
       -0.0023458665 0.058039974 -0.05087595 -0.12478247
000380 65 d9 e4 3d 5d 21 3b 3e 4c af 95 3a 7d ed 78 3c
       0.11174277 0.18274446 0.001142004 0.01519334
000390 63 70 81 bd b3 91 10 3c ac 4a 90 bd 08 8c 34 3a
       -0.06320264 0.0088238 -0.070454925 0.00068873214
0003a0 67 2e 78 3d 47 88 01 3c d3 20 87 bd e7 b8 12 3d
       0.060591128 0.007906026 -0.065980576 0.035820868
0003b0 cf eb ae 3d e0 6e e1 bd 4c 73 1c bd aa ea 21 bd
       0.08541071 -0.11007476 -0.038195893 -0.039530434
0003c0 59 ae d0 3d c7 dd 61 bd 66 e6 c9 bd 86 8d b5 3b
       0.10189504 -0.055143144 -0.09858398 0.0055405525
0003d0 8e e0 fb bc 1f a1 61 bd 22 3a 82 bd e2 d0 34 bd
       -0.030746724 -0.055085298 -0.06358744 -0.04414452
0003e0 0b 07 3f be 2d c4 c7 bc 27 99 85 bb 8b b2 d5 3d
       -0.1865503 -0.024385536 -0.004077095 0.10434445
0003f0 73 ef ca 3d 1a 34 83 3b 44 d5 6c bc 07 b6 37 3e
       0.099089526 0.0040040137 -0.014455143 0.17940532

network_body._body_endoder.seq_layers.2.bias f4 [128]
000000 21 b8 16 bb 1a 99 42 3a 66 a4 24 b9 28 43 40 3b
       -0.0022997933 0.00074233266 -0.00015701502 0.0029336903
000010 2c 66 92 ba 9b b2 97 ba ea 86 c7 b9 eb eb 0b 38
       -0.0011169366 -0.0011573614 -0.00038056757 3.33599e-05
000020 f9 85 9a 3a 51 62 12 3a a6 7a af 39 2f 3a e5 3a
       0.0011789195 0.00055841083 0.0003346998 0.0017488654
000030 2c 9d 3d 3a da 71 b7 ba 87 55 93 ba a8 de 4b 3a
       0.0007233198 -0.0013995722 -0.0011240699 0.0007777014
000040 20 6d 14 38 35 8f fe 38 0c 85 2a ba c5 21 90 ba
       3.538758e-05 0.00012138338 -0.0006504811 -0.0010996392
000050 33 96 98 ba 06 0d ba b8 4d b5 8f ba de d1 9c b9
       -0.0011641443 -8.871597e-05 -0.0010964066 -0.00029911002
000060 13 6d 08 bb f1 5d 31 3a 9c 91 a9 ba 64 16 46 b8
       -0.0020816966 0.00067660125 -0.0012937072 -4.722773e-05
000070 1c d8 90 3b 1d c3 84 3b a7 8c 24 b9 77 f5 aa 39
       0.0044202935 0.0040515796 -0.00015692656 0.00032607812
000080 ee d9 1a b9 85 27 f4 3a e1 d8 3a b9 c8 3e 54 ba
       -0.0001476777 0.00186275 -0.00017819136 -0.00080965133
000090 53 ad 3f ba 4c a2 81 3a 8e aa 6e b9 d1 24 b8 b8
       -0.0007311899 0.0009890287 -0.00022760985 -8.780661e-05
0000a0 dc b9 a5 39 53 f2 72 3b b2 73 b9 ba 49 12 ad ba
       0.00031609728 0.0037070706 -0.001414886 -0.0013204302
0000b0 cb 02 df 39 4a b0 10 bb a3 72 5d b9 c5 0b 05 ba
       0.00042535955 -0.0022077733 -0.00021118908 -0.0005075301
0000c0 36 d4 21 b8 90 5b 28 b9 70 4c ba 3a d9 28 0b ba
       -3.8583028e-05 -0.00016055838 0.0014213454 -0.0005308516
0000d0 da 9e 10 ba f6 ee 86 b9 28 f6 71 ba 9f b2 17 3a
       -0.0005516835 -0.0002573651 -0.00092301005 0.00057868095
0000e0 a1 db 8b 3b 00 e1 42 3a 85 64 75 ba af d4 ea 39
       0.004268125 0.00074340403 -0.0009360987 0.0004479042
0000f0 be 9e 6b ba d9 97 c8 39 74 12 39 3a f3 3b 75 3b
       -0.0008988193 0.00038260108 0.00070599397 0.0037419766
000100 3e fe a6 b9 e2 c8 72 b9 0f fe a6 3a 34 c0 e5 38
       -0.00031851412 -0.00023153753 0.001274051 0.000109553715
000110 28 3c 85 ba b9 2a 07 3a 51 0a 95 3b 18 98 b3 ba
       -0.0010165023 0.00051562075 0.004548349 -0.0013701944
000120 72 50 ea 3a c9 7f 60 ba 5a f1 53 ba d7 e4 5f 3a
       0.0017876758 -0.00085639633 -0.00080849754 0.00085408747
000130 f1 ea 39 3a b0 73 80 ba 1f 63 73 3a 71 6d 30 ba
       0.0007092199 -0.0009800103 0.00092844845 -0.0006730175
000140 25 b2 07 bb 69 31 a9 37 4a 29 ab ba bc 57 de b9
       -0.0020705548 2.0169378e-05 -0.001305857 -0.00042408507
000150 2c a4 aa 39 db c2 9b b8 b3 71 57 39 13 b5 1c 3b
       0.00032547244 -7.4272706e-05 0.00020546354 0.002391164
000160 f7 8d 7f 3b 1b 8e 01 ba 89 e9 96 ba 3c c5 0c b9
       0.003899453 -0.0004942135 -0.0011513691 -0.00013424916
000170 80 a2 51 3a 6a 85 43 bb 0a 14 25 3a f8 26 22 3a
       0.00079969317 -0.002983416 0.00062972365 0.00061856164
000180 4a be 52 ba 1e c7 20 39 3f ca a1 ba 83 d5 ac 39
       -0.00080392195 0.00015332966 -0.0012343599 0.00032965475
000190 52 a3 a7 ba 08 0d d0 ba 9a fa 72 37 a8 33 d4 3a
       -0.0012789762 -0.0015873024 1.4482672e-05 0.0016189711
0001a0 db 7a 2e ba ac 3f 42 3a 64 aa 0d bb c2 41 a8 ba
       -0.000665588 0.00074100005 -0.0021616453 -0.001283698
0001b0 51 18 ae ba 80 d2 98 3a 6f 19 c5 ba 4e 96 b3 ba
       -0.0013282393 0.0011659414 -0.0015037487 -0.001370141
0001c0 c8 51 0e ba dc c3 bf ba f1 6e dd 39 41 21 cd ba
       -0.00054290565 -0.0014630514 0.00042235063 -0.0015650169
0001d0 f7 32 85 b9 f3 61 28 ba f6 96 4e ba 3a 22 19 ba
       -0.0002540571 -0.0006423287 -0.00078807713 -0.0005841587
0001e0 f7 9b 8c 3a e4 1d fa b8 2f cb 3c ba eb 35 90 ba
       0.0010727633 -0.000119264965 -0.00072019076 -0.0011002397
0001f0 a4 d4 0b 3a e2 7f 72 ba a3 57 0e ba 48 50 a0 ba
       0.0005334115 -0.00092506234 -0.0005429929 -0.0012230957

action_model._continuous_distribution.log_sigma f4 [1, 2]
000000 15 c7 01 bc 28 fa f3 bb
       -0.007921 -0.0074455924

action_model._continuous_distribution.mu.weight f4 [2, 128]
000000 44 a2 07 3c d5 84 0f 3d 7f 98 bf bc 61 13 af 3b
       0.008278433 0.035038788 -0.023388145 0.0053428863
000010 47 fa 16 bd a4 99 1a 3b 3d 91 b0 bb b3 c2 8e bb
       -0.036859777 0.0023590112 -0.0053884075 -0.004356706
000020 7b 1b 37 bb 2f 84 04 bd 20 07 19 bc 8a d2 90 bc
       -0.0027939964 -0.032352623 -0.009340078 -0.017678518
000030 a6 bf b0 bc 3d f4 3e bc 2a cf c6 3b 0e 56 82 3c
       -0.02157576 -0.011654911 0.0060671763 0.015910175
000040 32 8f 6a 3c ff f6 0c bc 74 c4 a6 3b a7 00 c2 3c
       0.014316367 -0.00860381 0.005089337 0.023681952
000050 cc c3 3f bb a2 ef 41 3c c1 50 05 3c 45 eb 7d bc
       -0.002926099 0.011836918 0.008136929 -0.015497987
000060 4b 86 d1 bc 7f 6d 23 bc 9e 95 c9 bc a0 50 37 3c
       -0.025576731 -0.009974836 -0.024607476 0.011188656
000070 9f d3 16 3d f9 a4 89 bc 0c b6 83 bc 76 45 0d bc
       0.03682291 -0.016802298 -0.016078018 -0.008622518
000080 b8 24 29 3c 57 33 05 3c cd be d0 3b 00 01 05 3c
       0.010323696 0.008129916 0.0063704015 0.008117914
000090 da 75 5b 3c dd 81 d5 3b ca eb e8 bb 6c 57 23 3c
       0.013394797 0.006515725 -0.0071081864 0.0099695735
0000a0 c5 83 19 bd 05 8c 0f 3b 14 ea 93 bb 9e 4b 03 3d
       -0.03747918 0.0021903527 -0.0045139883 0.032054536
0000b0 80 dd 1b bd ee 3a bb 3a 5a 65 ec 3b 44 ec 1b 3c
       -0.038053036 0.001428453 0.0072142305 0.009516779
0000c0 c1 c8 22 bd 67 aa e7 3a 13 61 11 3d b2 60 7a 3b
       -0.039742235 0.0017674685 0.035492968 0.0038204608
0000d0 39 cc 8f 3b 3b c4 92 bc cb 53 60 3c bf c0 41 bd
       0.004388359 -0.017915836 0.013691853 -0.047302958
0000e0 f3 0a ed bc c2 c3 03 bd 39 f5 79 3c 3b bd d4 3c
       -0.028935885 -0.03216911 0.01525622 0.025969138
0000f0 0d 5c 8e 3c ba 1f 16 bc 53 13 c7 39 2b dc 8e 39
       0.017377878 -0.009162838 0.00037970635 0.00027248389
000100 7c 10 01 3c 2e 31 16 bb 82 b9 a0 bc b7 c4 9a 3c
       0.007877465 -0.0022917497 -0.019619707 0.01889263
000110 83 f8 24 3c 39 98 ab bc 9e 2d e2 3c 7d 33 3f 3c
       0.010069015 -0.020946609 0.027609643 0.011669991
000120 f5 d7 30 bb d5 94 6a bc 62 28 5d bc c5 9b 36 bc
       -0.002698419 -0.014317711 -0.013498398 -0.011145537
000130 21 88 33 3c ae 94 a8 bb ad 47 93 bc ee db de bc
       0.010957749 -0.005144677 -0.017978514 -0.02720448
000140 99 b9 f7 bc 60 d9 8d 3c c4 03 41 ba 99 98 ff 3b
       -0.030239867 0.017315567 -0.0007362927 0.0078001735
000150 22 71 29 3c fa 2f 86 3c 51 0d 9f 3c 46 c7 90 bb
       0.010341914 0.016380299 0.01941553 -0.0044182865
000160 6d b0 98 3b fb d8 1a 3c a4 b2 2f bc 06 be 44 39
       0.0046597035 0.009451146 -0.010723744 0.00018762806
000170 f5 c8 34 3b 11 1b cd 39 f9 f4 13 bd 75 ba 8d bc
       0.00275856 0.00039120813 -0.036122296 -0.017300824
000180 36 97 c9 bc 6a 13 9e 3b 2d 4b 78 bb 14 29 01 bd
       -0.024608236 0.0048240917 -0.0037886605 -0.031533316
000190 ab d6 10 3d 28 a5 23 3d 06 f9 cd bc 91 f6 3c 3c
       0.035360973 0.039952427 -0.025143158 0.011533395
0001a0 a2 1c cf bc 7a 94 c6 bc 41 ab e8 b8 64 49 da 3b
       -0.025282208 -0.024240721 -0.000110945206 0.006661581
0001b0 44 1c a6 bb 3d 54 4e 3c cb ae 18 bd f6 9d 50 3b
       -0.0050692875 0.012593326 -0.03727607 0.0031832433
0001c0 4e e7 88 3c e9 a5 33 3b d9 77 ff bc 55 b5 8a ba
       0.016711857 0.0027412123 -0.031185078 -0.0010582606
0001d0 25 d1 bb bc 5a dd 83 bc a7 0e 9d 3c 1e a3 0c bb
       -0.022926876 -0.01609676 0.019172026 -0.002145953
0001e0 1b 36 93 3c bc ae cc 3b 6e 30 2a 3d f3 3c b4 3c
       0.017970135 0.006246416 0.041550092 0.02200172
0001f0 d6 50 78 bc 45 c1 2f 3b 38 db da ba c5 4e b3 3b
       -0.015155992 0.0026818078 -0.0016697412 0.0054720365
000200 17 d4 9c 3b 2a 30 02 ba 7b 7e 93 bc 8e 0d 14 3c
       0.0047860253 -0.00049662834 -0.018004647 0.009036435
000210 48 09 b4 bc 7a 8b 23 bb b7 6c 35 3c cd 68 ee 3a
       -0.021977082 -0.002495496 0.011073283 0.0018189192
000220 81 a7 d1 bb 54 4c 87 3a dd 2f 6a bb 9b 5f ec bb
       -0.006398142 0.001032243 -0.0035734095 -0.0072135455
000230 48 02 a9 bc 93 26 f1 3b ae e1 c1 3b 08 5f 7b 3b
       -0.02063097 0.0073593347 0.0059167957 0.0038356204
000240 26 6f ba bc d2 7e 53 ba be 59 65 bb c5 7f 57 bc
       -0.022758078 -0.0008067909 -0.0034996117 -0.013153021
000250 63 81 5c bc f9 b3 83 3c ae 60 51 3c 34 e5 ff 3c
       -0.013458583 0.016077029 0.012779398 0.031237222
000260 47 11 c3 bb 22 d6 3d bc 55 bd 61 bc cb 20 1f 3d
       -0.0059529874 -0.011586698 -0.01377805 0.038849633
000270 9b e7 2c bc 6e 05 67 bc a3 cb 56 3c 8a d0 e3 3a
       -0.010553266 -0.014100416 0.013110074 0.0017380875
000280 90 c6 38 bc 34 3b ec 3b 75 2d 77 3c f3 68 67 ba
       -0.01127781 0.007209206 0.015086521 -0.00088275893
000290 98 96 48 3a d1 38 b6 3c b6 6d 55 3c 94 9c 8c bc
       0.0007651835 0.022243889 0.013026645 -0.017164506
0002a0 28 75 5b 3c 17 90 de 3c e7 8c e7 3c 14 7b f3 bb
       0.013394631 0.027168317 0.02826543 -0.0074304435
0002b0 b5 4a e3 bb 5f 22 d8 3a 98 f8 76 bc c9 42 95 bb
       -0.006936396 0.0016489736 -0.015073918 -0.0045550806
0002c0 59 39 f3 3c 9f 6c 82 bc e4 e6 30 3c 57 11 94 bb
       0.029690431 -0.015920935 0.010797236 -0.0045186686
0002d0 57 bd 88 bb 58 a1 47 3c e7 78 b7 3b a8 27 09 bb
       -0.0041729617 0.012184463 0.0055991295 -0.0020928178
0002e0 60 41 8b 3b 85 f5 e5 bc ab b2 85 3c 80 e3 c6 bc
       0.0042497367 -0.028071174 0.016320547 -0.024278402
0002f0 95 94 cd bb bb 39 d2 bb 82 11 4a bc 45 2e de 3b
       -0.006273816 -0.0064155734 -0.012333276 0.006780418
000300 a0 fd 96 bc 0a 73 28 bb 97 27 8e bb 24 73 26 bd
       -0.018431485 -0.0025703334 -0.0043382156 -0.04063715
000310 e9 9f 1d 3c 00 21 1b 3c 7f 1b 9e 3b cc 0f c0 3b
       0.009620645 0.009468317 0.004825055 0.005861258
000320 1e 2f 51 bb 6c f6 8f 3b b5 5e 2e bc 60 a8 ad bc
       -0.0031918953 0.0043933894 -0.010642697 -0.021198452
000330 16 83 a7 bb 00 c3 65 3c 43 32 0b bc e1 e1 8c ba
       -0.005112062 0.014023542 -0.00849587 -0.001074847
000340 da a3 85 bc 51 ad dd bc d1 52 d6 3c 19 77 af bb
       -0.016313482 -0.027060183 0.026162537 -0.0053547737
000350 45 0e 11 bb 95 45 9c bc 61 cf c1 3a 96 63 f9 3c
       -0.002213375 -0.019076148 0.0014786535 0.030442994
000360 66 5d e5 3c 92 a9 aa bc 27 f0 9c bc 16 61 ec bb
       0.027998637 -0.02083281 -0.019157482 -0.007213722
000370 72 ed fb 3c 0e f2 20 ba 61 8e 12 bc 68 f0 3c 3c
       0.030752871 -0.00061395846 -0.008945079 0.011531927
000380 0f 40 8e bb e7 7f 96 bc b5 d8 b8 3c 5b 03 c3 3a
       -0.0043411325 -0.018371535 0.022564271 0.0014878319
000390 a2 da e5 3c 62 a3 c4 bc 2c 19 70 3c 98 d0 25 bc
       0.028058354 -0.024003688 0.014654439 -0.010120533
0003a0 20 32 11 bd f4 e1 d1 bc 49 d3 ec 3a 58 92 b4 3b
       -0.035448194 -0.025620438 0.0018068339 0.0055106096
0003b0 9b 60 9e bc 9b 09 8a bc a3 32 b9 bb 1f 66 84 3b
       -0.019333174 -0.016850283 -0.0056517883 0.004040494
0003c0 b1 ef ec 3c 1d 78 35 3c 09 57 ae bb 5c c8 5c bc
       0.028922888 0.0110760005 -0.005320434 -0.013475504
0003d0 5f 99 ce 3c 44 5d 87 3c b1 16 ab 3b bd 1d 01 3c
       0.025219617 0.016523965 0.005221211 0.007880625
0003e0 2f 12 92 bc 7e 19 3e bc ee 60 0e 3c 82 17 a6 3b
       -0.017830936 -0.0116027575 0.008690102 0.0050687203
0003f0 a4 53 02 3d e6 9e 9f bc 51 41 c1 3c 70 53 cd 3c
       0.031818047 -0.019484948 0.023590716 0.0250642

action_model._continuous_distribution.mu.bias f4 [2]
000000 23 8e ed b9 19 c6 7f ba
       -0.00045310063 -0.0009756997

exp_avg f4 [128, 6]
000000 59 05 b3 b6 36 2d d1 37 07 81 d1 b7 86 0c fc b6
       -5.3352383e-06 2.4935794e-05 -2.4974825e-05 -7.511643e-06
000010 40 ce d5 37 ea 42 d7 b7 a5 4c 01 b1 6d 21 20 b1
       2.5487621e-05 -2.5661157e-05 -1.8815538e-09 -2.3302065e-09
000020 bc 01 2b b1 de f3 40 30 d3 ab 23 b1 10 cb 24 31
       -2.488476e-09 7.019575e-10 -2.3817293e-09 2.3980569e-09
000030 f9 5e 94 b8 e2 a4 a1 b8 83 69 7a 38 7c c6 c2 37
       -7.07488e-05 -7.70779e-05 5.970291e-05 2.3219029e-05
000040 82 38 a5 b8 e7 58 a6 38 df 58 66 36 38 76 0c b5
       -7.8783385e-05 7.932056e-05 3.43244e-06 -5.2326095e-07
000050 02 2f 5c 36 d4 3f 29 34 16 91 0f b5 42 8c 10 35
       3.2809917e-06 1.5762572e-07 -5.348278e-07 5.384828e-07
000060 6f c1 70 36 ea ed 36 36 9a 2e 18 b5 20 6c 5c b5
       3.587538e-06 2.7258598e-06 -5.6692227e-07 -8.211373e-07
000070 03 fa 3a 36 20 40 3c b6 bf 57 16 b9 55 0a 44 b9
       2.7861686e-06 -2.8051509e-06 -0.00014337803 -0.00018695866
000080 ca a4 1e 39 65 38 6c 38 9c 60 48 b9 29 be 49 39
       0.00015129443 5.6319306e-05 -0.00019109476 0.00019239694
000090 c4 a0 05 b9 ef b6 b2 b8 94 e3 35 38 a8 57 d7 37
       -0.00012743758 -8.5217755e-05 4.336571e-05 2.5670815e-05
0000a0 0e ab b6 b8 db e9 b7 38 b8 ab 11 39 cf db a3 38
       -8.710298e-05 8.769679e-05 0.00013892248 7.813388e-05
0000b0 b4 10 9a 37 70 71 c5 b7 d5 7b a7 38 05 a0 a8 b8
       1.8366009e-05 -2.3537053e-05 7.986246e-05 -8.04067e-05
0000c0 8c 1b b0 b9 a9 a1 c5 b9 79 2a b0 39 45 23 ee 38
       -0.0003358986 -0.00037695214 0.0003360098 0.00011355294
0000d0 00 01 ca b9 8d 61 cb 39 bf c7 8b b9 ec 09 8a b9
       -0.00038529187 0.00038791858 -0.00026660968 -0.00026328804
0000e0 a2 b7 1d 39 b5 54 a6 38 cd 17 8d b9 f3 0d 8e 39
       0.00015041095 7.931275e-05 -0.0002691135 0.00027094744
0000f0 b9 2a 97 b5 f8 30 9d 33 81 5b 93 b5 00 69 bd b2
       -1.1262811e-06 7.3197896e-08 -1.0978985e-06 -2.2050244e-08
000100 4a aa a0 33 05 c4 a1 b3 2e 0d 05 36 f4 e2 84 38
       7.481556e-08 -7.5328025e-08 1.9826216e-06 6.336524e-05
000110 ab 22 b8 b8 79 1f a0 b7 a2 d3 87 38 8f c0 88 b8
       -8.780261e-05 -1.9088142e-05 6.476721e-05 -6.520852e-05
000120 0b e1 2d 38 30 0b ec 38 4c f9 0d b9 14 36 0e b8
       4.1456e-05 0.00011255441 -0.00013539678 -3.3905802e-05
000130 1a 44 f1 38 ec e8 f2 b8 9a 48 86 b9 12 40 79 b9
       0.000115044604 -0.00011582844 -0.00025612564 -0.00023770359
000140 12 46 39 39 04 2b 96 38 af c3 7e b9 26 40 80 39
       0.00017669078 7.16057e-05 -0.00024296225 0.00024461857
000150 80 68 f2 b9 3f f8 c6 b9 0e 01 5c 39 1f c0 ef 38
       -0.00046235695 -0.0003795046 0.00020981228 0.000114321934
000160 40 5f cb b9 01 c2 cc 39 7e e9 46 b5 e3 5e 40 b5
       -0.00038790144 0.00039054456 -7.4100524e-07 -7.166365e-07
000170 23 d5 8c 34 74 cc 67 34 77 a0 44 b5 7a f7 45 35
       2.623211e-07 2.1587931e-07 -7.3249197e-07 7.3748345e-07
000180 ec c5 66 b9 20 be 90 b9 a1 fc 6d 39 a0 68 ae 38
       -0.00022008241 -0.00027607474 0.00022696193 8.3164545e-05
000190 e0 f1 93 b9 e3 f3 94 39 cb d2 cf 35 e7 59 b9 35
       -0.00028218236 0.0002841047 1.5484051e-06 1.3809739e-06
0001a0 a8 c8 f8 b4 2c 57 df b4 bf 73 bd 35 45 be be b5
       -4.6339596e-07 -4.1600413e-07 1.4115284e-06 -1.4211479e-06
0001b0 20 c5 fa 37 70 e4 d3 37 f6 a5 39 b7 34 52 ff b6
       2.9894116e-05 2.5259535e-05 -1.10655e-05 -7.609162e-06
0001c0 94 94 d8 37 61 0e da b7 e7 d3 24 b6 67 ea d1 36
       2.5818394e-05 -2.599432e-05 -2.4561248e-06 6.2559734e-06
0001d0 7a 2f 2e b7 76 f0 fc b5 66 8f d6 36 c8 05 d8 b6
       -1.0382262e-05 -1.8845446e-06 6.3943908e-06 -6.4379747e-06
0001e0 e1 5d 06 39 8c af dd 38 bc 80 96 b8 ad 8f 05 b8
       0.00012814208 0.00010570799 -7.176536e-05 -3.184348e-05
0001f0 39 97 e2 38 87 22 e4 b8 8e 1e a2 b9 37 9d a9 b9
       0.00010804687 -0.000108783184 -0.00030921813 -0.00032351326
000200 8f 0b 92 39 c3 60 cc 38 01 5e ad b9 51 8c ae 39
       0.00027855902 9.745501e-05 -0.0003306717 0.0003329241
000210 30 73 2d 36 ce f5 02 36 5c bd 5d b5 36 cd 1d b5
       2.5846057e-06 1.9514587e-06 -8.260447e-07 -5.878568e-07
000220 96 db 05 36 14 c5 06 b6 e2 24 80 39 09 b6 94 39
       1.994636e-06 -2.008227e-06 0.00024441542 0.00028364387
000230 7a e3 40 b9 de 30 b3 b8 74 00 98 39 83 09 99 b9
       -0.00018395288 -8.544487e-05 0.00028992037 -0.0002918952
000240 b3 c2 f6 36 48 d0 69 37 de 13 81 b7 2f de 8c b6
       7.3540373e-06 1.39363765e-05 -1.538725e-05 -4.1981907e-06
000250 98 fc 6e 37 8b 9d 70 b7 0f c5 68 b5 22 ee 98 b5
       1.4244717e-05 -1.4341796e-05 -8.6713493e-07 -1.1394188e-06
000260 99 e7 7f 35 61 46 b8 34 fe 4f 9c b5 08 61 9d 35
       9.533192e-07 3.4323878e-07 -1.1646187e-06 1.1725651e-06
000270 7f a6 73 36 6d a6 aa 36 38 ac bb b6 20 a0 cd b5
       3.6306735e-06 5.0857693e-06 -5.593083e-06 -1.5320293e-06
000280 1f 6d ae 36 4b 9d af b6 44 32 0c ba ac c7 07 ba
       5.1983075e-06 -5.2337177e-06 -0.00053480663 -0.0005179595
000290 fb 2c b5 39 f7 9b 23 39 bf c8 0a ba da ba 0b 3a
       0.00034556523 0.00015602993 -0.0005294196 0.0005330272
0002a0 05 b8 3b 39 2a e0 32 38 28 66 44 37 e9 89 57 b7
       0.00017902262 4.2647276e-05 1.17062955e-05 -1.2847108e-05
0002b0 0e d5 36 38 d3 14 38 b8 6f 27 0a 38 ec b5 9b 37
       4.3590604e-05 -4.3888413e-05 3.293849e-05 1.8562154e-05
0002c0 fb 79 e6 b6 f3 9f bb b6 e9 27 9f 37 96 3d a0 b7
       -6.8687345e-06 -5.591655e-06 1.8972862e-05 -1.9102165e-05
0002d0 cc 12 96 37 31 7b 76 37 dd 7d cc b6 ec 7f 94 b6
       1.7890146e-05 1.4691425e-05 -6.094326e-06 -4.425636e-06
0002e0 41 ef 7b 37 b9 a6 7d b7 bd 0c fc 37 39 77 06 38
       1.50164715e-05 -1.5118793e-05 3.0046673e-05 3.2059124e-05
0002f0 a6 97 d8 b7 7c 06 22 b7 d2 70 09 38 8e 60 0a b8
       -2.5819823e-05 -9.657462e-06 3.2768417e-05 -3.2991687e-05
000300 67 2f e8 b6 a3 f3 c1 b6 e3 6e 2c 36 38 b4 e9 35
       -6.919657e-06 -5.7802113e-06 2.5694542e-06 1.7412303e-06
000310 32 3e c6 b6 00 98 c7 36 dc e6 31 34 1e d9 10 34
       -5.9081003e-06 5.9483573e-06 1.6568396e-07 1.3490032e-07
000320 d9 12 44 b2 38 89 2e b3 8d 0d 14 34 c6 0f 15 b4
       -1.1412987e-08 -4.063733e-08 1.3788504e-07 -1.3882445e-07
000330 58 46 8b 37 1b 68 f3 37 44 dd 01 b8 ce a5 12 b7
       1.6602848e-05 2.9016335e-05 -3.0962066e-05 -8.740883e-06
000340 b3 ca f8 37 f6 7c fa b7 ab 99 31 36 05 40 b4 35
       2.9658293e-05 -2.9860512e-05 2.6464502e-06 1.3429677e-06
000350 ee 21 a9 b4 f7 31 d9 b4 39 3d b8 35 48 7e b9 b5
       -3.150339e-07 -4.0455754e-07 1.3726886e-06 -1.3820327e-06
000360 cb 2b 74 37 11 b0 9c 38 92 97 d0 b8 58 cd bc b7
       1.455373e-05 7.4714546e-05 -9.946445e-05 -2.2506967e-05
000370 8c 27 a0 38 ee 3e a1 b8 23 bb c6 38 53 69 0f b7
       7.636761e-05 -7.6888e-05 9.476233e-05 -8.547987e-06
000380 56 d9 e6 38 0f cd 2c 36 0c 94 12 b7 23 96 13 37
       0.000110077366 2.5749357e-06 -8.736748e-06 8.796839e-06
000390 fb 83 5a b4 44 f0 1c b5 db 7e 31 35 b0 1a 3d 34
       -2.0350846e-07 -5.846416e-07 6.612224e-07 1.7611706e-07
0003a0 27 69 20 b5 fd 80 21 35 89 b6 8d 36 66 e8 84 36
       -5.975766e-07 6.0164876e-07 4.2233773e-06 3.9609613e-06
0003b0 9f e9 29 b6 04 26 a0 b5 2f d9 87 36 2b c6 88 b6
       -2.5318948e-06 -1.1931993e-06 4.048597e-06 -4.0761856e-06
0003c0 1f 0f 11 b6 61 5a 82 b6 d7 8a 7e 36 ea 11 9d 35
       -2.1615485e-06 -3.8848234e-06 3.7929765e-06 1.1702625e-06
0003d0 a9 3c 85 b6 ff 24 86 36 16 ea 8f 39 33 46 37 39
       -3.9707706e-06 3.997818e-06 0.00027449493 0.00017478391
0003e0 75 61 88 b8 87 d6 5c b8 4e 54 3b 39 15 9b 3c b9
       -6.503138e-05 -5.265188e-05 0.00017865116 -0.0001798685
0003f0 de a8 95 b9 a7 9d 93 b9 fb cc 1a 39 f2 de b1 38
       -0.0002854531 -0.00028155485 0.00014762946 8.4815445e-05

exp_avg_sq f4 [128, 6]
000000 d6 d7 b2 32 4f 66 93 32 c3 c0 1a 32 61 03 d6 30
       2.0820078e-08 1.7159577e-08 9.007809e-09 1.557151e-09
000010 85 fe 99 32 a0 19 9c 32 65 5f 02 28 95 95 6c 28
       1.7927286e-08 1.8172443e-08 7.237135e-15 1.3133067e-14
000020 21 66 53 28 4e c0 ab 26 42 2b 77 28 84 8c 7a 28
       1.1734999e-14 1.1917633e-15 1.3720634e-14 1.3908257e-14
000030 8b 03 2c 33 d2 d0 aa 33 73 0a 9f 33 e5 02 f8 31
       4.0050093e-08 7.954226e-08 7.405915e-08 7.218079e-09
000040 37 75 b2 33 f4 e5 b4 33 ed d2 24 2f 44 cd 12 2f
       8.310092e-08 8.4237314e-08 1.4990649e-10 1.3351548e-10
000050 ca 3a 92 2e 34 25 55 2d a2 5e 19 2f 93 77 1b 2f
       6.6497544e-11 1.2115909e-11 1.3948889e-10 1.4139649e-10
000060 25 f6 1a 2e 36 8a 26 2e d6 52 a6 2d a7 cd 71 2c
       3.5234166e-11 3.7866786e-11 1.8908802e-11 3.436232e-12
000070 9e fd 2d 2e bb 5e 30 2e fa c6 17 34 c0 8b 2f 34
       3.9560903e-11 4.0101904e-11 1.4135358e-07 1.6348986e-07
000080 1c a5 05 34 20 e1 7e 32 52 66 37 34 5c e8 39 34
       1.2446657e-07 1.4835933e-08 1.7080427e-07 1.7314e-07
000090 55 ef 42 34 2f 5a 87 34 b8 61 70 34 73 85 c4 32
       1.8154726e-07 2.5211327e-07 2.2387292e-07 2.2878089e-08
0000a0 68 68 8d 34 72 57 8f 34 5a 77 e5 33 81 7f cb 33
       2.6339262e-07 2.669945e-07 1.06853534e-07 9.476117e-08
0000b0 7a 62 6b 33 5a bb 13 32 34 9a d4 33 80 82 d7 33
       5.4804765e-08 8.599125e-09 9.900069e-08 1.00354555e-07
0000c0 16 7a 0a 35 f6 13 51 35 33 19 3b 35 60 c8 97 33
       5.1586665e-07 7.7887614e-07 6.96996e-07 7.0679334e-08
0000d0 9a 6e 5a 35 46 6b 5d 35 0b 67 73 34 f5 9b 83 34
       8.1372275e-07 8.248502e-07 2.2668625e-07 2.4514125e-07
0000e0 25 d6 35 34 39 16 bf 32 54 7f 89 34 ac 60 8b 34
       1.6934844e-07 2.2245432e-08 2.5610882e-07 2.5961106e-07
0000f0 84 8f b5 2e f9 6f f9 2e 8a 2d e1 2e 04 15 35 2d
       8.2564205e-11 1.13430994e-10 1.0239905e-10 1.0293325e-11
000100 71 4c 02 2f 90 14 04 2f c3 60 57 31 6e ec 20 32
       1.1850589e-10 1.2012635e-10 3.134162e-09 9.366984e-09
000110 4d 37 4c 32 17 a6 69 30 85 1f 28 32 17 6c 2a 32
       1.1886937e-08 8.5000934e-10 9.786054e-09 9.919879e-09
000120 94 4a fa 32 ad e4 5c 33 30 b0 68 33 31 5c a0 31
       2.9137745e-08 5.143072e-08 5.417695e-08 4.667094e-09
000130 a0 c6 66 33 88 ee 69 33 12 28 8d 34 42 09 c4 34
       5.3731696e-08 5.4466483e-08 2.6292452e-07 3.651458e-07
000140 c9 0b a8 34 96 50 0e 33 7e ce cc 34 7d 9b cf 34
       3.1301013e-07 3.3135244e-08 3.8148204e-07 3.8669887e-07
000150 29 b3 37 35 51 74 50 35 3f be 21 35 79 54 97 33
       6.8433525e-07 7.76553e-07 6.025402e-07 7.046851e-08
000160 d9 c7 59 35 33 c2 5c 35 df 57 a7 2b 8c 0c 7c 2b
       8.1129616e-07 8.2238984e-07 1.1890453e-12 8.9545797e-13
000170 5c 4d 79 2a 5c fa b6 29 ad a9 83 2b 99 76 85 2b
       2.2142482e-13 8.125854e-14 9.355204e-13 9.483136e-13
000180 74 57 52 34 d4 38 bc 34 07 50 ae 34 5e a4 08 33
       1.958959e-07 3.5059077e-07 3.2468253e-07 3.181446e-08
000190 a0 a4 c4 34 05 55 c7 34 c8 57 68 2c 40 03 52 2c
       3.6627625e-07 3.7128498e-07 3.3017911e-12 2.98446e-12
0001a0 32 9f b5 2b 17 76 98 2a 90 68 5b 2c b3 68 5e 2c
       1.2905009e-12 2.7082565e-13 3.1179816e-12 3.1606217e-12
0001b0 45 59 d1 30 fa de b2 30 a2 3f 2f 30 87 da 01 2f
       1.5232123e-09 1.3014578e-09 6.3755057e-10 1.1810118e-10
0001c0 a8 df ba 30 d7 6d bd 30 e6 04 63 31 7e 8c 9d 31
       1.3596848e-09 1.3782778e-09 3.3035632e-09 4.5852735e-09
0001d0 f7 e7 89 31 c0 bf e4 2f f4 98 a4 31 33 d9 a6 31
       4.013596e-09 4.1609205e-10 4.790417e-09 4.8559285e-09
0001e0 e6 32 95 33 1d 6c 7e 33 c8 83 88 33 65 b3 b8 31
       6.9476116e-08 5.9237312e-08 6.3569644e-08 5.3754996e-09
0001f0 07 e7 84 33 48 b8 86 33 b8 ba fc 34 3a c8 38 35
       6.1887526e-08 6.273382e-08 4.7074514e-07 6.883671e-07
000200 50 ef 24 35 14 25 86 33 99 0c 41 35 6c b0 43 35
       6.1443006e-07 6.246606e-08 7.1916435e-07 7.289989e-07
000210 64 70 59 2c d8 0d ff 2b 75 e8 02 2b de 28 39 2a
       3.0899944e-12 1.8122682e-12 4.6507877e-13 1.644548e-13
000220 87 3b 05 2c f5 0d 07 2c 30 e9 1e 35 43 6c 30 35
       1.8933481e-12 1.9192402e-12 5.919892e-07 6.572265e-07
000230 01 3d f4 34 8c 13 80 33 e8 50 38 35 28 d6 3a 35
       4.5492928e-07 5.96402e-08 6.8663076e-07 6.960204e-07
000240 1d 4e 83 2f 56 ce 3c 30 06 0f 48 30 e2 10 89 2e
       2.3884264e-10 6.868722e-10 7.2780926e-10 6.233038e-11
000250 ce 40 45 30 4e f3 47 30 8f e9 7c 2d 1d 5d 76 2e
       7.1760275e-10 7.2741535e-10 1.4376402e-11 5.6016625e-11
000260 31 a6 97 2e c9 d9 b2 2c 65 b1 80 2e eb 73 82 2e
       6.8962065e-11 5.0832433e-12 5.852278e-11 5.932307e-11
000270 73 3d d2 30 1b ba 0e 31 6b 11 f0 30 92 3a 4f 2f
       1.5296976e-09 2.0769508e-09 1.7467249e-09 1.8847349e-10
000280 cc 1c 15 31 d2 26 17 31 87 ac f0 34 19 bd 1f 35
       2.1698723e-09 2.1995459e-09 4.4829014e-07 5.950729e-07
000290 d1 a6 00 35 a4 ed 67 33 97 e2 26 35 d5 2a 29 35
       4.7926466e-07 5.400001e-08 6.216955e-07 6.3019735e-07
0002a0 b3 30 96 35 b9 ae b3 35 05 91 85 35 54 71 02 34
       1.1190044e-06 1.338739e-06 9.951478e-07 1.2148422e-07
0002b0 a5 b8 bb 35 dd 49 be 35 02 f6 af 31 80 95 ac 31
       1.3986324e-06 1.41776e-06 5.121138e-09 5.022855e-09
0002c0 c4 49 4d 31 31 94 fa 2f 28 4e b4 31 62 c5 b6 31
       2.9873357e-09 4.5580031e-10 5.247575e-09 5.319337e-09
0002d0 46 67 ba 2f 35 35 84 2f 15 4e c0 2e a4 f4 bf 2d
       3.3906583e-10 2.4048466e-10 8.745019e-11 2.1822828e-11
0002e0 68 1f 8a 2f ef 02 8c 2f ab e8 22 31 45 c6 70 31
       2.512437e-10 2.5467936e-10 2.370636e-09 3.50373e-09
0002f0 70 c1 59 31 0b cb ae 2f f8 8b 7b 31 8a fc 7e 31
       3.1687613e-09 3.1794686e-10 3.660487e-09 3.7105417e-09
000300 3f 25 24 2e ff 02 3c 2e 41 42 d6 2d 4d 7d 88 2c
       3.7322364e-11 4.2748912e-11 2.4358406e-11 3.8792637e-12
000310 57 6c 44 2e f7 1b 47 2e 3a ca 60 2a 15 c2 89 2a
       4.4661465e-11 4.52722e-11 1.9965358e-13 2.447076e-13
000320 17 75 03 2a a3 03 c8 28 db eb 8f 2a b3 e3 91 2a
       1.1675761e-13 2.2206038e-14 2.556556e-13 2.5915172e-13
000330 09 26 80 31 8b 54 63 32 6e 63 87 32 79 08 a5 30
       3.7296144e-09 1.3232362e-08 1.5761284e-08 1.2007738e-09
000340 35 80 6d 32 a9 bf 70 32 fb be 7a 2e 5b 27 8c 2e
       1.38243665e-08 1.4013417e-08 5.7013044e-11 6.373454e-11
000350 19 f0 5f 2e 16 7e cb 2c 92 6c 92 2e 26 6d 94 2e
       5.091758e-11 5.7836054e-12 6.658597e-11 6.7496495e-11
000360 85 ef e2 30 89 c7 86 31 19 f0 a7 31 81 b0 c3 2f
       1.651174e-09 3.922598e-09 4.8876356e-09 3.5595707e-10
000370 32 cf 8c 31 2a bc 8e 31 be a8 d4 33 8b 71 51 34
       4.0980916e-09 4.1541357e-09 9.902713e-08 1.9505949e-07
000380 85 d3 4f 34 4b 0c 98 32 55 d0 5a 34 66 ce 5d 34
       1.9355328e-07 1.770072e-08 2.0378623e-07 2.0657316e-07
000390 41 4c 93 2a 67 23 23 2b a0 db 20 2b 47 dd 6c 29
       2.6165357e-13 5.7958364e-13 5.714821e-13 5.2594454e-14
0003a0 dd 6f 2a 2b 83 c4 2c 2b f4 ff 9e 2e fe 86 00 2f
       6.0551374e-13 6.137939e-13 7.2304746e-11 1.1689491e-10
0003b0 a2 7f eb 2e ab 9c 3a 2d 12 47 06 2f 1e 1d 08 2f
       1.0709235e-10 1.0607663e-11 1.2212478e-10 1.2379472e-10
0003c0 13 fc 6f 2e cd 4a 12 2f 2d 60 0e 2f b2 67 54 2d
       5.4566195e-11 1.3305197e-10 1.2948993e-10 1.207383e-11
0003d0 50 d6 18 2f 61 ed 1a 2f 65 57 27 34 30 8b 2e 34
       1.3900459e-10 1.4090552e-10 1.5584881e-07 1.6255649e-07
0003e0 be 76 f2 33 93 6c 7d 32 4b 5a 36 34 ac d8 38 34
       1.1290602e-07 1.4751225e-08 1.6982919e-07 1.721516e-07
0003f0 42 36 b3 34 8e f4 a9 34 da 25 46 34 1a c3 f6 32
       3.3380826e-07 3.165664e-07 1.8453957e-07 2.8726891e-08

exp_avg f4 [128]
000000 88 b1 91 b6 8b 11 df 2f 7e 2c 61 37 ec a9 c3 33
       -4.342004e-06 4.057593e-10 1.3421404e-05 9.111304e-08
000010 c9 d2 fe b4 19 8b 08 38 9e f3 78 37 e8 41 64 b7
       -4.7464553e-07 3.255447e-05 1.4838673e-05 -1.3605204e-05
000020 e0 a6 89 38 4c 4a 40 38 75 f7 5a b2 e9 1c 39 b7
       6.563752e-05 4.584556e-05 -1.2745535e-08 -1.103359e-05
000030 f6 67 a4 b7 d9 9a 2d 38 7f 95 8a 38 d7 fc 05 34
       -1.9598734e-05 4.1390627e-05 6.6081986e-05 1.2478573e-07
000040 e5 a0 49 38 3d 19 81 b4 a2 95 93 b6 2a 35 92 b5
       4.807198e-05 -2.4046486e-07 -4.398361e-06 -1.089332e-06
000050 ea 67 9a b7 71 46 6c 38 f3 6d b6 b4 2c 28 4f b8
       -1.840662e-05 5.633239e-05 -3.398014e-07 -4.939006e-05
000060 5c da 22 b6 ac 08 55 34 d4 b7 6d b5 c6 24 bd 38
       -2.4266983e-06 1.9840326e-07 -8.8556885e-07 9.019072e-05
000070 1e 2d f9 b6 48 e8 58 b6 0d ad 2b b6 06 50 bb b6
       -7.4260306e-06 -3.2321714e-06 -2.5581714e-06 -5.5823502e-06
000080 c3 16 87 35 8e c6 c9 b2 e0 88 a9 b6 83 17 7b b4
       1.0064908e-06 -2.3489772e-08 -5.052527e-06 -2.338475e-07
000090 b5 44 5a b7 e2 c5 c7 35 20 9e da 33 7e 24 39 b5
       -1.300981e-05 1.4884247e-06 1.0180179e-07 -6.8970974e-07
0000a0 63 95 35 35 d1 4d ff b7 7e a1 4d 38 5c f1 57 b2
       6.764514e-07 -3.0434605e-05 4.902621e-05 -1.2569526e-08
0000b0 89 68 70 38 a3 16 39 34 dd 3b 37 38 29 76 4c 36
       5.7317815e-05 1.7237703e-07 4.3686352e-05 3.0467147e-06
0000c0 ec 91 27 b5 72 d8 4d b7 8b b2 a5 34 cf 89 35 b8
       -6.242469e-07 -1.2269347e-05 3.0863552e-07 -4.3282107e-05
0000d0 c5 b3 82 b5 00 0c af b7 9b 3e db b5 03 db 3f 38
       -9.738075e-07 -2.0867214e-05 -1.6334992e-06 4.574192e-05
0000e0 a2 af 8d 37 58 ab df 35 8a d8 d4 b7 cc c4 01 34
       1.6890295e-05 1.6664662e-06 -2.5373203e-05 1.2085655e-07
0000f0 bb 63 00 35 e0 1d 97 37 9b ad 7b 36 14 c6 a3 37
       4.782884e-07 1.8014514e-05 3.7502966e-06 1.9523352e-05
000100 9f 28 14 34 dc 57 d9 37 0a 21 eb 33 48 f0 49 b8
       1.3798352e-07 2.5909329e-05 1.094905e-07 -4.8145914e-05
000110 56 c0 96 32 64 0c 6c 37 ef 41 f5 37 cb 1f 96 b6
       1.7549763e-08 1.4069581e-05 2.9236979e-05 -4.4740495e-06
000120 48 8f 73 35 02 82 14 b8 5f cf e2 36 5e 3f 95 37
       9.0733056e-07 -3.540703e-05 6.759466e-06 1.7791692e-05
000130 63 3a 3a 34 de 4d 86 32 97 1f b8 b7 9a 4a 1c 2f
       1.7343841e-07 1.5635063e-08 -2.194922e-05 1.4214621e-10
000140 d1 fe a7 35 23 36 99 b6 30 14 5a 37 94 c8 cd 37
       1.2516631e-06 -4.5660577e-06 1.2998513e-05 2.4531306e-05
000150 3b 23 6e 36 19 9b 99 31 0d eb 37 38 45 c3 9b 38
       3.548527e-06 4.4705186e-09 4.3849508e-05 7.427348e-05
000160 d8 26 1c 38 17 84 a4 38 f0 8f aa 34 07 47 13 b7
       3.7229474e-05 7.844733e-05 3.1769696e-07 -8.77842e-06
000170 c6 76 ea b4 4d 26 ce b5 0e 20 18 35 f9 1c 50 b7
       -4.3672316e-07 -1.5359343e-06 5.667106e-07 -1.2404512e-05
000180 f0 10 10 b7 e8 04 e4 34 ff de c0 b6 a0 66 2b b8
       -8.587012e-06 4.247188e-07 -5.748006e-06 -4.0865154e-05
000190 93 ca 2e 36 81 df 2d b5 d0 07 c2 38 79 e6 b9 b6
       2.6045934e-06 -6.4772763e-07 9.252096e-05 -5.54026e-06
0001a0 fc f1 81 b8 ad 37 31 35 54 ca 69 37 1d e6 83 37
       -6.1962724e-05 6.601866e-07 1.393499e-05 1.5723572e-05
0001b0 92 89 a2 b3 6e e0 e3 b7 ee 03 22 35 10 41 75 38
       -7.568737e-08 -2.7165017e-05 6.035542e-07 5.8473146e-05
0001c0 8e 35 3a 38 3a a3 bf b6 c0 55 4e 38 d1 81 de 37
       4.4395732e-05 -5.7112456e-06 4.919409e-05 2.6524913e-05
0001d0 f1 5b 7e 36 2b 72 6d b7 c3 d8 04 b8 d1 4f 00 b8
       3.7902466e-06 -1.4152883e-05 -3.1673128e-05 -3.0591913e-05
0001e0 2c 8f f6 b7 d8 23 74 b7 05 82 7a 36 99 e7 55 b8
       -2.9392155e-05 -1.4551879e-05 3.7328584e-06 -5.099885e-05
0001f0 20 73 7e b8 ed a8 ca 37 24 b6 ff b6 72 6f c1 b7
       -6.0665538e-05 2.4158939e-05 -7.620796e-06 -2.3059289e-05
