ML Agent Practice/results/ppo/MoveToGoal/MoveToGoal-5707.pt (torch, 149530 bytes, 12 tensors)

network_body._body_endoder.seq_layers.0.weight f4 [128, 6]
0	0xbdd65254	-0.104649216
1	0xbea39c50	-0.31955194
2	0xbe1ac1d5	-0.15113004
3	0x3ea3bc50	0.3197961
4	0xbed793af	-0.4210486
5	0x3ddb14cd	0.10697327
6	0x3ee2c4c3	0.44290742
7	0xbdf2c9c7	-0.11854892
8	0x3d8291f7	0.06375497
9	0x3f6e53bf	0.93096536
10	0xbe732b90	-0.23747087
11	0x3e845a6b	0.25850233
12	0x3e43c3f6	0.19117722
13	0xbd957b63	-0.07298925
14	0xbe8a51b4	-0.2701546
15	0x3ee3c5e7	0.44486925
16	0xbeb786f9	-0.35845163
17	0xbf19966f	-0.5999517
18	0x3e985db9	0.29759005
19	0x3e9ddf28	0.30834317
20	0xbe8077d9	-0.25091437
21	0x3bf49e47	0.007465157
22	0xbe9d1ba7	-0.3068516
23	0xbf0a2e94	-0.5397732
24	0xbe34ccc3	-0.17656235
25	0x3ed73cde	0.42038625
26	0xbe09c08c	-0.13452357
27	0xbe11632e	-0.1419799
28	0xbe90ecd0	-0.28305674
29	0xbebcd5de	-0.36881918
30	0x3e852022	0.26001078
31	0x3ea86d75	0.3289601
32	0x3e9dc2ec	0.30812776
33	0x3e87362b	0.26408514
34	0xbf26fe28	-0.6523156
35	0xbc043ae8	-0.008070685
36	0xbefad2e7	-0.4898903
37	0x3f3f289a	0.7467133
38	0x3e9f85e8	0.3115685
39	0xbe41ee7c	-0.18938631
40	0xbe791376	-0.2432383
41	0xbd9f6df9	-0.077846475
42	0xbf12ac19	-0.5729385
43	0x3ec368a6	0.38165778
44	0x3d812998	0.063067615
45	0x3ea304f2	0.3183971
46	0xbef6c6d6	-0.48198575
47	0xbec1517c	-0.3775748
48	0x3ee0eb45	0.43929496
49	0x3f2595fe	0.64681995
50	0x3d4412ce	0.047869496
51	0x3e6d7ddb	0.23192541
52	0x3e6e56ca	0.23275295
53	0x3d84425b	0.06457969
54	0xbebc655d	-0.36796084
55	0xbf622476	-0.88336885
56	0x3d9eed23	0.07760074
57	0xbf7a63fe	-0.97808826
58	0xbd777c03	-0.060421
59	0xbf3b7273	-0.7322151
60	0xbd35a0ed	-0.044342924
61	0x3f17433a	0.59086955
62	0xbddd8754	-0.108168274
63	0xbda11244	-0.07864812
64	0x3f39b6c4	0.72544503
65	0xbdefcd03	-0.11709025
66	0xbd1a069c	-0.03760396
67	0xbe9db098	-0.30798793
68	0xbe96ae9b	-0.29430088
69	0x3c2c8fb2	0.0105323065
70	0xbe4024b7	-0.18764006
71	0x3f1290e1	0.5725232
72	0xbe096533	-0.1341751
73	0xbed45f04	-0.4147874
74	0x3d5a97a3	0.05336727
75	0x3ec9f20b	0.39442477
76	0x3e8edc39	0.27902392
77	0x3ed490c5	0.415167
78	0xbe644e5d	-0.22295518
79	0x3dc0614f	0.0939356
80	0xbd086828	-0.033302456
81	0x3f079a22	0.52969563
82	0xbe421613	-0.18953733
83	0xbe128911	-0.14310099
84	0x3e88adba	0.26695043
85	0x3de00627	0.109386735
86	0x3f39ceaf	0.72581
87	0x3ed00d36	0.4063508
88	0xbf1ab9c3	-0.604397
89	0x3d0d7973	0.03453965
90	0x3f6b5e8c	0.9194114
91	0xbd18313f	-0.03715634
92	0x3f1a975b	0.603872
93	0x3de098d5	0.109666504
94	0x3dd11e8d	0.10210905
95	0xbd93ad6c	-0.07210812
96	0xbe3b8b25	-0.18314798
97	0xbf4a2beb	-0.78973264
98	0xbed962bd	-0.42458144
99	0x3e19973d	0.14999099
100	0xbe6f8eb9	-0.23394288
101	0xbd060a5c	-0.032724723
102	0x3ef445f8	0.47709632
103	0xbc6932bb	-0.0142332865
104	0x3dab292a	0.08357461
105	0x3dbe6eae	0.09298454
106	0x3e14c254	0.14527255
107	0xbe5b41c7	-0.21411811
108	0x38f1f896	0.00011538078
109	0x3e28b7e5	0.164764
110	0x3e5ccd54	0.21562701
111	0xbeaf98c9	-0.34296253
112	0x3ecd881b	0.40142903
113	0xbe493be2	-0.1965175
114	0x3d62ca0a	0.05536846
115	0xbf3c8ccc	-0.7365234
116	0xbedbe21b	-0.42945942
117	0xbe83b611	-0.25724843
118	0x3f069380	0.5256882
119	0xbe65fa62	-0.22458795
120	0x3d4f96a2	0.050680764
121	0x3d9cdb5f	0.07659029
122	0x3bfd5e3e	0.007732182
123	0xbf01c196	-0.50686014
124	0xbe8392a9	-0.2569783
125	0x3d8bfb42	0.06835033
126	0xbd193a45	-0.037409086
127	0x3f30b708	0.69029284
128	0x3e8e6ce5	0.27817455
129	0x3ee673e8	0.45010304
130	0x3e6598f5	0.2242163
131	0x3e488cc0	0.19584942
132	0x3f18dd30	0.59712505
133	0xbe9a10da	-0.30090982
134	0x3d4de228	0.050264508
135	0xbd81811c	-0.06323454
136	0xbefd41aa	-0.4946416
137	0x3f4f47c5	0.80968887
138	0x3d3b8bcc	0.045787618
139	0xbf01fb9e	-0.5077456
140	0xbe93118c	-0.28724325
141	0xbe1e1396	-0.15437159
142	0xbec9b9ac	-0.3939947
143	0x3f161f93	0.5864193
144	0x3d3470bf	0.044052836
145	0x3f092ef0	0.53587246
146	0x3ce9a995	0.028523246
147	0x3eff0914	0.49811614
148	0xbf800dc3	-1.00042
149	0x3e1a3567	0.15059434
150	0x3e0f5beb	0.13999908
151	0xbcbcfe19	-0.023070382
152	0xbed07742	-0.40715986
153	0x3e7b84d9	0.24562396
154	0x3e43cf22	0.19121984
155	0xbd7d5359	-0.061847065
156	0xbe2496c6	-0.1607314
157	0xbcc604db	-0.024172237
158	0xbdcf04cc	-0.10108337
159	0xbebe1348	-0.37124085
160	0xbe515579	-0.20442761
161	0xbe959344	-0.29213917
162	0xbec6cbeb	-0.38827452
163	0xbf47a918	-0.7799239
164	0x3f4c4da7	0.7980599
165	0x3ec2f3ed	0.38076726
166	0x3e06df19	0.13171043
167	0x3c03ebe2	0.008051844
168	0xbf0c23c4	-0.54742074
169	0xbeef4350	-0.46731043
170	0xbf106acb	-0.56412953
171	0xbda9a500	-0.082834244
172	0xbe5487e7	-0.20754968
173	0x3e70882e	0.23489448
174	0x3ecf3fa8	0.40478253
175	0xbdd166ff	-0.10224723
176	0xbeb78278	-0.35841727
177	0x3e94c038	0.290529
178	0xbf661bb1	-0.89886004
179	0x3c7d41ff	0.015457629
180	0x3fb0bd25	1.3807722
181	0xbe9b6dee	-0.30357307
182	0x3f0f93f4	0.56085134
183	0x3e2e8463	0.17042689
184	0xbf2eab89	-0.6823049
185	0xbee71f8e	-0.45141262
186	0xbe87f0ec	-0.26550996
187	0xbdf7cb2c	-0.12099299
188	0xbe8f4d13	-0.2798849
189	0x3da8be6e	0.082394466
190	0x3f5f1380	0.8713913
191	0x3f592807	0.848267
192	0x3e2572f2	0.1615713
193	0xbeb13a1f	-0.34614655
194	0xbd9dc6be	-0.07703923
195	0xbe9d6fbd	-0.30749312
196	0xbf0e809a	-0.5566498
197	0x3ea996e1	0.33122924
198	0xbc854eee	-0.016272988
199	0x3eea0819	0.45709303
200	0xbed11eda	-0.4084385
201	0xbf09d901	-0.53846747
202	0xbc09d712	-0.008413093
203	0x3f836d75	1.0267779
204	0x3e970636	0.29496926
205	0xbe247259	-0.16059245
206	0xbd363254	-0.04448159
207	0x3eea23ab	0.45730338
208	0xbb542373	-0.0032369762
209	0x3f11fe80	0.5702896
210	0x3f226077	0.63428444
211	0xbb4ad53d	-0.0030949854
212	0x3e6fa025	0.23400934
213	0xbe861829	-0.26190308
214	0x3f09c456	0.5381521
215	0xbed14f91	-0.40881017
216	0xbed6b096	-0.419316
217	0xbe3bc72d	-0.18337698
218	0xbe8b6cba	-0.2723139
219	0xbd959846	-0.073044345
220	0xbe549153	-0.20758562
221	0xbf205a6d	-0.6263798
222	0xbdbe821c	-0.0930216
223	0x3e7d42d0	0.24732518
224	0x3f867721	1.0505105
225	0x3c522588	0.012826331
226	0x3e9afcba	0.3027094
227	0xbf0705a6	-0.52742994
228	0xbe7b198e	-0.24521467
229	0x3e8398d2	0.2570253
230	0x3e089659	0.13338603
231	0xbda4e42d	-0.080513336
232	0xbc7635f6	-0.015027514
233	0xbedf4185	-0.43604675
234	0x3e1cbf77	0.15307413
235	0x3dfe9287	0.124302916
236	0xbf0fd530	-0.56184673
237	0x3e479c48	0.1949321
238	0x3f17b518	0.592607
239	0x3d64fab6	0.05590316
240	0x3f18959f	0.59603304
241	0x3ec8c75c	0.392146
242	0x3ef29253	0.47377262
243	0xbb096d22	-0.002096959
244	0xbf21c521	-0.6319142
245	0xbd021b4b	-0.03176431
246	0x3e99f1b8	0.3006723
247	0xbee4ccb1	-0.44687417
248	0x3cc10801	0.023563387
249	0x3ed5dc51	0.4176965
250	0xbe05ce1a	-0.13066903
251	0xbe14bb84	-0.14524657
252	0x3f0e089b	0.5548188
253	0xbe3a7cc5	-0.18211658
254	0x3e0d45f0	0.1379621
255	0xbf0c0030	-0.54687786

network_body._body_endoder.seq_layers.0.bias f4 [128]
0	0x00000000	0.0
1	0x00000000	0.0
2	0x00000000	0.0
3	0x00000000	0.0
4	0x00000000	0.0
5	0x00000000	0.0
6	0x00000000	0.0
7	0x00000000	0.0
8	0x00000000	0.0
9	0x00000000	0.0
10	0x00000000	0.0
11	0x00000000	0.0
12	0x00000000	0.0
13	0x00000000	0.0
14	0x00000000	0.0
15	0x00000000	0.0
16	0x00000000	0.0
17	0x00000000	0.0
18	0x00000000	0.0
19	0x00000000	0.0
20	0x00000000	0.0
21	0x00000000	0.0
22	0x00000000	0.0
23	0x00000000	0.0
24	0x00000000	0.0
25	0x00000000	0.0
26	0x00000000	0.0
27	0x00000000	0.0
28	0x00000000	0.0
29	0x00000000	0.0
30	0x00000000	0.0
31	0x00000000	0.0
32	0x00000000	0.0
33	0x00000000	0.0
34	0x00000000	0.0
35	0x00000000	0.0
36	0x00000000	0.0
37	0x00000000	0.0
38	0x00000000	0.0
39	0x00000000	0.0
40	0x00000000	0.0
41	0x00000000	0.0
42	0x00000000	0.0
43	0x00000000	0.0
44	0x00000000	0.0
45	0x00000000	0.0
46	0x00000000	0.0
47	0x00000000	0.0
48	0x00000000	0.0
49	0x00000000	0.0
50	0x00000000	0.0
51	0x00000000	0.0
52	0x00000000	0.0
53	0x00000000	0.0
54	0x00000000	0.0
55	0x00000000	0.0
56	0x00000000	0.0
57	0x00000000	0.0
58	0x00000000	0.0
59	0x00000000	0.0
60	0x00000000	0.0
61	0x00000000	0.0
62	0x00000000	0.0
63	0x00000000	0.0
64	0x00000000	0.0
65	0x00000000	0.0
66	0x00000000	0.0
67	0x00000000	0.0
68	0x00000000	0.0
69	0x00000000	0.0
70	0x00000000	0.0
71	0x00000000	0.0
72	0x00000000	0.0
73	0x00000000	0.0
74	0x00000000	0.0
75	0x00000000	0.0
76	0x00000000	0.0
77	0x00000000	0.0
78	0x00000000	0.0
79	0x00000000	0.0
80	0x00000000	0.0
81	0x00000000	0.0
82	0x00000000	0.0
83	0x00000000	0.0
84	0x00000000	0.0
85	0x00000000	0.0
86	0x00000000	0.0
87	0x00000000	0.0
88	0x00000000	0.0
89	0x00000000	0.0
90	0x00000000	0.0
91	0x00000000	0.0
92	0x00000000	0.0
93	0x00000000	0.0
94	0x00000000	0.0
95	0x00000000	0.0
96	0x00000000	0.0
97	0x00000000	0.0
98	0x00000000	0.0
99	0x00000000	0.0
100	0x00000000	0.0
101	0x00000000	0.0
102	0x00000000	0.0
103	0x00000000	0.0
104	0x00000000	0.0
105	0x00000000	0.0
106	0x00000000	0.0
107	0x00000000	0.0
108	0x00000000	0.0
109	0x00000000	0.0
110	0x00000000	0.0
111	0x00000000	0.0
112	0x00000000	0.0
113	0x00000000	0.0
114	0x00000000	0.0
115	0x00000000	0.0
116	0x00000000	0.0
117	0x00000000	0.0
118	0x00000000	0.0
119	0x00000000	0.0
120	0x00000000	0.0
121	0x00000000	0.0
122	0x00000000	0.0
123	0x00000000	0.0
124	0x00000000	0.0
125	0x00000000	0.0
126	0x00000000	0.0
127	0x00000000	0.0

network_body._body_endoder.seq_layers.2.weight f4 [128, 128]
0	0x3d14ec57	0.036358204
1	0xbd1e090e	-0.038582854
2	0x3d354cb3	0.0442626
3	0x3d9a5b38	0.0753693
4	0xbd9f86e5	-0.07789401
5	0x3c88ad8c	0.016684316
6	0x3cfafdc7	0.030638589
7	0xbd95ab19	-0.07308025
8	0x3e246ee6	0.1605793
9	0x3cb2fddd	0.021849567
10	0xbca3fe0b	-0.020018598
11	0x3d640cf9	0.055676434
12	0xbda4803c	-0.08032271
13	0xbc9ca2cd	-0.019120598
14	0x3de38487	0.11109262
15	0xbdab5f6e	-0.08367811
16	0xbd92abb8	-0.07161659
17	0xbcdfd89e	-0.02732497
18	0x3da842a7	0.08215838
19	0xbc30b52f	-0.010785385
20	0x3babf589	0.005247776
21	0x3d83afb2	0.064299956
22	0xbe7c9bc2	-0.24668792
23	0x3d30164b	0.04299001
24	0x3dab25c6	0.08356814
25	0xbd90ddf2	-0.07073583
26	0x3d63c309	0.055605922
27	0xbde0f027	-0.109833054
28	0xbd1c2ad0	-0.038126767
29	0x3d527f12	0.051390715
30	0x3ceaccb7	0.028662069
31	0x3dc41536	0.09574358
32	0xbd93c544	-0.0721536
33	0x3d0125cd	0.03153019
34	0x3d3637ae	0.044486694
35	0xbc099144	-0.00839645
36	0x3d4616f5	0.048361737
37	0x3d32dd2f	0.04366797
38	0xbd480507	-0.04883292
39	0x3e03d143	0.12872796
40	0xbd6457ad	-0.055747677
41	0xbdc21ea3	-0.094785
42	0xbddc66bd	-0.10761783
43	0x3dfd08a7	0.12355166
44	0x3c579f4a	0.013160536
45	0x3d826577	0.06367009
46	0x3dda0d3c	0.106470555
47	0x3d887594	0.06663051
48	0xbe1d3946	-0.1535388
49	0xbd9f70a4	-0.07785156
50	0x3e0980ea	0.13428083
51	0xbd6e902f	-0.058242973
52	0x3df0df5e	0.11761354
53	0x3db3c028	0.08776885
54	0x3da1e417	0.07904833
55	0x3cd19138	0.025581941
56	0x3caa7884	0.02080942
57	0xbdb6ec46	-0.08931784
58	0x3e1d8e3d	0.15386291
59	0x3c471698	0.012151383
60	0x3d541141	0.051774267
61	0xbb450295	-0.0030061353
62	0xbe4221dc	-0.18958229
63	0xbd5722fd	-0.0525236
64	0xbc52800f	-0.012847914
65	0x3ccc84bd	0.024965638
66	0x3c8ecd4c	0.017431878
67	0xbe3345fb	-0.17507164
68	0xbd9308ab	-0.07179388
69	0x3d7f0d95	0.062268812
70	0xbc560cbe	-0.013064561
71	0xbd8452b3	-0.06461086
72	0x3cf1beb8	0.029509887
73	0x3baf7755	0.0053548017
74	0xbdf86d97	-0.121302776
75	0x3e09f12f	0.1347091
76	0x3d1ffdd3	0.039060425
77	0x3d75e65b	0.060034137
78	0xbd907279	-0.07053084
79	0x3cbc0d3d	0.022955531
80	0x3d079461	0.03310049
81	0xbd368af9	-0.04456613
82	0x3e19ef4c	0.15032691
83	0x3d0b3a40	0.0339911
84	0x3d5dbd00	0.054135323
85	0x3d735d21	0.059414987
86	0x3d536a52	0.051615067
87	0xbcfc02b0	-0.030763
88	0xbe01b158	-0.12665308
89	0x3d59b6fd	0.053153027
90	0x3dc3f70c	0.09568605
91	0xbd948b62	-0.07253148
92	0x3d5accfa	0.053418137
93	0x3d81896c	0.06325039
94	0xbe32bfd3	-0.17455988
95	0x3de9c657	0.114147834
96	0xbaa165fa	-0.0012313717
97	0x3cd5098b	0.026005527
98	0xbb2acdce	-0.002606261
99	0xbd1c019b	-0.03808747
100	0xbd963fb2	-0.07336368
101	0xbd4760ec	-0.048676416
102	0x3e325b01	0.17417528
103	0x3bc0b45c	0.0058808755
104	0x3d852a4a	0.065022066
105	0x3dcd2a65	0.10017852
106	0xbdbb5f32	-0.091490164
107	0xbdf44297	-0.119267635
108	0x3d86fdbd	0.065913655
109	0x3d849526	0.0647376
110	0xbcdc5225	-0.026894638
111	0xbd7de0b9	-0.06198189
112	0xbd1e1ce3	-0.038601767
113	0x3deba0ee	0.11505304
114	0x3e3ae03a	0.18249598
115	0x3e33102a	0.17486635
116	0x3e0c0263	0.13672785
117	0xbc293724	-0.010328088
118	0xbb01c5ec	-0.0019801809
119	0x3e3f1611	0.18660761
120	0x3d27fedb	0.041014533
121	0xbdcf8ace	-0.10133897
122	0xbc506cfb	-0.0127212955
123	0x3d189bdc	0.037258014
124	0x3db7ad8c	0.08968648
125	0x3c0feaeb	0.008784036
126	0xbc0145a1	-0.007890136
127	0x3c120ca0	0.008914143
128	0x3e037727	0.12838422
129	0x3da62c7c	0.081139535
130	0xbd478d8b	-0.04871897
131	0xbd0f48ec	-0.034981653
132	0xbd94ad47	-0.072596125
133	0xbcf63614	-0.030055083
134	0xbd57cfd1	-0.052688424
135	0xbd95af5b	-0.07308837
136	0x3e105a44	0.14096934
137	0x3d80d2d6	0.06290214
138	0xbd9101f3	-0.0708045
139	0xbcdd48e9	-0.027012305
140	0x3d4ff862	0.050773986
141	0x3d05807a	0.032593228
142	0x3e077c0e	0.13230917
143	0xbdc0272d	-0.09382472
144	0xbe26d722	-0.16293004
145	0x3d2404cc	0.040043637
146	0xbda11155	-0.07864634
147	0xbd94a899	-0.0725872
148	0x3de48f76	0.111601755
149	0x3d774f05	0.060378093
150	0x3d03ae3c	0.032148585
151	0xba68ccac	-0.0008880596
152	0x3d991ff0	0.07476795
153	0x3db16264	0.08661345
154	0xbbd1b5af	-0.006399832
155	0x3de5e047	0.11224418
156	0x3dc8787f	0.09788608
157	0xbd03b850	-0.032158196
158	0x3e5e0d67	0.216848
159	0x3dbaab0a	0.09114654
160	0xbd46426f	-0.0484032
161	0xbdb01711	-0.085981496
162	0x3e1750bd	0.14776893
163	0x3d7217c5	0.0591047
164	0xbdf37f02	-0.11889459
165	0xbd30cdb1	-0.043164913
166	0xbba95c25	-0.005168455
167	0xbe5e19d9	-0.21689548
168	0xbd4e7299	-0.050402258
169	0xbe59004d	-0.21191521
170	0xbe33d19f	-0.17560433
171	0xbc6c5ad4	-0.014425952
172	0x3d419a68	0.047266394
173	0x3d3349f8	0.043771714
174	0x3d799364	0.06093158
175	0x3c6d8b3a	0.014498526
176	0xbc8f6337	-0.017503364
177	0x3d8dab19	0.069174
178	0x3dc6f73d	0.09715126
179	0xbcc0f648	-0.023554936
180	0xbe8aac9c	-0.27084816
181	0xbdb98159	-0.09057874
182	0x3d5158c1	0.051110033
183	0xbe4db419	-0.20088233
184	0xbcc1b340	-0.023645043
185	0x3d5d0c76	0.05396696
186	0x3dbc4058	0.0919196
187	0xbd1cdfe1	-0.038299445
188	0xbcc8dfe2	-0.024520818
189	0xbda177b4	-0.0788416
190	0x3b247319	0.0025093018
191	0xbbc2ed0b	-0.005948668
192	0xbe103267	-0.14081727
193	0x3d3df984	0.046380535
194	0xbdb1edc8	-0.08687931
195	0x3dae9645	0.085247554
196	0x3c5dd335	0.013539125
197	0xbd1d9280	-0.03846979
198	0xbcc83965	-0.02444143
199	0xbdea3498	-0.11435813
200	0x3d33b52e	0.04387396
201	0xbe26cef6	-0.16289887
202	0xbe2a9220	-0.16657305
203	0x3e2b4af0	0.16727805
204	0xbdcd2c7a	-0.10018249
205	0x3e843b27	0.2582638
206	0xbcb54c4c	-0.022131108
207	0x3ca26165	0.019821832
208	0x3dce4234	0.10071221
209	0x3ca0fbbe	0.01965129
210	0x3d01a088	0.031647235
211	0x3db9537a	0.09049125
212	0x3de50937	0.11183398
213	0xbd966ae0	-0.073446035
214	0x3e2e5e0e	0.17028067
215	0x3d53261f	0.051550027
216	0x3dcf6d4c	0.101282686
217	0xbd3b0a45	-0.04566409
218	0xbb5a4251	-0.0033303688
219	0x3d98557b	0.07438179
220	0xbc8078cc	-0.0156826
221	0xbc149abf	-0.0090700975
222	0x3e4d225a	0.20032635
223	0xbcf41fe4	-0.029800363
224	0xbc8f0f61	-0.017463388
225	0xbd027f71	-0.03185982
226	0x3ca9396f	0.02065727
227	0x3e6b01e3	0.22949938
228	0x3cfc2435	0.030778984
229	0x3db74013	0.08947768
230	0x3db4091f	0.08790802
231	0xbe09c6f4	-0.13454801
232	0x3cf1390c	0.029446147
233	0x3d12eac8	0.035868436
234	0x3d26bacd	0.04070549
235	0xbd8152de	-0.06314634
236	0x3da90df8	0.082546175
237	0xbdc6891b	-0.096941195
238	0x3e3375ed	0.17525454
239	0xbd07089e	-0.032967202
240	0x3b1b9aaa	0.002374331
241	0x3da22eeb	0.07919105
242	0xbdfc28fb	-0.12312504
243	0x3d062e8c	0.032759234
244	0xbe017a47	-0.12644301
245	0x3da3f4a4	0.08005646
246	0xbe1ab06e	-0.15106365
247	0xbd6d51db	-0.05793939
248	0xbd980132	-0.07422103
249	0xbdaaae47	-0.08334022
250	0xbb7576ef	-0.0037454923
251	0xbce3dece	-0.027816202
252	0x3c5e392e	0.013563437
253	0xbd7a6d21	-0.06113923
254	0x3d43d334	0.04780884
255	0xbd49939d	-0.04921304

network_body._body_endoder.seq_layers.2.bias f4 [128]
0	0x00000000	0.0
1	0x00000000	0.0
2	0x00000000	0.0
3	0x00000000	0.0
4	0x00000000	0.0
5	0x00000000	0.0
6	0x00000000	0.0
7	0x00000000	0.0
8	0x00000000	0.0
9	0x00000000	0.0
10	0x00000000	0.0
11	0x00000000	0.0
12	0x00000000	0.0
13	0x00000000	0.0
14	0x00000000	0.0
15	0x00000000	0.0
16	0x00000000	0.0
17	0x00000000	0.0
18	0x00000000	0.0
19	0x00000000	0.0
20	0x00000000	0.0
21	0x00000000	0.0
22	0x00000000	0.0
23	0x00000000	0.0
24	0x00000000	0.0
25	0x00000000	0.0
26	0x00000000	0.0
27	0x00000000	0.0
28	0x00000000	0.0
29	0x00000000	0.0
30	0x00000000	0.0
31	0x00000000	0.0
32	0x00000000	0.0
33	0x00000000	0.0
34	0x00000000	0.0
35	0x00000000	0.0
36	0x00000000	0.0
37	0x00000000	0.0
38	0x00000000	0.0
39	0x00000000	0.0
40	0x00000000	0.0
41	0x00000000	0.0
42	0x00000000	0.0
43	0x00000000	0.0
44	0x00000000	0.0
45	0x00000000	0.0
46	0x00000000	0.0
47	0x00000000	0.0
48	0x00000000	0.0
49	0x00000000	0.0
50	0x00000000	0.0
51	0x00000000	0.0
52	0x00000000	0.0
53	0x00000000	0.0
54	0x00000000	0.0
55	0x00000000	0.0
56	0x00000000	0.0
57	0x00000000	0.0
58	0x00000000	0.0
59	0x00000000	0.0
60	0x00000000	0.0
61	0x00000000	0.0
62	0x00000000	0.0
63	0x00000000	0.0
64	0x00000000	0.0
65	0x00000000	0.0
66	0x00000000	0.0
67	0x00000000	0.0
68	0x00000000	0.0
69	0x00000000	0.0
70	0x00000000	0.0
71	0x00000000	0.0
72	0x00000000	0.0
73	0x00000000	0.0
74	0x00000000	0.0
75	0x00000000	0.0
76	0x00000000	0.0
77	0x00000000	0.0
78	0x00000000	0.0
79	0x00000000	0.0
80	0x00000000	0.0
81	0x00000000	0.0
82	0x00000000	0.0
83	0x00000000	0.0
84	0x00000000	0.0
85	0x00000000	0.0
86	0x00000000	0.0
87	0x00000000	0.0
88	0x00000000	0.0
89	0x00000000	0.0
90	0x00000000	0.0
91	0x00000000	0.0
92	0x00000000	0.0
93	0x00000000	0.0
94	0x00000000	0.0
95	0x00000000	0.0
96	0x00000000	0.0
97	0x00000000	0.0
98	0x00000000	0.0
99	0x00000000	0.0
100	0x00000000	0.0
101	0x00000000	0.0
102	0x00000000	0.0
103	0x00000000	0.0
104	0x00000000	0.0
105	0x00000000	0.0
106	0x00000000	0.0
107	0x00000000	0.0
108	0x00000000	0.0
109	0x00000000	0.0
110	0x00000000	0.0
111	0x00000000	0.0
112	0x00000000	0.0
113	0x00000000	0.0
114	0x00000000	0.0
115	0x00000000	0.0
116	0x00000000	0.0
117	0x00000000	0.0
118	0x00000000	0.0
119	0x00000000	0.0
120	0x00000000	0.0
121	0x00000000	0.0
122	0x00000000	0.0
123	0x00000000	0.0
124	0x00000000	0.0
125	0x00000000	0.0
126	0x00000000	0.0
127	0x00000000	0.0

action_model._continuous_distribution.log_sigma f4 [1, 2]
0	0x00000000	0.0
1	0x00000000	0.0

action_model._continuous_distribution.mu.weight f4 [2, 128]
0	0xbc278fcc	-0.010227155
1	0x3bc368f7	0.0059634405
2	0xbb236d78	-0.0024937075
3	0x3cb0f9eb	0.021603545
4	0xbc8188ca	-0.015812296
5	0xbcad9993	-0.021191394
6	0x3c59e282	0.013298633
7	0x3c77d525	0.015126501
8	0xbce8a9b0	-0.028401226
9	0x3c534ffb	0.012897487
10	0x3c5d0fa2	0.013492497
11	0x3cddd3dd	0.027078563
12	0xbccc8433	-0.024965381
13	0xbd0f48a8	-0.0349814
14	0xbc35473b	-0.011064346
15	0x3c832c6d	0.016012395
16	0x3cb71cc3	0.022352582
17	0x3b89c24a	0.0042040693
18	0x3ccd048d	0.025026584
19	0xbb819990	-0.0039550737
20	0x3cd49f07	0.025954736
21	0x3d367631	0.04454631
22	0xbc441187	-0.0119670695
23	0x39d69693	0.00040929447
24	0x3cbe2767	0.023212148
25	0xbc05b5ef	-0.008161052
26	0xbc34bf9b	-0.01103201
27	0x3a9bab32	0.0011876582
28	0x3c9b39d7	0.018948479
29	0x3bdd1b7b	0.0067476607
30	0x3b4e2740	0.00314565
31	0x3c818e0b	0.015814802
32	0x3d22c208	0.039735824
33	0x3cb09098	0.021553323
34	0xbcc040d3	-0.02346841
35	0xbcc44671	-0.02395937
36	0x3c814db2	0.015784118
37	0x3d0cecbc	0.034405455
38	0x3c4e825f	0.012604325
39	0x3c8d93c0	0.017282367
40	0x3c0cbf4d	0.008590532
41	0xbb94ea80	-0.004544556
42	0xbcfb2c3f	-0.030660747
43	0x3cccf0af	0.02501711
44	0xbb22141c	-0.0024731224
45	0xbc10cf71	-0.00883852
46	0xbc2dfd3c	-0.010619458
47	0x3b49292a	0.0030694702
48	0x3cade4e0	0.0212273
49	0xbca84c87	-0.020544304
50	0x3c95ca6f	0.018285004
51	0x3ccac2aa	0.024751026
52	0x3c1015b0	0.008794233
53	0x3d2f364d	0.042776395
54	0xb9982ab5	-0.00029023518
55	0xbcbd6951	-0.023121508
56	0x3c21afc7	0.009868569
57	0xbd00bfb7	-0.031432834
58	0xbb1253b6	-0.0022327728
59	0xbb353892	-0.0027652127
60	0xbcbae377	-0.022813542
61	0xbbdc4b2a	-0.0067228274
62	0x3c00037b	0.00781333
63	0x3c0e540f	0.008687033
64	0xb9ec01b8	-0.00045014708
65	0x3bd8b70f	0.006613619
66	0x3be8c05d	0.0071030096
67	0x3c5087dd	0.012727705
68	0xbc5a83e2	-0.013337107
69	0xbc1f18ae	-0.009710474
70	0xbcd34ebf	-0.025794385
71	0x3c38df4f	0.01128371
72	0x3c51027f	0.012756943
73	0xbc63f107	-0.013912446
74	0x3cf4545f	0.029825388
75	0x3bbdc1d7	0.00579093
76	0x3c45f9eb	0.012083511
77	0x3c75708a	0.014980445
78	0x3c41bbfe	0.011824606
79	0x3bccdcfa	0.0062519284
80	0x3ce9f09d	0.028557116
81	0xbcefdcad	-0.029280031
82	0xbbd2af8d	-0.0064296187
83	0x3c25859b	0.010102655
84	0x3d08301b	0.033249002
85	0x3b21e0cb	0.0024700637
86	0xbb1d4f63	-0.0024003617
87	0xbb83c75a	-0.0040215673
88	0xbcf6e773	-0.03013966
89	0xbcf2e85f	-0.029651819
90	0x39a6c77e	0.0003181062
91	0x3c51d643	0.012807432
92	0xbb86edc5	-0.0041177
93	0x3cbd2387	0.02308823
94	0xbc77a2aa	-0.015114466
95	0xbb975cb0	-0.0046192035
96	0x3cbca1af	0.023026315
97	0x3bb3e469	0.005489875
98	0x3aa49a34	0.0012558163
99	0xbc7e41b8	-0.015518598
100	0x3c04f9e4	0.008116219
101	0xbadd72c2	-0.0016895162
102	0xbc998786	-0.01874138
103	0xbc1686f3	-0.009187448
104	0x3cc2d5b7	0.023783548
105	0x3a810e1f	0.0009846127
106	0x3ae3a832	0.0017368852
107	0xbd48106b	-0.048843782
108	0x3cb1298c	0.021626256
109	0x3c18792b	0.009306232
110	0xbad0181a	-0.0015876323
111	0xbca0e905	-0.019642362
112	0xbd0eeb53	-0.03489239
113	0x3ce4d643	0.0279342
114	0xbb283021	-0.0025663453
115	0xbce94e75	-0.028479794
116	0x3c8390e7	0.016060306
117	0xbc1a1360	-0.009404033
118	0xbc877487	-0.016535057
119	0xbc9b6407	-0.018968595
120	0xbc57c1f0	-0.013168797
121	0xbc9e1e6b	-0.019301614
122	0xbc677825	-0.014127766
123	0x3bfe2f0d	0.0077570737
124	0xbd165c9f	-0.036709424
125	0xbc77a175	-0.015114178
126	0xbc93b3f3	-0.018030142
127	0xbbcd074d	-0.006256974
128	0x3ba75b6f	0.0051073353
129	0x3b78c2b0	0.003795784
130	0x3c639078	0.0138894245
131	0xbc21e46d	-0.009881121
132	0xbc04bc8f	-0.0081015965
133	0xbc80de07	-0.01573087
134	0x3bf4b970	0.007468395
135	0xbc875a42	-0.01652253
136	0x3caeaf9e	0.021323975
137	0x3c1331c5	0.008984034
138	0x3cd33f47	0.025787009
139	0x3ca584fc	0.020205013
140	0x3d08a4c3	0.033360254
141	0x3c5c32dd	0.013439861
142	0xbc44ce5b	-0.01201209
143	0x373c98d5	1.1241257e-05
144	0x3cf70ea5	0.03015835
145	0x3cb21077	0.021736367
146	0xbb68ffdd	-0.0035552897
147	0xbc97c45b	-0.018526247
148	0xbbb8c82e	-0.0056390977
149	0xbca4c3cb	-0.020112893
150	0xbbaea0db	-0.005329234
151	0x3c92248d	0.017839694
152	0x3b98c281	0.0046618585
153	0x3c7d087a	0.0154439155
154	0xbd1b9bc5	-0.03799035
155	0x3cb24876	0.021763068
156	0xbc6283f3	-0.013825404
157	0xbc802bb9	-0.015645849
158	0xbcb00e8b	-0.02149131
159	0x3cea3a75	0.028592328
160	0x3b08e8f6	0.0020890809
161	0xbcc4c1d6	-0.02401821
162	0x3c2a980a	0.0104122255
163	0x3c5b5d03	0.013388875
164	0x3b7ef905	0.0038905751
165	0xbcc811fa	-0.024422634
166	0x3bb952f9	0.005655643
167	0xbc40be1d	-0.011764077
168	0x3ca1e7af	0.019763796
169	0x3cdd1c67	0.026991082
170	0xbb4067a2	-0.0029358645
171	0xbcd61cd5	-0.026136795
172	0xbc8cf4c9	-0.017206566
173	0x3cf51ddd	0.029921466
174	0xbc50cca5	-0.012744104
175	0xbbe7ec85	-0.007077756
176	0x3c51866a	0.0127883945
177	0x3ad6275b	0.0016338633
178	0x3c8d5a9b	0.017255118
179	0xbae55f7b	-0.0017499769
180	0xbb7cbaa3	-0.0038563393
181	0x3c564927	0.013078964
182	0xba59e772	-0.0008312381
183	0xbc6aeb32	-0.0143383015
184	0x3b9190e3	0.0044423207
185	0x3b915136	0.00443473
186	0xbc8be3f3	-0.017076468
187	0xba75138b	-0.00093489204
188	0xbcef91d7	-0.029244347
189	0xbcdb8e20	-0.026801169
190	0x3c1d55cd	0.009602976
191	0xbbe4eb43	-0.006986053
192	0xbcd1036b	-0.025514325
193	0x3ca39538	0.019968614
194	0xbca81a55	-0.020520369
195	0xbc7c3e55	-0.0153957205
196	0x3c9ec8a3	0.01938278
197	0x3ca3d21d	0.01999765
198	0xbb52e58f	-0.0032180285
199	0x3cc94d47	0.024572982
200	0xbb825aad	-0.0039780946
201	0x3c5db7ad	0.013532561
202	0xbbcf9a22	-0.0063355127
203	0xbbe996db	-0.007128579
204	0xbacd4dc5	-0.0015663436
205	0xbca9e98b	-0.020741245
206	0x3bb9ba37	0.0056679505
207	0x3a97ea1e	0.0011590158
208	0x3c83bf23	0.016082352
209	0x3c72808b	0.014801155
210	0x3c647bd3	0.013945538
211	0x3b0cab2c	0.002146433
212	0xbd03bd7c	-0.03216313
213	0x3c1d5036	0.009601643
214	0x3ba9e951	0.005185284
215	0xbbb90e25	-0.005647438
216	0x3d08f36d	0.033435274
217	0xbc83d8af	-0.016094534
218	0xbc69f08f	-0.014278545
219	0xba855993	-0.001017379
220	0x3ca44f54	0.020057358
221	0x3b9e781b	0.004836095
222	0xbb076f1f	-0.0020665599
223	0x3b2e5dc5	0.0026606184
224	0x3b5c0d0a	0.0033577108
225	0x3d1c133b	0.038104277
226	0xbc916826	-0.017749857
227	0xbb9e9bb0	-0.0048403367
228	0x3c01527e	0.007893203
229	0x3c9b6a11	0.018971475
230	0xbc8710c0	-0.01648748
231	0x3c9a4131	0.018829914
232	0x3baef7c8	0.0053395964
233	0xbd02a5c3	-0.031896364
234	0x3c0f61af	0.008751317
235	0xbbcfdb72	-0.0063432986
236	0x3c928da8	0.017889813
237	0x3c908bce	0.01764479
238	0xbca0f8ef	-0.01964995
239	0xbba9ba41	-0.005179674
240	0xbbd1af28	-0.006399054
241	0x3ca4f3a9	0.020135717
242	0x3c3cb2c7	0.011517233
243	0x3b858378	0.00407451
244	0x3c1cdec9	0.0095746005
245	0x3b3a342b	0.0028412442
246	0x3c5ee0ef	0.013603433
247	0xba47079b	-0.0007592381
248	0xbac9005f	-0.0015335194
249	0x3c1cd17e	0.009571431
250	0x3ba14be8	0.004922379
251	0x3ccb539f	0.024820147
252	0xbb5d0e55	-0.0033730466
253	0xbc1da93a	-0.009622866
254	0x3d061b27	0.03274074
255	0xbc003a47	-0.007826394

action_model._continuous_distribution.mu.bias f4 [2]
0	0x00000000	0.0
1	0x00000000	0.0

network_body._body_endoder.seq_layers.0.weight f4 [128, 6]
0	0x3e4b2922	0.1983991
1	0xbe48d51e	-0.19612548
2	0x3df1ae48	0.1180082
3	0xbf453be7	-0.7704453
4	0x3e5dda43	0.21665291
5	0xbe9fe5f5	-0.3123013
6	0x3ebed72a	0.37273532
7	0x3ed2975f	0.41131112
8	0xbea1a7dd	-0.31573382
9	0xbfb39827	-1.4030808
10	0xbeb2f8bb	-0.3495539
11	0x3cd9e00b	0.02659609
12	0xbf0f4d63	-0.5597746
13	0xbeae8ca3	-0.34091672
14	0x3e9457a5	0.28973117
15	0xbe8d8374	-0.27639353
16	0xbe675b93	-0.22593527
17	0xbe527f7d	-0.20556445
18	0xbe909697	-0.2823989
19	0xbe57aaac	-0.210612
20	0x3f751ce5	0.95747215
21	0x3e9c7ea5	0.30565372
22	0xbd85786a	-0.06517108
23	0x3f76f94b	0.9647414
24	0x3ef0f5b5	0.4706246
25	0x3e682575	0.22670539
26	0x3e606109	0.21912016
27	0x3d2e358d	0.04253154
28	0x3f200acb	0.6251647
29	0x3ef3a801	0.47589114
30	0x3e91f233	0.28505096
31	0xbdf34a46	-0.11879401
32	0xbea8e7bf	-0.32989308
33	0x3e9e8c4d	0.30966416
34	0xbf5091e5	-0.8147262
35	0x3ef88335	0.48537603
36	0x3f6ce688	0.9253926
37	0xbf27119c	-0.65261245
38	0xbef74975	-0.4829823
39	0x3f01e41b	0.50738686
40	0xbf01163d	-0.5042456
41	0x3e761dc4	0.24034792
42	0x3db73e52	0.089474335
43	0xbf05af37	-0.5222048
44	0x3c9308b0	0.017948478
45	0x3f1a2034	0.6020539
46	0xbdcc63dd	-0.09979985
47	0xbeb33422	-0.35000712
48	0x3e66ad57	0.22527061
49	0xbe21b48d	-0.15791531
50	0x3e123b5d	0.14280458
51	0xbecbeed4	-0.3983065
52	0xbf1f1b34	-0.62150884
53	0x3ea30b73	0.31844673
54	0xbe80a340	-0.2512455
55	0xbe626b56	-0.22111258
56	0xbe06fc44	-0.13182169
57	0x3e345615	0.17610963
58	0x3f56bb96	0.83879983
59	0x3eb68d17	0.35654518
60	0xbe22f50d	-0.15913792
61	0x3f43d304	0.7649386
62	0xbee8372f	-0.45354602
63	0xbf24fb60	-0.6444607
64	0xbd43d97d	-0.047814835
65	0x3f00f47c	0.50373054
66	0xbd514fd4	-0.05110152
67	0xbe3eb524	-0.18623787
68	0x3f6998f9	0.9124904
69	0x3df45b0f	0.119314305
70	0xbe547a8a	-0.2074987
71	0xbf3f493c	-0.7472112
72	0xbefa774e	-0.48919147
73	0xbe2efc23	-0.1708837
74	0x3f26851b	0.6504685
75	0xbe4e8e22	-0.20171407
76	0xbe1a4fba	-0.15069476
77	0xbeb7934c	-0.35854566
78	0x3eb3f443	0.35147294
79	0x3e0ae15e	0.13562533
80	0x3e82691f	0.25470826
81	0xbf058b2b	-0.5216548
82	0xbe622f20	-0.2208829
83	0xbe10c09e	-0.14135978
84	0xbf528745	-0.82237655
85	0x3e258a18	0.1616596
86	0xbe7618a8	-0.24032843
87	0xbee2612a	-0.44214755
88	0x3f5448a6	0.8292335
89	0xbe002c11	-0.1251681
90	0xbd062240	-0.032747507
91	0x3e694692	0.22780827
92	0xbe7177de	-0.23580882
93	0xbcc246fd	-0.02371549
94	0xbe66febf	-0.22558115
95	0x3ec9b58c	0.39396322
96	0xbc2896d3	-0.010289866
97	0x3e3a651f	0.18202637
98	0x3e87f22f	0.2655196
99	0xbf3fd0b0	-0.74927807
100	0xbe4aa37d	-0.19788928
101	0xbe71948c	-0.23591822
102	0x3cdb0b59	0.02673881
103	0x3f08f9d2	0.53506196
104	0x3f89bd78	1.0760946
105	0x3f4646dc	0.7745187
106	0x3f082aa9	0.53190094
107	0x3eceeeb7	0.404165
108	0xbe912439	-0.28347948
109	0x3d7524eb	0.05984966
110	0xbf3dec53	-0.7418873
111	0x3e0a86d7	0.13528
112	0x3ed8ba07	0.42329428
113	0x3f3e82aa	0.7441813
114	0x3ed60660	0.4180174
115	0x3ed0c252	0.40773255
116	0xbd9c546d	-0.076332904
117	0xbe1bb680	-0.15206337
118	0x3f0787b2	0.5294143
119	0xbe516db5	-0.20452006
120	0xbf043c08	-0.516541
121	0xbf3ff6a7	-0.74985737
122	0xbe8efc17	-0.27926704
123	0xbd4d1ddf	-0.050077315
124	0x3e65c8c6	0.2243987
125	0xbd8d4b3a	-0.06899114
126	0x3f2e3f8f	0.6806573
127	0x3e5607b3	0.20901375
128	0xbe149aa4	-0.14512116
129	0x3c04cb1c	0.008105066
130	0xbe7297bd	-0.23690696
131	0xbc3e312a	-0.011608401
132	0x3e637fce	0.22216722
133	0xbf5d326b	-0.86405057
134	0x3c8a321e	0.0168696
135	0x3f16a1fe	0.5884093
136	0xbe2bb7ea	-0.16769376
137	0x3f329486	0.6975788
138	0x3e14a3ac	0.14515561
139	0xbeaa5f7d	-0.33275977
140	0x3e060e1e	0.13091323
141	0x3e7cb7f3	0.24679546
142	0xbe947c2e	-0.29000992
143	0x3ebbb147	0.3665869
144	0xbe88ff58	-0.26757312
145	0x3f2b81b0	0.6699476
146	0xbec781f6	-0.3896634
147	0x3eccafef	0.39977977
148	0x3ce00ad4	0.027348913
149	0xbd3b4cd2	-0.04572756
150	0xbed5d349	-0.4176276
151	0x3e6394ab	0.22224681
152	0xbe793fac	-0.24340695
153	0x3efd5b28	0.4948361
154	0x3e0b7e25	0.13622339
155	0xbdb29d19	-0.0872137
156	0xbf2b0f1d	-0.66819936
157	0xbdd3e48d	-0.10346327
158	0x3d6d8fd5	0.057998497
159	0x3d8f1dc7	0.069881015
160	0xbeaf4d1f	-0.34238526
161	0x3e9dfd4e	0.3085732
162	0xbed19f95	-0.40942064
163	0x3ed7b44c	0.42129743
164	0xbeedb266	-0.4642517
165	0xbeaa6554	-0.33280432
166	0xbedafb91	-0.42770055
167	0x3e98a417	0.2981269
168	0xbcbdc6f9	-0.023166167
169	0x3f652de8	0.8952317
170	0xbe4ee5c7	-0.2020484
171	0x3d8627d7	0.065505676
172	0x3cc1ca03	0.023655897
173	0x3f32fc34	0.6991608
174	0x3ed6038f	0.4179959
175	0x3e229cbf	0.15880106
176	0x3f0e8402	0.5567018
177	0x3e78506a	0.24249426
178	0xbd857643	-0.06516697
179	0x3f036a59	0.5133415
180	0x3e01a440	0.12660313
181	0x3e1f5f5e	0.15563723
182	0x3d04ab02	0.03238965
183	0xbef6157b	-0.48063263
184	0xbe0475ab	-0.12935512
185	0xbe4068b4	-0.18789941
186	0x3e3dc5be	0.18532464
187	0x3e33d6f5	0.17562468
188	0xbee23062	-0.44177538
189	0xbe3d9686	-0.18514451
190	0xbe0ed9e9	-0.13950314
191	0xbe0f5825	-0.13998468
192	0xbe835058	-0.25647235
193	0xbf62520f	-0.8840646
194	0x3ec08058	0.3759792
195	0xbf22cef3	-0.6359703
196	0x3f14aa34	0.5807221
197	0x3db56bdf	0.088584654
198	0x3f746339	0.954639
199	0x3dc702fd	0.09717367
200	0x3e594ed6	0.2122148
201	0xbea6b3a7	-0.3255894
202	0x3ebb2066	0.36548156
203	0xbe91532d	-0.2838377
204	0x3da87f22	0.08227374
205	0xbf66512e	-0.8996762
206	0x3ee27775	0.44231763
207	0xbecddb4b	-0.4020637
208	0xbf25d1d2	-0.64773285
209	0xbef910e9	-0.48645714
210	0xbe856a77	-0.2605779
211	0x3e9235a1	0.2855654
212	0x3e9183fa	0.28421003
213	0x3ec7552f	0.38932177
214	0xbe63b298	-0.22236097
215	0x3e190c74	0.14946157
216	0xbcb703b6	-0.022340637
217	0xbdba2a9a	-0.09090157
218	0x3e21f69d	0.15816732
219	0x3e374ec4	0.1790114
220	0x3d6fa023	0.058502328
221	0x3d9f1c14	0.07769027
222	0x3e6b1b83	0.22959714
223	0xbf4e408b	-0.80567235
224	0xbdf20b73	-0.1181859
225	0xbd369b02	-0.04458142
226	0xbd01f349	-0.031726155
227	0xbeb59e18	-0.35472178
228	0xbe84a09f	-0.25903794
229	0xbe8dd452	-0.2770105
230	0x3f10b310	0.5652323
231	0xbe44dc50	-0.19224668
232	0x3f29ba8e	0.66300285
233	0xbf01b507	-0.5066685
234	0xbe2a7cdf	-0.16649197
235	0xbf10806f	-0.56445974
236	0x3eefd7e0	0.46844387
237	0xbe05f6d3	-0.13082437
238	0xbd5ee7e5	-0.05442037
239	0x3e119189	0.14215674
240	0x3d8637a2	0.0655358
241	0x3ecb13a4	0.39663422
242	0xbdb2d5d2	-0.08732189
243	0xbd9cea91	-0.076619275
244	0xbf3408e8	-0.7032609
245	0x3ebce024	0.36889756
246	0xbf4d5f9a	-0.80224
247	0xbea99479	-0.33121088
248	0x3efe564b	0.4967521
249	0x3de3554f	0.11100256
250	0xbd516d39	-0.051129553
251	0x3e053b19	0.13010825
252	0xbd93b4d7	-0.07212227
253	0x3efc5000	0.49279785
254	0x3ec8a3e4	0.3918754
255	0xbe504dd8	-0.20342195

network_body._body_endoder.seq_layers.0.bias f4 [128]
0	0x00000000	0.0
1	0x00000000	0.0
2	0x00000000	0.0
3	0x00000000	0.0
4	0x00000000	0.0
5	0x00000000	0.0
6	0x00000000	0.0
7	0x00000000	0.0
8	0x00000000	0.0
9	0x00000000	0.0
10	0x00000000	0.0
11	0x00000000	0.0
12	0x00000000	0.0
13	0x00000000	0.0
14	0x00000000	0.0
15	0x00000000	0.0
16	0x00000000	0.0
17	0x00000000	0.0
18	0x00000000	0.0
19	0x00000000	0.0
20	0x00000000	0.0
21	0x00000000	0.0
22	0x00000000	0.0
23	0x00000000	0.0
24	0x00000000	0.0
25	0x00000000	0.0
26	0x00000000	0.0
27	0x00000000	0.0
28	0x00000000	0.0
29	0x00000000	0.0
30	0x00000000	0.0
31	0x00000000	0.0
32	0x00000000	0.0
33	0x00000000	0.0
34	0x00000000	0.0
35	0x00000000	0.0
36	0x00000000	0.0
37	0x00000000	0.0
38	0x00000000	0.0
39	0x00000000	0.0
40	0x00000000	0.0
41	0x00000000	0.0
42	0x00000000	0.0
43	0x00000000	0.0
44	0x00000000	0.0
45	0x00000000	0.0
46	0x00000000	0.0
47	0x00000000	0.0
48	0x00000000	0.0
49	0x00000000	0.0
50	0x00000000	0.0
51	0x00000000	0.0
52	0x00000000	0.0
53	0x00000000	0.0
54	0x00000000	0.0
55	0x00000000	0.0
56	0x00000000	0.0
57	0x00000000	0.0
58	0x00000000	0.0
59	0x00000000	0.0
60	0x00000000	0.0
61	0x00000000	0.0
62	0x00000000	0.0
63	0x00000000	0.0
64	0x00000000	0.0
65	0x00000000	0.0
66	0x00000000	0.0
67	0x00000000	0.0
68	0x00000000	0.0
69	0x00000000	0.0
70	0x00000000	0.0
71	0x00000000	0.0
72	0x00000000	0.0
73	0x00000000	0.0
74	0x00000000	0.0
75	0x00000000	0.0
76	0x00000000	0.0
77	0x00000000	0.0
78	0x00000000	0.0
79	0x00000000	0.0
80	0x00000000	0.0
81	0x00000000	0.0
82	0x00000000	0.0
83	0x00000000	0.0
84	0x00000000	0.0
85	0x00000000	0.0
86	0x00000000	0.0
87	0x00000000	0.0
88	0x00000000	0.0
89	0x00000000	0.0
90	0x00000000	0.0
91	0x00000000	0.0
92	0x00000000	0.0
93	0x00000000	0.0
94	0x00000000	0.0
95	0x00000000	0.0
96	0x00000000	0.0
97	0x00000000	0.0
98	0x00000000	0.0
99	0x00000000	0.0
100	0x00000000	0.0
101	0x00000000	0.0
102	0x00000000	0.0
103	0x00000000	0.0
104	0x00000000	0.0
105	0x00000000	0.0
106	0x00000000	0.0
107	0x00000000	0.0
108	0x00000000	0.0
109	0x00000000	0.0
110	0x00000000	0.0
111	0x00000000	0.0
112	0x00000000	0.0
113	0x00000000	0.0
114	0x00000000	0.0
115	0x00000000	0.0
116	0x00000000	0.0
117	0x00000000	0.0
118	0x00000000	0.0
119	0x00000000	0.0
120	0x00000000	0.0
121	0x00000000	0.0
122	0x00000000	0.0
123	0x00000000	0.0
124	0x00000000	0.0
125	0x00000000	0.0
126	0x00000000	0.0
127	0x00000000	0.0

network_body._body_endoder.seq_layers.2.weight f4 [128, 128]
0	0x3c374e39	0.011188083
1	0x3da532d9	0.08066339
2	0xbd968668	-0.07349855
3	0xbd3f7395	-0.046741087
4	0x3d81d9e5	0.06340388
5	0x3d62926a	0.055315413
6	0x3dde463f	0.10853242
7	0x3dab2eeb	0.08358558
8	0x3da96f71	0.08273209
9	0x3d943b73	0.072379015
10	0x3d421e82	0.047392376
11	0xbdc404be	-0.09571217
12	0xbe523192	-0.20526722
13	0x3dbb7399	0.09152908
14	0xbe014aab	-0.1262614
15	0x3e4925ff	0.196434
16	0x3d391276	0.04518362
17	0x3d6e6352	0.058200188
18	0xbe1bb49f	-0.1520562
19	0xbe2f1750	-0.17098737
20	0x3d61e64f	0.05515128
21	0x3c00dd5e	0.007865278
22	0xbd3ea4e7	-0.046543982
23	0xbd6988e3	-0.05701531
24	0x3d88c3e6	0.0667799
25	0x3dae1bb6	0.08501379
26	0xbc33ea55	-0.010981162
27	0x3c24b68d	0.010053289
28	0xbe0a40aa	-0.1350123
29	0xbd4db73e	-0.05022358
30	0x3e1cd380	0.15315056
31	0xbe4b2f4a	-0.19842258
32	0xbd8e8ca1	-0.069604166
33	0xbd3a8546	-0.045537256
34	0x3d773d12	0.060360976
35	0xbd739971	-0.059472505
36	0x3cb7657d	0.02238726
37	0xbce40cd0	-0.02783814
38	0x3d75e738	0.06003496
39	0x3d750c74	0.05982633
40	0x3d2810fc	0.041031823
41	0x3d7da491	0.06192452
42	0xbe467a72	-0.19382647
43	0x3d10fc47	0.03539684
44	0x3d3865bc	0.045018896
45	0xbc1b4118	-0.009475969
46	0xbded2df6	-0.11581032
47	0x3e03ca21	0.12870075
48	0x3c2a6a16	0.010401269
49	0xbe08179c	-0.13290256
50	0xbdf980fe	-0.121828064
51	0xbca80632	-0.020510767
52	0x3e035dd6	0.12828764
53	0xbe266fe1	-0.16253616
54	0xbc0372e5	-0.008022998
55	0xbb89434e	-0.0041889315
56	0x3e0bff14	0.13671523
57	0x3c7c6f48	0.015407391
58	0xbcab5df6	-0.020918828
59	0xbcd38aec	-0.025823079
60	0xbc11f0b1	-0.008907483
61	0xbe2b3598	-0.16719663
62	0x3dda5955	0.1066157
63	0x3d34a41e	0.044101827
64	0x3cc42033	0.023941135
65	0xbda98ce4	-0.08278826
66	0xbd0f0712	-0.034918852
67	0xbddf3a27	-0.108997636
68	0x3bfc8a3b	0.007706908
69	0x3d8dee1c	0.069301814
70	0x3df07f2c	0.11743006
71	0xbd483785	-0.048881073
72	0x3e51e21c	0.2049641
73	0x3bac4b40	0.005257994
74	0xbd8fcf38	-0.07021946
75	0xbd142a67	-0.03617325
76	0x3d70d9ed	0.05880158
77	0xbd27ce90	-0.040968478
78	0xbd29e7ba	-0.041480757
79	0x3d31356f	0.04326385
80	0xbe0118aa	-0.12607065
81	0x3d3816dc	0.044943675
82	0x3d7f916d	0.06239455
83	0xba48f29f	-0.0007665548
84	0xbde92af7	-0.11385148
85	0xbb8d7342	-0.0043167183
86	0xbc69a2cc	-0.014260005
87	0xbd1811e3	-0.037126433
88	0x3db4464b	0.0880247
89	0x3ceafeb6	0.028685909
90	0x3d650152	0.055909462
91	0x3c4fb93b	0.01267844
92	0x3dda9200	0.106723785
93	0x3d909993	0.07060542
94	0xbdbf6814	-0.09346023
95	0xbb96bc37	-0.0046000737
96	0xbcd5bb04	-0.026090153
97	0xbdbd83dc	-0.09253666
98	0x3e2beefd	0.16790386
99	0xbceb98b3	-0.028759336
100	0x3cdbb709	0.026820676
101	0x3de80357	0.11328762
102	0xbe19f2e2	-0.15034059
103	0xbd2289e6	-0.03968229
104	0xbd688f9a	-0.056777574
105	0x3d380a05	0.04493143
106	0x3e46948a	0.193926
107	0x3d4bbe9c	0.049742326
108	0x3e97e5a3	0.29667386
109	0xbc973825	-0.018459389
110	0x3d7fb478	0.062427968
111	0xbcb4623f	-0.022019504
112	0x3d43eb92	0.04783208
113	0xbdb8f07d	-0.090302445
114	0x3be87b86	0.0070948033
115	0xbd0307b2	-0.03198976
116	0x3d229713	0.039694857
117	0xbd922b46	-0.0713716
118	0xbddb3593	-0.10703578
119	0xbd965e84	-0.07342246
120	0xbca43a26	-0.020047259
121	0x3d6271dd	0.05528437
122	0x3d82ef9f	0.0639336
123	0xbe019997	-0.12656246
124	0x3d6107fc	0.054939255
125	0x3de25150	0.110506654
126	0xbd35d7d8	-0.044395298
127	0x3dd087c3	0.101821445
128	0xbdec28bf	-0.11531209
129	0x3c47a179	0.012184494
130	0x3d91cdcd	0.071193315
131	0x3dad9907	0.08476453
132	0x3ddec98b	0.10878285
133	0x3e35c973	0.17752628
134	0xbd8a0cc6	-0.067407176
135	0xbe9fae12	-0.31187493
136	0xbcf912b3	-0.030404424
137	0xbc3a3d86	-0.011367207
138	0xbd50e367	-0.050998118
139	0xbdfe3b79	-0.12413687
140	0xbd5acfd8	-0.05342087
141	0x3e00a9dd	0.12564798
142	0xbd1105a6	-0.035405777
143	0xbd83e055	-0.06439272
144	0x3d1fadd5	0.03898414
145	0xbcd630d8	-0.026146337
146	0x3dd8a21d	0.10577796
147	0xbdb78e22	-0.089626566
148	0x3e07cfd9	0.13262881
149	0xbe05ddf8	-0.13072956
150	0xbe051b73	-0.12998752
151	0x3df62636	0.12019007
152	0xbe36ac80	-0.17839241
153	0xbbbd6e54	-0.0057809744
154	0x3c8970f0	0.016777486
155	0x3d6ce196	0.057832323
156	0x3c217e06	0.0098567065
157	0x3df17da5	0.11791543
158	0x3d330464	0.04370536
159	0x3d43ca01	0.047800068
160	0x3e00b7ea	0.12570158
161	0xbe111466	-0.14167938
162	0x3d2f2ce7	0.04276743
163	0xbd54eaaa	-0.051981606
164	0x3b58df94	0.0033092247
165	0x3d88e8b8	0.066850126
166	0x3dd362c8	0.103215754
167	0xbda15fb7	-0.07879584
168	0x3e099d11	0.13438822
169	0x3dd6c2de	0.10486387
170	0x3d311d0a	0.043240584
171	0x3d5150d0	0.05110246
172	0x3d0cfe3d	0.034422148
173	0x3dd4e5fa	0.10395427
174	0x3d9bd50b	0.07608994
175	0xbcd81ec9	-0.026381867
176	0x3c176a90	0.009241715
177	0x3df0c2da	0.11755915
178	0x3c46e444	0.012139384
179	0x3c7e3550	0.01551564
180	0xbdfefe86	-0.1245089
181	0x3e0498fe	0.12948987
182	0xbdd78417	-0.10523241
183	0x3d094bb3	0.033519458
184	0xbdab2ddc	-0.08358356
185	0x3c52e162	0.012871118
186	0x3e1165db	0.14199011
187	0x3ce7c656	0.028292816
188	0xbd28246b	-0.041050356
189	0x3cb422cf	0.021989254
190	0x3dcd00aa	0.10009892
191	0xbd10cd68	-0.03535214
192	0xbe08e5ea	-0.13368955
193	0x3e15ba92	0.14621952
194	0xbd11ff15	-0.035643656
195	0x3c042ba6	0.008067047
196	0x3e19cce3	0.15019564
197	0x3be32a58	0.006932538
198	0x3d757b18	0.059931844
199	0x3d87b513	0.06626334
200	0x3bdf955f	0.0068232263
201	0x3d9d9354	0.07694116
202	0x3e048fa5	0.12945421
203	0x3e150cf8	0.14555728
204	0xbe328cd9	-0.17436542
205	0xbd56c949	-0.052438054
206	0xbd436ffa	-0.04771421
207	0xbb3f18f7	-0.0029159167
208	0x3d4f37e2	0.050590403
209	0xbd746988	-0.059670955
210	0xbcbce7fd	-0.02305984
211	0x3b30e570	0.0026992224
212	0x3d2ae180	0.04171896
213	0xbe1ea24a	-0.15491596
214	0xbda21e9c	-0.079159945
215	0x3d574f5d	0.05256592
216	0xbc1468f9	-0.009058231
217	0x3cfd15a8	0.030894116
218	0xbbd5b463	-0.006521748
219	0xbcc6e605	-0.024279604
220	0x3d3833ad	0.044971157
221	0x3dc925b5	0.09821645
222	0xbdae04fd	-0.08497045
223	0x3dad4be7	0.08461743
224	0x3d5e56ef	0.054282125
225	0xbe44888c	-0.19192713
226	0xbd26715c	-0.04063545
227	0xbc793aa8	-0.015211739
228	0x3cba444c	0.022737645
229	0x3d35d259	0.044390056
230	0xbd1ba80f	-0.03800207
231	0xbcae2814	-0.021259345
232	0xbe2d1852	-0.16903809
233	0x3ce5052b	0.027956566
234	0x3d8d6720	0.06904435
235	0xbd30868b	-0.04309706
236	0xbd0c603b	-0.03427146
237	0xbdf074a5	-0.11740998
238	0xbd11cc01	-0.035594944
239	0xbd88ee9e	-0.066861376
240	0xbe724c7c	-0.23661989
241	0xbd8712b5	-0.06595365
242	0x3ce5a336	0.028031927
243	0xbdd5c64d	-0.104382135
244	0xbd667ec0	-0.056273222
245	0xbdc263a4	-0.09491661
246	0xbdcf0bf2	-0.101097
247	0xbdb6a2eb	-0.08917793
248	0xbe02e679	-0.12783231
249	0x3b9dff8c	0.0048217233
250	0xbdca6f86	-0.09884553
251	0x3d280dc2	0.041028745
252	0xbd1a0d98	-0.03761062
253	0x3d34bd95	0.044126112
254	0x3e2601d2	0.16211632
255	0xbe6560d3	-0.22400217

network_body._body_endoder.seq_layers.2.bias f4 [128]
0	0x00000000	0.0
1	0x00000000	0.0
2	0x00000000	0.0
3	0x00000000	0.0
4	0x00000000	0.0
5	0x00000000	0.0
6	0x00000000	0.0
7	0x00000000	0.0
8	0x00000000	0.0
9	0x00000000	0.0
10	0x00000000	0.0
11	0x00000000	0.0
12	0x00000000	0.0
13	0x00000000	0.0
14	0x00000000	0.0
15	0x00000000	0.0
16	0x00000000	0.0
17	0x00000000	0.0
18	0x00000000	0.0
19	0x00000000	0.0
20	0x00000000	0.0
21	0x00000000	0.0
22	0x00000000	0.0
23	0x00000000	0.0
24	0x00000000	0.0
25	0x00000000	0.0
26	0x00000000	0.0
27	0x00000000	0.0
28	0x00000000	0.0
29	0x00000000	0.0
30	0x00000000	0.0
31	0x00000000	0.0
32	0x00000000	0.0
33	0x00000000	0.0
34	0x00000000	0.0
35	0x00000000	0.0
36	0x00000000	0.0
37	0x00000000	0.0
38	0x00000000	0.0
39	0x00000000	0.0
40	0x00000000	0.0
41	0x00000000	0.0
42	0x00000000	0.0
43	0x00000000	0.0
44	0x00000000	0.0
45	0x00000000	0.0
46	0x00000000	0.0
47	0x00000000	0.0
48	0x00000000	0.0
49	0x00000000	0.0
50	0x00000000	0.0
51	0x00000000	0.0
52	0x00000000	0.0
53	0x00000000	0.0
54	0x00000000	0.0
55	0x00000000	0.0
56	0x00000000	0.0
57	0x00000000	0.0
58	0x00000000	0.0
59	0x00000000	0.0
60	0x00000000	0.0
61	0x00000000	0.0
62	0x00000000	0.0
63	0x00000000	0.0
64	0x00000000	0.0
65	0x00000000	0.0
66	0x00000000	0.0
67	0x00000000	0.0
68	0x00000000	0.0
69	0x00000000	0.0
70	0x00000000	0.0
71	0x00000000	0.0
72	0x00000000	0.0
73	0x00000000	0.0
74	0x00000000	0.0
75	0x00000000	0.0
76	0x00000000	0.0
77	0x00000000	0.0
78	0x00000000	0.0
79	0x00000000	0.0
80	0x00000000	0.0
81	0x00000000	0.0
82	0x00000000	0.0
83	0x00000000	0.0
84	0x00000000	0.0
85	0x00000000	0.0
86	0x00000000	0.0
87	0x00000000	0.0
88	0x00000000	0.0
89	0x00000000	0.0
90	0x00000000	0.0
91	0x00000000	0.0
92	0x00000000	0.0
93	0x00000000	0.0
94	0x00000000	0.0
95	0x00000000	0.0
96	0x00000000	0.0
97	0x00000000	0.0
98	0x00000000	0.0
99	0x00000000	0.0
100	0x00000000	0.0
101	0x00000000	0.0
102	0x00000000	0.0
103	0x00000000	0.0
104	0x00000000	0.0
105	0x00000000	0.0
106	0x00000000	0.0
107	0x00000000	0.0
108	0x00000000	0.0
109	0x00000000	0.0
110	0x00000000	0.0
111	0x00000000	0.0
112	0x00000000	0.0
113	0x00000000	0.0
114	0x00000000	0.0
115	0x00000000	0.0
116	0x00000000	0.0
117	0x00000000	0.0
118	0x00000000	0.0
119	0x00000000	0.0
120	0x00000000	0.0
121	0x00000000	0.0
122	0x00000000	0.0
123	0x00000000	0.0
124	0x00000000	0.0
125	0x00000000	0.0
126	0x00000000	0.0
127	0x00000000	0.0

value_heads.value_heads.extrinsic.weight f4 [1, 128]
0	0xbca420e0	-0.020035207
1	0x3d43e2e8	0.047823817
2	0xbcbefd78	-0.023314223
3	0xbd9507de	-0.07276891
4	0x3e582f74	0.21111852
5	0xbe085a6f	-0.13315748
6	0xbccb41c8	-0.02481164
7	0x3d71fad8	0.059077114
8	0xbbe8aea0	-0.007100895
9	0xbe2f22fe	-0.17103192
10	0x3df3ce60	0.11904597
11	0x3e14cf14	0.14532119
12	0xbd65c658	-0.05609736
13	0x3e597cb4	0.21238977
14	0xbd08c340	-0.03338933
15	0xbe1ba3f4	-0.15199262
16	0xbd6248e8	-0.05524531
17	0x3bbe8420	0.0058140904
18	0x3e58ffb2	0.2119129
19	0xbe54984b	-0.2076122
20	0xbe3a2c95	-0.18181069
21	0xbabd2980	-0.0014431924
22	0x3debd1c0	0.11514616
23	0x3e3aea2e	0.18253395
24	0xbe51971e	-0.20467803
25	0xbdc7095c	-0.09718582
26	0xbd5d95dc	-0.054097995
27	0xbd6714ec	-0.056416437
28	0xbe0bbb76	-0.1364573
29	0x3d434468	0.04767266
30	0xbdd57e50	-0.10424483
31	0xbe0f44b0	-0.13991046
32	0x3dbf0d10	0.09328663
33	0xbdf46e97	-0.11935156
34	0xbda1489a	-0.07875176
35	0x3e45f4d6	0.19331679
36	0xbc9b1620	-0.018931448
37	0x3e373d5c	0.178945
38	0xbe0a80ce	-0.13525698
39	0xbc916900	-0.017750263
40	0x3e027306	0.1273919
41	0xbe38468a	-0.17995659
42	0x3e5ca71e	0.21548125
43	0xbe451e1b	-0.19249766
44	0x3dfd8e30	0.12380636
45	0x3dbcce0c	0.09218988
46	0x3e0b989a	0.13632432
47	0x3d27a440	0.040928125
48	0x3db664cc	0.08905944
49	0x3e357340	0.17719746
50	0x3e331e30	0.17491984
51	0xbd33fedc	-0.043944225
52	0x3ddc83f4	0.107673556
53	0x3e3d392c	0.1847884
54	0xbe20718b	-0.15668313
55	0x3e1cbcfa	0.15306464
56	0xbd7888b4	-0.060677245
57	0xbe342d7d	-0.17595477
58	0x3e2cdb28	0.16880476
59	0xbe59c3c9	-0.21266092
60	0xbe0b532c	-0.13605946
61	0xbd4b42a8	-0.049624115
62	0x3d9b1b54	0.07573572
63	0x3d57acb0	0.052654922
64	0xbde3c674	-0.11121836
65	0xbd9244cc	-0.07142028
66	0x3d9bceac	0.07607779
67	0xbdbde6fa	-0.09272571
68	0x3d85ce3c	0.06533477
69	0x3dcb5860	0.099289656
70	0x3e5a4af6	0.21317658
71	0x3e0999a6	0.13437518
72	0x3d87d14c	0.06631717
73	0x3d86370c	0.06553468
74	0xbcc25818	-0.023723647
75	0x3d221f08	0.039580375
76	0x3cf83778	0.030299887
77	0x3e0053e6	0.12532005
78	0xbdf39ecf	-0.11895525
79	0x3ca54f40	0.02017939
80	0xbd79832c	-0.06091611
81	0xbe387522	-0.18013433
82	0x3d9293c4	0.0715709
83	0x3e520b50	0.20512128
84	0x3e01c5b8	0.1267308
85	0x3e11ce92	0.14238957
86	0xbd1c36f8	-0.03813836
87	0x3e0ac5d4	0.13552028
88	0x3e23090e	0.15921423
89	0x3e02b35e	0.12763736
90	0x3e4d1364	0.20026928
91	0xbe0d40a0	-0.13794184
92	0x3cd25950	0.025677353
93	0xbe3ea89b	-0.18619005
94	0xbe528bb0	-0.20561099
95	0xbd75d8b0	-0.060021102
96	0x3d1152d8	0.035479397
97	0x3e500446	0.2031413
98	0xbdc1060c	-0.094249815
99	0x3dc3d80c	0.09562692
100	0x3e0b0e64	0.13579708
101	0xbe164d58	-0.14677942
102	0x3d85f178	0.06540197
103	0xbe519d52	-0.20470169
104	0xbe3addb8	-0.18248641
105	0x3dfbf550	0.12302649
106	0xbe4acb88	-0.19804204
107	0x3e41f0b6	0.1893948
108	0xbbfd8c60	-0.0077376813
109	0xbe40c692	-0.18825749
110	0xbde696d4	-0.11259237
111	0xbcb736b0	-0.022364944
112	0xbd02e6ac	-0.031958267
113	0xbdfbfb40	-0.123037815
114	0xbe121372	-0.1426523
115	0xbdc4c22f	-0.0960735
116	0x3c8187a8	0.015811756
117	0xbe4bae7e	-0.19890782
118	0x3de33f58	0.11096066
119	0x3c4ff460	0.012692541
120	0x3e1ae524	0.15126473
121	0x3dedc2e8	0.11609441
122	0x3de5ba70	0.11217201
123	0x3d51a098	0.051178545
124	0xbe0449bc	-0.12918752
125	0x3e23c534	0.15993196
126	0xbdbd0ca5	-0.092309274
127	0xbe0b5774	-0.1360758
