ML Agent Practice/results/ppo/MoveToGoal/MoveToGoal-387.pt (torch, 149506 bytes, 12 tensors)

network_body._body_endoder.seq_layers.0.weight f4 [128, 6]
000000 e7 c8 aa 3e 60 c1 e9 3e b9 43 40 3f 3e 5e b1 bd
       0.333564 0.45655346 0.75103337 -0.086605534
000010 de c6 2b 3f c2 0f 87 be f2 d6 36 bf fe 30 3b be
       0.6710032 -0.2637921 -0.7142173 -0.18280408
000020 4e f1 24 3d 9a c7 95 bd db 70 b7 3d 52 ec d4 3e
       0.04026919 -0.073134616 0.08957072 0.41586548
000030 6e ee 86 3b 78 bf 40 bf b1 d6 13 3f 6c db 18 bd
       0.0041177785 -0.7529216 0.5774947 -0.037318632
000040 a1 e7 d7 bd 86 a3 ca be 60 73 2b be 8b d6 13 be
       -0.105422266 -0.39577883 -0.16743231 -0.1443731
000050 80 40 0c be 7f 49 de 3e 34 f5 15 3f cd f1 77 3e
       -0.1369648 0.43415448 0.58577275 0.24213333
000060 0c fc 1d 3e 13 c4 b7 be ec 70 3e 3e bb 8f 6c bf
       0.1542818 -0.3589178 0.18597764 -0.92406815
000070 02 78 44 bf 3a 4f d4 be f9 d3 5d 3e 25 61 62 bf
       -0.7674562 -0.41466695 0.21662892 -0.8842948
000080 15 c2 75 bd 67 29 1f 3f 4e a7 f7 be 91 2a 46 3e
       -0.059999544 0.6217255 -0.4836983 0.19352175
000090 bf f5 86 bf 33 66 19 3f ae 6f de bd c4 b5 ad 3a
       -1.0543746 0.5992157 -0.10861145 0.0013253023
0000a0 09 9e b2 3e 7d 1e a7 bd 32 2e b1 be b1 be 19 be
       0.34886196 -0.08160112 -0.34605557 -0.15014149
0000b0 79 35 82 3e 64 a4 e1 3d 3d 18 ce 3d d2 af 7e 3e
       0.2543142 0.11017683 0.10063217 0.24871758
0000c0 73 6a de be bd 25 41 bf 6d 65 df bd 41 39 e8 3d
       -0.4344059 -0.7544821 -0.10908017 0.11339045
0000d0 b6 e4 c5 be 2b 40 55 3e 96 65 da 3e 5b 17 ae 3d
       -0.38651055 0.2082526 0.4265563 0.085005485
0000e0 68 3e ea be 8d f6 eb bd b7 bc 91 3e a7 90 89 3f
       -0.45750737 -0.11521635 0.2846429 1.0747269
0000f0 14 b0 a7 bd 83 01 6f be 4a ed e4 3d dd 23 01 3d
       -0.08187881 -0.2334042 0.11178072 0.031528343
000100 1d 66 16 bf a8 9c e1 3c 64 3c 29 bf 3e bc 8f bd
       -0.5874956 0.02754052 -0.66107774 -0.07018326
000110 62 ce 0f be be 00 0a be d8 01 37 be 6e 19 42 3e
       -0.14043573 -0.13476846 -0.17871797 0.18955013
000120 0d 1e 91 be 3f 1d a3 be 8e 8a 8f 3d 4e 03 a2 3d
       -0.2834324 -0.3185825 0.07008849 0.079107866
000130 cf 4c 1f 3f 50 97 74 3e cb 77 39 3e 73 58 84 3f
       0.62226576 0.23885846 0.18112104 1.0339493
000140 ac 52 29 3f b7 02 50 3d f1 c3 c8 bd 79 e7 5d 3e
       0.6614177 0.05078384 -0.09802998 0.21670331
000150 0a e8 91 be 6b cf 1d 3e 9a ab 47 bf 1b d0 02 bf
       -0.28497344 0.15411155 -0.7799622 -0.51098794
000160 92 30 61 3e 7c d6 f4 be f0 c1 9b 3e ec 1f 4d 3f
       0.21991184 -0.4781989 0.304214 0.80126834
000170 86 02 48 bd 93 2a db be 5c c1 55 bf 5d dc db bd
       -0.04883053 -0.4280592 -0.8349817 -0.1073539
000180 21 92 83 be 65 32 4c bf 91 c3 95 be 99 66 d4 3d
       -0.25697425 -0.79764396 -0.29250768 0.103711314
000190 8a 44 5e bf e2 49 63 be df 76 8c be 47 71 b1 3c
       -0.8682333 -0.22196153 -0.2743444 0.02166046
0001a0 70 9f 03 3d 5b 58 7d be b4 fb 4c 3f a3 87 7a 3e
       0.032134473 -0.24740736 0.8007157 0.24465804
0001b0 65 40 16 3f b5 9e 59 be 7b 0d 99 be f8 7b 6d bf
       0.5869201 -0.21251948 -0.29893097 -0.92767286
0001c0 39 f8 f4 3e d3 25 f2 3d 84 5f 72 bd ee d7 f0 3e
       0.4784563 0.11823621 -0.059173122 0.4703974
0001d0 c0 ed e1 3e 34 f1 3b be e9 19 66 3e 1c ad 7d 3e
       0.441267 -0.1835373 0.22470821 0.24773067
0001e0 96 07 6d 3f 67 f1 f4 3d 53 51 45 3e cb e0 e2 bd
       0.925897 0.11960106 0.19269304 -0.11078032
0001f0 bf 4b 10 3d f8 32 04 bf b2 47 a1 3e 2c 84 58 bf
       0.035228487 -0.5164027 0.31500012 -0.8457668
000200 d8 85 28 bb 27 27 1f 3f e1 bf dd be e2 97 e4 be
       -0.0025714543 0.62169117 -0.43310454 -0.44647127
000210 64 08 6c bd 15 d4 8f bf 60 39 82 3e 93 3f 03 bf
       -0.05762519 -1.1236597 0.254344 -0.5126888
000220 eb 42 9d 3e 7d 51 63 3f 71 8f cd 3e 13 a1 91 be
       0.30715117 0.88796216 0.401485 -0.28443202
000230 eb 92 26 3d 60 5c b1 be 08 61 ca 3d 49 31 6c bf
       0.040667456 -0.3464079 0.098817885 -0.92262703
000240 33 52 28 3d 9a 7d 9a 3e 55 8d 3d be e1 1a 06 3f
       0.041094016 0.3017395 -0.18510945 0.52384764
000250 3f 3b 85 bd a1 de 7b be 86 11 dd be 9a 43 32 be
       -0.06505441 -0.24596645 -0.43177432 -0.174086
000260 49 a5 17 be 01 1c 74 be 14 e7 0a 3e b5 dd fc 3e
       -0.14809145 -0.23838808 0.13564712 0.493879
000270 ba 57 25 be 0e 6b 79 be fe 64 ef 3e 3f 31 21 3f
       -0.16146746 -0.24357244 0.46756738 0.6296577
000280 29 74 1a be b4 14 bb be 77 0c 60 3d 3e 26 ed be
       -0.15083374 -0.36539233 0.054699387 -0.4631824
000290 4c e7 8f 3d 33 e5 28 3f e4 9e f2 3e b1 66 0b 3d
       0.07026538 0.6597473 0.4738685 0.03403348
0002a0 96 20 c6 3e 38 5e 8d be ca 12 a7 be 09 64 7c 3e
       0.38696736 -0.27610946 -0.32631522 0.24647535
0002b0 33 5d 81 be da 20 cc be 94 61 aa bd 35 f1 53 bd
       -0.25266418 -0.39868814 -0.08319393 -0.051743705
0002c0 36 68 eb 3e 1c dd aa be 34 34 9c 3e 1b e8 8a 3e
       0.45977944 -0.33371818 0.30508578 0.27130207
0002d0 85 e9 96 be 72 e7 40 be 47 0e 4c 3b d7 7f ef 3d
       -0.29475036 -0.1883829 0.003113644 0.116943054
0002e0 2a 8a d5 be 52 25 ea be 37 0b 9b be 62 59 9c be
       -0.41706973 -0.45731598 -0.30281994 -0.30536944
0002f0 e1 8f ee 3e 99 39 76 3e be d4 ff be 44 37 57 be
       0.46594146 0.2404541 -0.49966997 -0.21017176
000300 f7 70 8f 3e e0 36 f5 3e eb 29 25 be 77 d2 cc be
       0.28015873 0.4789343 -0.16129272 -0.40004322
000310 52 a0 96 3e 7e a8 32 bf 13 20 c9 bc 20 54 38 3e
       0.2941919 -0.6978835 -0.024551427 0.18000841
000320 4f 0d 9d 3d 9d 97 5d bf 65 e3 f1 3e d0 e7 72 be
       0.07668554 -0.8655947 0.472438 -0.23721242
000330 d2 5c 7f be 93 4f 83 bd c4 be 89 be 0d 98 34 be
       -0.24937752 -0.06411662 -0.26903355 -0.17636128
000340 af ee 0d bf 5b fe a1 be cc 5c a9 bc 12 59 ca 3e
       -0.5544233 -0.3163937 -0.020674132 0.3952108
000350 bf 68 1a 3f b7 18 38 be 30 ad d4 be 1a 8d 2d 3e
       0.6031608 -0.17978178 -0.41538382 0.16948357
000360 d4 63 e5 3d 5e a3 22 3f 0d 60 b9 3e df 82 cd 3d
       0.11200681 0.6353053 0.36206093 0.10034727
000370 91 f4 7d 3e b3 5c 0d 3f 0b 01 3c be 9c 29 a6 be
       0.24800326 0.5521957 -0.18359773 -0.3245362
000380 92 bd 26 be 6f c9 f4 be 8c 3a 87 3e b1 85 49 be
       -0.16283253 -0.47809932 0.26411855 -0.19679905
000390 57 88 da 3e 22 21 16 bf 60 0c 03 bd a6 63 f2 be
       0.42682144 -0.58644307 -0.031994224 -0.4734165
0003a0 97 ae 3e 3f 55 1d 92 3f f6 c3 1a 3f 88 00 10 3f
       0.7448515 1.1415201 0.6045526 0.5625081
0003b0 9c 7f 18 3f cf 6e 66 be 48 12 bc 3e ce 8d af bb
       0.59569716 -0.22503208 0.36732697 -0.0053574806
0003c0 e1 64 26 3f ad fe f5 3e 71 b4 8d 3e ec 3f 0b 3e
       0.6499768 0.48045865 0.27676728 0.13598603
0003d0 e9 ab 88 be fe de 13 3f 65 8d 93 bd 8d 83 3c 3f
       -0.26693657 0.57762134 -0.07204703 0.7363823
0003e0 1d 29 5b 3e a8 d2 21 bf f1 c3 82 be 97 a8 09 3e
       0.21402402 -0.6321206 -0.25540116 0.13443218
0003f0 d3 3e b4 be 5e 58 08 bf 6a a6 f1 3e 06 e3 f4 3b
       -0.3520418 -0.5325984 0.47197276 0.0074733524

network_body._body_endoder.seq_layers.0.bias f4 [128]
000000 00 00 00 00 00 00 00 00 00 00 00 00 00 00 00 00
       0.0 0.0 0.0 0.0
000010 00 00 00 00 00 00 00 00 00 00 00 00 00 00 00 00
       0.0 0.0 0.0 0.0
000020 00 00 00 00 00 00 00 00 00 00 00 00 00 00 00 00
       0.0 0.0 0.0 0.0
000030 00 00 00 00 00 00 00 00 00 00 00 00 00 00 00 00
       0.0 0.0 0.0 0.0
000040 00 00 00 00 00 00 00 00 00 00 00 00 00 00 00 00
       0.0 0.0 0.0 0.0
000050 00 00 00 00 00 00 00 00 00 00 00 00 00 00 00 00
       0.0 0.0 0.0 0.0
000060 00 00 00 00 00 00 00 00 00 00 00 00 00 00 00 00
       0.0 0.0 0.0 0.0
000070 00 00 00 00 00 00 00 00 00 00 00 00 00 00 00 00
       0.0 0.0 0.0 0.0
000080 00 00 00 00 00 00 00 00 00 00 00 00 00 00 00 00
       0.0 0.0 0.0 0.0
000090 00 00 00 00 00 00 00 00 00 00 00 00 00 00 00 00
       0.0 0.0 0.0 0.0
0000a0 00 00 00 00 00 00 00 00 00 00 00 00 00 00 00 00
       0.0 0.0 0.0 0.0
0000b0 00 00 00 00 00 00 00 00 00 00 00 00 00 00 00 00
       0.0 0.0 0.0 0.0
0000c0 00 00 00 00 00 00 00 00 00 00 00 00 00 00 00 00
       0.0 0.0 0.0 0.0
0000d0 00 00 00 00 00 00 00 00 00 00 00 00 00 00 00 00
       0.0 0.0 0.0 0.0
0000e0 00 00 00 00 00 00 00 00 00 00 00 00 00 00 00 00
       0.0 0.0 0.0 0.0
0000f0 00 00 00 00 00 00 00 00 00 00 00 00 00 00 00 00
       0.0 0.0 0.0 0.0
000100 00 00 00 00 00 00 00 00 00 00 00 00 00 00 00 00
       0.0 0.0 0.0 0.0
000110 00 00 00 00 00 00 00 00 00 00 00 00 00 00 00 00
       0.0 0.0 0.0 0.0
000120 00 00 00 00 00 00 00 00 00 00 00 00 00 00 00 00
       0.0 0.0 0.0 0.0
000130 00 00 00 00 00 00 00 00 00 00 00 00 00 00 00 00
       0.0 0.0 0.0 0.0
000140 00 00 00 00 00 00 00 00 00 00 00 00 00 00 00 00
       0.0 0.0 0.0 0.0
000150 00 00 00 00 00 00 00 00 00 00 00 00 00 00 00 00
       0.0 0.0 0.0 0.0
000160 00 00 00 00 00 00 00 00 00 00 00 00 00 00 00 00
       0.0 0.0 0.0 0.0
000170 00 00 00 00 00 00 00 00 00 00 00 00 00 00 00 00
       0.0 0.0 0.0 0.0
000180 00 00 00 00 00 00 00 00 00 00 00 00 00 00 00 00
       0.0 0.0 0.0 0.0
000190 00 00 00 00 00 00 00 00 00 00 00 00 00 00 00 00
       0.0 0.0 0.0 0.0
0001a0 00 00 00 00 00 00 00 00 00 00 00 00 00 00 00 00
       0.0 0.0 0.0 0.0
0001b0 00 00 00 00 00 00 00 00 00 00 00 00 00 00 00 00
       0.0 0.0 0.0 0.0
0001c0 00 00 00 00 00 00 00 00 00 00 00 00 00 00 00 00
       0.0 0.0 0.0 0.0
0001d0 00 00 00 00 00 00 00 00 00 00 00 00 00 00 00 00
       0.0 0.0 0.0 0.0
0001e0 00 00 00 00 00 00 00 00 00 00 00 00 00 00 00 00
       0.0 0.0 0.0 0.0
0001f0 00 00 00 00 00 00 00 00 00 00 00 00 00 00 00 00
       0.0 0.0 0.0 0.0

network_body._body_endoder.seq_layers.2.weight f4 [128, 128]
000000 85 2b 4c bd b1 58 de 3c ba c6 15 bd fb d1 78 bd
       -0.04984619 0.0271419 -0.036566474 -0.060747128
000010 02 3d 6f bc 8f 73 d5 bd 89 43 19 bd f7 c3 c4 3c
       -0.014601948 -0.10422432 -0.037417922 0.024019225
000020 74 74 08 3e 85 b7 c8 3c fc a1 eb bd 95 6b 16 bd
       0.13325673 0.024501571 -0.115055054 -0.036723692
000030 c8 8f 71 3d 7f 20 ba bd 2f 2d a3 3d 5c a5 12 be
       0.05897501 -0.090882294 0.079676025 -0.14320892
000040 4e e9 c3 3d 0f c8 1f 3d 0b 1c 63 bd 37 2f df bb
       0.09565984 0.03900915 -0.055446666 -0.0068110484
000050 9e 71 82 3c 6f 83 a0 3d e8 79 0c bd d7 fe d8 3d
       0.015923318 0.07837569 -0.034295946 0.10595482
000060 44 64 66 3d ce c7 7d 3e a6 6f 24 be 21 6e 0f be
       0.056247965 0.2478325 -0.16058215 -0.14006855
000070 69 07 c1 3d 75 8c 25 3c 71 44 55 bd a9 ef 65 bc
       0.094252415 0.010104288 -0.052067224 -0.01403419
000080 9b 82 2c 3e 23 31 05 bd b5 fb ee 3d bd 44 58 bc
       0.16846697 -0.032517564 0.11669103 -0.013199982
000090 0e 5d 68 3d be 7d 97 bc a8 e3 b8 3b 4f f4 85 3c
       0.05672937 -0.018492576 0.005642373 0.016351847
0000a0 c5 93 8e 3d 91 bc f5 bb 81 2d 03 bd b8 d4 bb bd
       0.069617786 -0.0074992855 -0.032025818 -0.09171432
0000b0 d5 79 05 3e 35 cf 18 3c 72 16 95 bd 7b 11 8e 3d
       0.13034756 0.009326746 -0.07279672 0.06936928
0000c0 23 c5 f1 bc 73 cb d2 3d 26 c5 1f be f5 0d 9e bd
       -0.029512947 0.10292711 -0.1560255 -0.07717506
0000d0 25 3b bf bd 29 a9 92 3c 4a 17 00 3e 09 04 51 bd
       -0.09337453 0.017902927 0.12508884 -0.05102924
0000e0 20 02 eb bd 94 7d 49 3d 9b 03 0b 3e f3 c2 71 3d
       -0.11475015 0.049192026 0.13575594 0.05902381
0000f0 e7 f0 cf 3d 53 a9 26 3d d5 bf 0f 3e 4b 1a bd bd
       0.1015337 0.040688824 0.14038022 -0.092335306
000100 2a cf 46 bd fc 6c 4d be 34 06 17 3e 5d 4b 0e be
       -0.04853741 -0.20061105 0.1474846 -0.13895936
000110 1b 9e 83 3d 89 41 d0 bc 2a a3 f5 bc a6 48 6e 3d
       0.064266406 -0.025421875 -0.02998503 0.05817475
000120 d1 16 e6 3d 7c 3c 45 bd c4 4d a2 bd 1a 40 14 3e
       0.11234821 -0.048153386 -0.07924989 0.14477578
000130 92 87 90 3d 2a 9f cd bb 8c 6b 13 bd 6c cc ad bd
       0.07057108 -0.0062750774 -0.035991237 -0.08486256
000140 02 e3 44 3d 32 9c e6 bc ae 4b 43 3e a8 b5 02 3e
       0.048068054 -0.028150652 0.19071838 0.12764609
000150 a5 39 71 3d 88 36 0b 3e 21 98 b9 bd 80 77 fe 3d
       0.058892865 0.13595021 -0.090622194 0.124251366
000160 02 2b 85 3d 26 de 92 bc 48 5e dd 3d fa 44 71 bd
       0.06502344 -0.017928194 0.10808998 -0.05890367
000170 d7 ef 12 3d c2 a8 1b be be 69 2e bc 0b 9a 9a 3d
       0.03587326 -0.15201095 -0.010645328 0.075489126
000180 44 d1 95 3c 0b c1 a8 bd 72 a9 4e bd e4 3e 9f bc
       0.018288262 -0.08239945 -0.050454564 -0.019439168
000190 a2 1b a9 3d 4b a6 66 3d 80 4d 39 3d 12 52 a8 3d
       0.08257224 0.056310933 0.045239925 0.08218779
0001a0 52 8b 69 be c5 1e af bc 32 c7 b8 bc ed 63 01 be
       -0.22807053 -0.021376977 -0.022555921 -0.12635775
0001b0 aa fe 21 bd 63 80 6f bd 7f 8f 81 bd 1f 55 6e bd
       -0.039549507 -0.05847205 -0.06326198 -0.058186647
0001c0 75 02 1d 3d 4b 24 7e 3d 69 aa 18 3d b0 67 a7 bd
       0.03833242 0.06204633 0.03727189 -0.08174074
0001d0 86 21 52 3e f5 c8 03 bd 19 00 c2 3c 4f 9b 45 bd
       0.205206 -0.03217407 0.023681687 -0.048243817
0001e0 51 e1 11 bd 57 76 48 bd 49 f5 1a be c1 4e a9 3d
       -0.03561527 -0.048940983 -0.15132631 0.08266974
0001f0 0d 0a 21 bd 37 13 78 3d 3c c3 00 3e d1 48 19 be
       -0.039316226 0.0605652 0.12574476 -0.14969184
000200 86 5b 12 be ee ba 2e be a4 a8 6b 3d db 2b 83 bb
       -0.14292726 -0.17063496 0.057533875 -0.0040030307
000210 51 c5 f4 3c 68 d6 9e 3d 14 08 be 3b b9 79 02 3e
       0.029879244 0.077557385 0.005799303 0.12741746
000220 10 c6 80 bd 4c 7f bb 3d de 7c 95 3d a2 68 2a 3d
       -0.062877774 0.09155139 0.07299207 0.041603692
000230 b2 6f c5 bd 11 3b ad bd be 4f e2 bb 4e d5 8f bd
       -0.09640445 -0.08458532 -0.0069064787 -0.070231065
000240 37 2d 57 be c9 16 d0 3d 23 6b 39 bd 93 85 2d bd
       -0.21013342 0.10160596 -0.04526819 -0.042363714
000250 0d 64 3b 3d 2c 54 c8 bc 60 95 71 3b b1 1d a7 bd
       0.045749713 -0.024454199 0.0036862716 -0.0815996
000260 48 51 a6 bd b4 ce 12 3d a1 38 43 3b b9 d8 76 bd
       -0.08120972 0.03584166 0.0029788392 -0.060265277
000270 6d f1 00 3d fa 7d 31 3e cf 11 ab 3c 89 6c 65 3d
       0.03148024 0.17333212 0.020882515 0.05601171
000280 c4 cf 47 3d f6 e0 74 3d 49 92 83 bd e7 fd cd 3c
       0.048782125 0.059784852 -0.06424386 0.025145484
000290 c4 35 0b 3e 49 f2 11 3d 43 d3 0f bd 7e 5b 90 3d
       0.13594729 0.03563145 -0.035113584 0.07048701
0002a0 93 2a 9a bc ca 1f 27 bd 82 de 83 bb 9c 53 46 3e
       -0.01881913 -0.0408018 -0.0040243277 0.19367832
0002b0 d6 84 23 bb 9e b6 ba 3d ff 9d 0e bc 14 42 69 bd
       -0.0024951003 0.09116863 -0.008704661 -0.056947783
0002c0 14 c4 cf bd d6 bc 35 3d da a0 21 3e 52 31 65 3c
       -0.10144821 0.04436954 0.15784016 0.01398881
0002d0 3f 24 a5 3d 95 6c 08 be 91 5b e7 bd f2 23 a2 bc
       0.08063554 -0.13322671 -0.11296762 -0.01979253
0002e0 ed b2 b9 bd 20 12 d8 3d 1f 26 14 3e 51 5f 78 3d
       -0.090673305 0.10550332 0.14467667 0.060637776
0002f0 da 06 f7 bc 2c bf 4d 3d 87 5a cb bc 96 cd bd bc
       -0.030154634 0.050231144 -0.02482344 -0.02316932
000300 0b da 4e bd 80 24 4f 3d 49 bd 86 3d b9 60 58 3d
       -0.05050091 0.05057192 0.06579072 0.052826617
000310 bd 00 1a bd 8e 47 08 3e 7a 9d 19 3d ad 42 7c bc
       -0.03759836 0.13308546 0.037503697 -0.015396756
000320 e9 bc 76 3c 42 28 ff bc 81 52 4e 3d 96 7a e7 bd
       0.015059688 -0.031147126 0.05037165 -0.11302678
000330 46 75 2e bd 51 1a ee bb cd d4 01 3d 65 72 97 3d
       -0.04259231 -0.0072663208 0.031697083 0.07394866
000340 f3 c8 4c bd d0 15 87 3c 3f 17 96 3d 95 8a 13 3e
       -0.049996328 0.016489893 0.073286526 0.14408334
000350 36 f6 23 be 25 d7 f4 bc 6f af 18 3e da 21 dc bd
       -0.16011891 -0.029887745 0.14910673 -0.10748644
000360 19 ff 0a be 5d f1 52 bd 70 d1 8c 3d 89 4b 8e bd
       -0.13573875 -0.051499713 0.068758845 -0.06948001
000370 14 6f 86 3d a2 68 b3 3c 81 9b ff bc 47 01 54 3d
       0.06564155 0.021900479 -0.03120208 0.05175903
000380 25 3c fe 3d 7c f0 66 3d bb 61 bc bd d5 2f b4 3d
       0.124138154 0.056381688 -0.09198328 0.08798186
000390 27 4d 96 3d 4e 8c 8f 3d ff 02 d6 3c 19 96 56 3d
       0.073389344 0.07009183 0.026124476 0.052389238
0003a0 42 a7 76 3c 3b a6 90 3d d4 0b 9b 3c 09 5d 0e ba
       0.015054526 0.07062956 0.018926539 -0.00054307334
0003b0 f3 5e 34 bc 7c fc f9 3d 47 e4 ef bd 73 49 54 bb
       -0.011008966 0.12206361 -0.11713462 -0.0032392412
0003c0 38 39 e9 bd 00 35 3c 3d fa d6 18 be 79 ae 9e 3c
       -0.11387867 0.045948982 -0.14925757 0.019370304
0003d0 c7 de d1 3c 91 e7 e4 3d b7 28 02 3d 2c 93 94 3d
       0.025618924 0.1117698 0.03177711 0.07254633
0003e0 2e ae b5 bd 46 4e bb bd 83 cf 08 3d c4 a2 54 bc
       -0.08871113 -0.09145789 0.033401024 -0.0129782595
0003f0 6e 4c 04 bc a0 7d a1 3c 9d b7 89 bc 42 91 3b 3c
       -0.008074863 0.019713223 -0.016811186 0.011448206

network_body._body_endoder.seq_layers.2.bias f4 [128]
000000 00 00 00 00 00 00 00 00 00 00 00 00 00 00 00 00
       0.0 0.0 0.0 0.0
000010 00 00 00 00 00 00 00 00 00 00 00 00 00 00 00 00
       0.0 0.0 0.0 0.0
000020 00 00 00 00 00 00 00 00 00 00 00 00 00 00 00 00
       0.0 0.0 0.0 0.0
000030 00 00 00 00 00 00 00 00 00 00 00 00 00 00 00 00
       0.0 0.0 0.0 0.0
000040 00 00 00 00 00 00 00 00 00 00 00 00 00 00 00 00
       0.0 0.0 0.0 0.0
000050 00 00 00 00 00 00 00 00 00 00 00 00 00 00 00 00
       0.0 0.0 0.0 0.0
000060 00 00 00 00 00 00 00 00 00 00 00 00 00 00 00 00
       0.0 0.0 0.0 0.0
000070 00 00 00 00 00 00 00 00 00 00 00 00 00 00 00 00
       0.0 0.0 0.0 0.0
000080 00 00 00 00 00 00 00 00 00 00 00 00 00 00 00 00
       0.0 0.0 0.0 0.0
000090 00 00 00 00 00 00 00 00 00 00 00 00 00 00 00 00
       0.0 0.0 0.0 0.0
0000a0 00 00 00 00 00 00 00 00 00 00 00 00 00 00 00 00
       0.0 0.0 0.0 0.0
0000b0 00 00 00 00 00 00 00 00 00 00 00 00 00 00 00 00
       0.0 0.0 0.0 0.0
0000c0 00 00 00 00 00 00 00 00 00 00 00 00 00 00 00 00
       0.0 0.0 0.0 0.0
0000d0 00 00 00 00 00 00 00 00 00 00 00 00 00 00 00 00
       0.0 0.0 0.0 0.0
0000e0 00 00 00 00 00 00 00 00 00 00 00 00 00 00 00 00
       0.0 0.0 0.0 0.0
0000f0 00 00 00 00 00 00 00 00 00 00 00 00 00 00 00 00
       0.0 0.0 0.0 0.0
000100 00 00 00 00 00 00 00 00 00 00 00 00 00 00 00 00
       0.0 0.0 0.0 0.0
000110 00 00 00 00 00 00 00 00 00 00 00 00 00 00 00 00
       0.0 0.0 0.0 0.0
000120 00 00 00 00 00 00 00 00 00 00 00 00 00 00 00 00
       0.0 0.0 0.0 0.0
000130 00 00 00 00 00 00 00 00 00 00 00 00 00 00 00 00
       0.0 0.0 0.0 0.0
000140 00 00 00 00 00 00 00 00 00 00 00 00 00 00 00 00
       0.0 0.0 0.0 0.0
000150 00 00 00 00 00 00 00 00 00 00 00 00 00 00 00 00
       0.0 0.0 0.0 0.0
000160 00 00 00 00 00 00 00 00 00 00 00 00 00 00 00 00
       0.0 0.0 0.0 0.0
000170 00 00 00 00 00 00 00 00 00 00 00 00 00 00 00 00
       0.0 0.0 0.0 0.0
000180 00 00 00 00 00 00 00 00 00 00 00 00 00 00 00 00
       0.0 0.0 0.0 0.0
000190 00 00 00 00 00 00 00 00 00 00 00 00 00 00 00 00
       0.0 0.0 0.0 0.0
0001a0 00 00 00 00 00 00 00 00 00 00 00 00 00 00 00 00
       0.0 0.0 0.0 0.0
0001b0 00 00 00 00 00 00 00 00 00 00 00 00 00 00 00 00
       0.0 0.0 0.0 0.0
0001c0 00 00 00 00 00 00 00 00 00 00 00 00 00 00 00 00
       0.0 0.0 0.0 0.0
0001d0 00 00 00 00 00 00 00 00 00 00 00 00 00 00 00 00
       0.0 0.0 0.0 0.0
0001e0 00 00 00 00 00 00 00 00 00 00 00 00 00 00 00 00
       0.0 0.0 0.0 0.0
0001f0 00 00 00 00 00 00 00 00 00 00 00 00 00 00 00 00
       0.0 0.0 0.0 0.0

action_model._continuous_distribution.log_sigma f4 [1, 2]
000000 00 00 00 00 00 00 00 00
       0.0 0.0

action_model._continuous_distribution.mu.weight f4 [2, 128]
000000 74 37 26 3c 30 6c 67 3b a5 80 4d 3b 63 ba cf 3b
       0.010145057 0.0035312288 0.0031357196 0.0063393577
000010 5a 40 6e 3b 7c 0a c1 3b 92 1c 24 bb 8b 85 0f bc
       0.0036354274 0.0058911424 -0.0025041443 -0.0087598665
000020 2f 6a 1f 3b 83 65 5e bc 08 eb 0d bc 83 4b e3 bb
       0.0024324765 -0.013574007 -0.008661993 -0.006936492
000030 1f 10 be bb ef ab a2 3b af ed 14 bd 42 4d 98 3c
       -0.0058002616 0.0049643437 -0.036359485 0.018591527
000040 d3 7d e1 bb 42 bc d8 3b 22 70 92 ba 15 63 63 bc
       -0.0068814545 0.006614239 -0.0011172334 -0.0138786035
000050 7f 8b a6 3c f3 1b 1d 3c f3 97 d5 bb 73 c3 aa 3c
       0.020330189 0.009589183 -0.006518358 0.02084515
000060 28 46 4d 3b e7 3c 34 3c 43 07 94 bc b9 b8 82 bc
       0.0031322334 0.011000848 -0.018069869 -0.015957223
000070 eb 77 f4 3c db 75 3f bc 87 77 4c bc 88 fd b7 3b
       0.029842338 -0.011685814 -0.012479669 0.00561494
000080 f7 c0 82 ba 2e 75 81 3c d8 47 ed bc 0f 54 0b bd
       -0.0009975721 0.015802946 -0.028964922 -0.03401571
000090 22 e2 6e 3c 76 bf af bc 9f 06 c7 3c 95 b9 9e bc
       0.014580281 -0.0214536 0.02429515 -0.019375602
0000a0 4a 22 e9 bc b8 d7 36 3c 31 46 43 bc ff 20 13 bc
       -0.028458733 0.01115983 -0.01191859 -0.008980035
0000b0 b7 a4 39 bb 00 f8 c8 3c e7 c4 50 bc 4b a3 6b bc
       -0.0028326937 0.024532318 -0.012742258 -0.014382194
0000c0 4d 8d 97 3b 7d 92 e2 3c 53 c0 68 3c 95 f1 7e 3c
       0.0046249987 0.027657742 0.01420601 0.015560527
0000d0 7d 86 73 3d 27 a8 39 3c 00 fd 56 3b 97 12 88 3c
       0.05945443 0.011331595 0.0032804608 0.016610427
0000e0 fb 48 7b 3c 28 f1 43 bc 0f de d9 bb 3f 48 81 3c
       0.015337224 -0.011959352 -0.006648786 0.01578152
0000f0 da d3 22 bc f5 50 af bc 77 b2 0e 3c 93 e1 bf bb
       -0.009938205 -0.021400908 0.0087095415 -0.005855748
000100 17 f6 50 bb 40 d0 ba bc 60 4b ae bc 66 14 90 bb
       -0.0031884962 -0.02280438 -0.021276176 -0.004396963
000110 7e 41 44 ba 67 bd 03 bd fc f6 a9 bc b3 42 5b ba
       -0.0007486566 -0.03216305 -0.020747654 -0.0008364126
000120 f0 00 9d bb c9 e0 15 ba 92 ef fd 3a e9 0d a1 bc
       -0.0047913715 -0.00057173945 0.0019373766 -0.019659953
000130 ab 75 73 bb 00 e5 90 bc 05 a6 31 bc cd 14 9e 3c
       -0.0037148993 -0.01768732 -0.010842805 0.019297028
000140 23 3f 6a bd 80 29 33 3b 53 5d 3f 3c 54 ec 1f 3c
       -0.057189118 0.0027337968 0.011679965 0.009760935
000150 16 4f 36 bc 75 bb e6 bc 63 31 09 3d 25 c7 84 bc
       -0.011127254 -0.028165558 0.033494364 -0.01620824
000160 f7 10 f3 ba 12 c3 36 3b d8 b9 54 3c 18 0c 3c 3d
       -0.0018544485 0.0027887267 0.012983762 0.04590997
000170 20 8b 60 bc 0f d3 31 3b 4f ff 1b bd 23 c8 55 3c
       -0.013705045 0.0027133857 -0.038085278 0.013048205
000180 e3 0c 97 3c a1 cd 2e bd d5 ce 16 3c f4 a7 cb b9
       0.018438762 -0.04267657 0.009204586 -0.00038844312
000190 5b d5 b1 3a 9f 6d 63 3b 3f 1a 94 3b 21 72 03 bc
       0.0013567613 0.003470279 0.0045197303 -0.008022816
0001a0 b3 ed 3c bc 0e 49 3f 3c bb cc d4 3c 35 ad c8 3b
       -0.011531281 0.011675132 0.02597653 0.0061241635
0001b0 6d 79 21 bd 9b a0 be 3c c9 56 b9 3a a8 59 78 3c
       -0.03942244 0.023269942 0.0014140244 0.0151580945
0001c0 21 1a 94 3a 2d f8 27 ba 31 3a bf bc c2 53 be 3c
       0.0011299291 -0.00064075255 -0.023343178 0.023233298
0001d0 cb 93 55 3c 99 88 02 bd e2 e3 fb bc 37 00 bb bc
       0.013035725 -0.03186855 -0.030748311 -0.02282725
0001e0 84 53 33 3c 8f a9 2e bc 77 44 bf 3c 94 d0 9c 3b
       0.010945205 -0.010660543 0.023348076 0.0047856066
0001f0 77 ac 45 3c 71 8a 92 b9 44 cd a1 3c 36 37 8c bc
       0.012065045 -0.00027950437 0.019751199 -0.01711617
000200 32 68 0c 3c 81 1f 32 ba 9d 3f 72 3b 55 30 99 bb
       0.008569764 -0.00067948556 0.0036964186 -0.004674951
000210 bc 9f 34 3c 80 00 48 bc e4 ec a5 bc 5f 68 c9 3c
       0.011024412 -0.01220715 -0.02025456 0.0245859
000220 87 55 9e bb da b0 92 3c 1d 7b fb 3b 4a 0b f0 3c
       -0.004831973 0.017906595 0.0076745884 0.029302258
000230 d5 dd b6 bb 3e 35 89 3c 02 44 14 bb 9d 9c 69 3d
       -0.0055806437 0.01674902 -0.0022623544 0.057034124
000240 c1 ff 3d 3c bb 7b 34 3c e2 4f 80 3b bc ec 05 bd
       0.011596621 0.011015828 0.003915773 -0.03269647
000250 af 55 fe bc 1f 6b 9c bc 93 bc 15 bb b4 79 9a 3c
       -0.031046716 -0.019094048 -0.0022847995 0.01885686
000260 c0 1f 75 3b 0b 7c f0 bb 43 b1 1d ba 65 bf 64 bc
       0.0037402958 -0.007339006 -0.0006015489 -0.013961648
000270 37 0a 81 3c 52 4b 68 3c 02 59 5e 3b 68 46 e7 3b
       0.015751941 0.014178114 0.0033927565 0.0070579536
000280 ee f5 18 bb 51 cb ad 3b a8 10 fc bb b0 cb eb 3b
       -0.0023339945 0.005303778 -0.0076924153 0.0071959123
000290 9f 8b b9 bc c2 ae c5 bb 7f 2e 99 3c 50 88 d2 3b
       -0.022649584 -0.0060327956 0.018698929 0.006424941
0002a0 00 19 f1 3c 99 5a 82 bc cf 29 44 3c c1 63 38 bb
       0.029430866 -0.015912341 0.011972859 -0.002813563
0002b0 d3 62 37 bc 59 91 9d b8 83 fa c2 3c 53 fc 09 3c
       -0.011192995 -7.5134165e-05 0.023801094 0.008421975
0002c0 af d1 8c 3c b6 67 31 3d bb b4 96 3c a7 a4 44 bc
       0.017189829 0.043311797 0.018396726 -0.012002147
0002d0 53 36 85 bc 4b bb 2b bc 6d 91 d5 bc 57 fd a6 3c
       -0.016261255 -0.010481666 -0.026070321 0.020384474
0002e0 67 89 7c 3b a2 c4 ca 3c 16 bc 80 3b f7 ae a1 3b
       0.0038534047 0.024751965 0.0039286716 0.0049341875
0002f0 cd 01 72 3b 19 bf 84 bb 27 c3 d7 bb 28 91 7f bc
       0.0036927343 -0.004051101 -0.0065845433 -0.015598573
000300 c7 24 92 bc 11 d2 3c bc ad 2c 3c 39 90 d8 80 3a
       -0.017839802 -0.011524693 0.0001794572 0.0009830166
000310 73 f9 92 3c cb 2b 65 3c b0 14 2b 3b 60 1b e1 bc
       0.017941212 0.013987492 0.002610486 -0.027478874
000320 44 f8 80 3c 2b 4e d7 bb d7 a9 0f bd 27 cd be 3b
       0.015743382 -0.0065705976 -0.03507408 0.005822796
000330 87 01 f0 bc eb b7 b7 3b 1b 51 ad ba 03 bd e9 ba
       -0.029297603 0.0056066415 -0.0013223024 -0.0017832819
000340 fb c3 cb ba f9 cc 9b bb d3 24 f7 ba a5 d3 b6 3c
       -0.0015546078 -0.0047546593 -0.0018855579 0.022317717
000350 b1 eb b6 3b fa 95 c2 bc 3a d3 10 3c 0c 84 b6 bc
       0.005582296 -0.023753155 0.008839423 -0.022279762
000360 58 14 6a 3b 81 d3 12 3c 1d 4d ea 3c ba 45 57 3c
       0.0035717692 0.008961559 0.028601224 0.013139183
000370 48 c6 83 3c 62 dc de bc 23 7c 7b bc 3d d1 39 bc
       0.016085759 -0.027204696 -0.015349421 -0.01134139
000380 db 80 19 bd e5 49 c8 3b 73 62 84 bc 63 4f 1a bd
       -0.0374764 0.0061123245 -0.016160225 -0.037673365
000390 ba 30 37 bd e2 45 bc 3b 0b 60 18 3b 5c 48 ba 3c
       -0.044724204 0.0057456354 0.0023250605 0.022739582
0003a0 ab 57 3a 3a ec 8f 3f bc 16 06 ac ba b4 8e b4 bb
       0.00071084005 -0.0116920285 -0.0013124372 -0.0055101756
0003b0 ff 79 10 bc c7 e2 3b 3c 7c d6 ae bc 68 de c0 bc
       -0.008818149 0.011467642 -0.021342508 -0.023543552
0003c0 bb 5e 8a bc 77 92 4c bc ee ef 11 bc 27 9b e0 bc
       -0.016890874 -0.012486092 -0.008907301 -0.027417732
0003d0 86 72 9e bc 8f 35 00 3d a3 8a 32 bb 50 15 28 bc
       -0.019341718 0.031301077 -0.0027243278 -0.010258988
0003e0 f3 9f b8 bc 15 07 0f bb 3a 93 48 3c 6b 50 a1 bc
       -0.022537207 -0.002182429 0.012242133 -0.019691667
0003f0 25 02 3a bc 86 ff 1a 3c 3c f5 0d 3b ad 1b a0 bb
       -0.01135305 0.009460336 0.0021661064 -0.0048861117

action_model._continuous_distribution.mu.bias f4 [2]
000000 00 00 00 00 00 00 00 00
       0.0 0.0

network_body._body_endoder.seq_layers.0.weight f4 [128, 6]
000000 44 67 19 3f 88 69 54 3f c3 0f 25 be f4 8d a9 bc
       0.59923196 0.8297353 -0.16119294 -0.020697571
000010 00 cf b7 3e 0e bf 45 be b7 1b 1c bf d5 42 b1 bd
       0.35900116 -0.19311163 -0.6097979 -0.08655325
000020 37 c6 87 be 5e d5 1f 3d b1 84 7b be a2 fb 70 be
       -0.26518413 0.039021842 -0.24562337 -0.2353349
000030 83 f0 3e 3e 00 59 02 3f 27 c7 57 3d a2 50 c2 be
       0.18646435 0.50917053 0.05268016 -0.37952143
000040 5c 76 a4 be dd a0 97 3e d0 05 6b 3f 43 44 4a bd
       -0.3212155 0.29614916 0.91805744 -0.049381506
000050 b6 cf 01 3f 0f 6d 5d 3e a1 45 16 3e 8c 85 ed bc
       0.50707567 0.21623634 0.14674999 -0.028994344
000060 62 57 52 3f 31 ec f9 3d 40 8c 26 bf f1 62 1f be
       0.82164586 0.12203253 -0.65057755 -0.15565087
000070 34 84 c6 be 5f 31 02 3e 7c c2 13 3f 4c 60 a3 be
       -0.38772738 0.12714146 0.57718635 -0.31909406
000080 c0 79 a5 be 73 2f 05 be d4 83 fe be b4 74 d0 be
       -0.3231945 -0.13006382 -0.49709952 -0.40714037
000090 cd f7 81 3c b0 93 e5 3e 2f 63 57 be 53 77 52 bf
       0.015865231 0.4483924 -0.2103393 -0.82213324
0000a0 a2 71 36 3f bd 2d 7f be 46 2e 44 3f 31 ac 96 be
       0.7126714 -0.24919792 0.7663311 -0.29428247
0000b0 8f d3 bd be e4 b3 aa 3e 24 51 66 3e ff da 5e 3e
       -0.3707547 0.3334037 0.2249189 0.21763228
0000c0 30 ef 2c 3f 29 32 0b be bf cc 3a 3c cc 9b fb 3d
       0.6755247 -0.13593353 0.011401354 0.12285575
0000d0 5b 9e 64 bc 96 0d f2 3d db a3 f1 bd 73 30 93 3e
       -0.0139537705 0.118189976 -0.11798831 0.287479
0000e0 30 25 28 3c 22 c6 1e 3f 6d b1 83 bd a6 c6 11 3f
       0.010262772 0.62021077 -0.06430326 0.5694374
0000f0 31 b4 0e bf 43 8c ef bd 2c 83 21 3d 7c 58 ec be
       -0.557437 -0.11696675 0.039431736 -0.46161258
000100 2d a9 15 3f 9b 06 58 3d 9f bc 89 3e 3d 8a 76 3d
       0.58461267 0.052740674 0.2690172 0.060190428
000110 39 00 f0 3d e8 f0 14 bf 4c 0e c2 be 3e cd 01 bf
       0.117187925 -0.58180094 -0.37901533 -0.507038
000120 4a dc e9 be 5d 11 bc be 99 ee c1 be 63 4f 17 be
       -0.4567588 -0.36731997 -0.37877348 -0.14776377
000130 88 ab 46 3f e6 6b ff 3e a6 9b 0f 3e a8 01 57 3e
       0.77605486 0.49887007 0.14024219 0.20996726
000140 ed de 49 3d f5 cc 9b bd 4f df 38 bf f6 79 8e 3e
       0.049284864 -0.07607452 -0.7221574 0.27827424
000150 e4 08 3a bf dc 6b e2 3c ce 40 43 bf e7 aa 9c 3d
       -0.72669816 0.027639322 -0.7627076 0.076497845
000160 f9 57 0a 3f ea e5 aa be fe 06 da bd 34 b5 8a 3e
       0.54040486 -0.33378536 -0.10645865 0.27091372
000170 d0 83 0c 3e 8e 46 b8 be 6b 16 4d be cf 44 f0 3d
       0.13722157 -0.3599133 -0.20028083 0.11731874
000180 e2 f9 c0 3e 20 7e 51 3e 3e 71 f3 be 2c 75 3e be
       0.37690645 0.20458269 -0.47547334 -0.18599385
000190 01 a2 9d 3e 88 ed 59 3e 0f d5 01 3d c9 bf bc bd
       0.30787662 0.21282017 0.03169733 -0.092162676
0001a0 16 ff f1 3e 8b 1c 0b 3f 13 61 81 bd d1 72 88 3d
       0.47264928 0.5434043 -0.063173436 0.066625245
0001b0 39 51 bf 3d 17 00 4b bf ad 32 e4 be a5 76 08 3f
       0.09341664 -0.7929701 -0.44569913 0.5330604
0001c0 96 d0 f0 bc 2a 19 40 3b 9b 96 f6 3e 4c 52 aa 3d
       -0.029396337 0.0029311874 0.48161778 0.08316478
0001d0 06 1a bf bd a6 c1 aa be de 59 93 3d 29 5b 8b be
       -0.093311355 -0.33350867 0.07194875 -0.27217987
0001e0 45 b0 c2 3d 0c 1e 43 3d 8b 16 a9 bd ab 66 01 3f
       0.09506277 0.047636077 -0.08256253 0.50547284
0001f0 6e 3b 79 be f5 a4 4d 3e 7c 03 2b 3f e3 73 44 3f
       -0.24339077 0.20082457 0.6680219 0.7673933
000200 b4 8d 33 3f a7 cc 64 3d 72 36 d1 3e 63 94 ad be
       0.70138097 0.055859234 0.4086185 -0.33902273
000210 6f 67 9c bd 08 c0 da be 17 0e 30 3d ab ca e0 3d
       -0.07636916 -0.42724633 0.042982187 0.10976156
000220 56 6c 1a 3c 1d 23 a5 3e ad ac 12 be ae ba 8f 3e
       0.009425243 0.32253352 -0.14323683 0.28072113
000230 a8 57 89 3e 3b e7 1d 3e 6e 5d 45 bd 21 83 1b be
       0.2682469 0.15420239 -0.048184805 -0.1518674
000240 24 e2 36 3f da ae b4 3b 15 1e c9 3e ff 65 89 be
       0.71438813 0.005514008 0.39280763 -0.2683563
000250 73 0a bd be 1b 5f 57 be 4d 24 eb 3b 94 d1 eb be
       -0.36922035 -0.21032374 0.0071759582 -0.46058333
000260 9f dc 5f 3e 70 fc d9 3d a3 73 c8 bd 7d 2d 0a 3e
       0.21861504 0.10643852 -0.09787681 0.13493915
000270 46 25 41 be 1d 1e 9c 3e e4 f3 8a 3c c6 d1 4d 3e
       -0.18861875 0.30491725 0.016962 0.20099553
000280 9b a7 66 be f8 c1 99 be 97 ad 3a be 11 60 34 3f
       -0.22524874 -0.300308 -0.18230282 0.70459086
000290 e9 1d 1e 3e 03 86 99 3e b5 8d 7f 3e 1e 82 cd 3e
       0.15441097 0.29985055 0.249564 0.40138334
0002a0 b3 7e a5 bd 99 a0 2f be 41 f9 a3 3e a1 39 6f 3d
       -0.080808066 -0.17151107 0.32026103 0.05840457
0002b0 54 d6 4f bd c6 dd cd bd 69 99 37 bf ca 2f 05 be
       -0.05074151 -0.100520656 -0.7171846 -0.13006511
0002c0 a5 f0 15 3f d5 b5 22 bf a8 06 6c be 7c 0b 4f 3e
       0.5857032 -0.63558704 -0.23049414 0.20219225
0002d0 b6 60 c7 be 6a 22 c7 3a 58 d5 14 3f f5 76 09 bf
       -0.38940972 0.0015192751 0.58138037 -0.5369714
0002e0 cb dc 90 3f 8c 90 3b 3f d8 a4 13 be f5 15 3d 3b
       1.1317381 0.73267436 -0.14418352 0.0028852199
0002f0 57 1a 22 bf 96 b9 c3 3e ef 62 45 bf 3d fb 93 3d
       -0.6332144 0.38227528 -0.77104086 0.07225654
000300 e1 9b e9 3c a8 e6 8d 3d 86 85 4c be 94 f9 4d 3e
       0.028516712 0.0692876 -0.1997281 0.20114738
000310 9c 7d a5 3e 54 c7 2c 3e 72 de 21 3f 04 55 8a bf
       0.32322395 0.16872913 0.6323005 -1.0807195
000320 6f 2c dc 3e 10 fa 1a be 54 90 13 3f 4b 0e 19 3f
       0.4300265 -0.15134454 0.576421 0.59787434
000330 a9 97 c2 be 26 ec 0b be e9 5c 74 be 4d a3 ba bd
       -0.38006333 -0.13664302 -0.23863567 -0.091131784
000340 e8 3e 5c 3e aa 22 a1 be 94 47 0e 3e 81 1f 8e 3e
       0.21508372 -0.3147176 0.13894492 0.2775841
000350 74 01 3e 3d 2d a8 40 3d 04 56 93 be 54 6a 70 bd
       0.046388105 0.047035385 -0.28776562 -0.058695152
000360 16 6d 28 bf d5 48 f5 3e 5e 69 0e be 43 28 67 3f
       -0.6579145 0.4790713 -0.13907382 0.9029581
000370 b1 0d 9a be e1 a4 7a 3e b3 15 1b 3f fc e2 43 3e
       -0.3008857 0.24476959 0.60579985 0.19129556
000380 db c4 3b 3b fd b0 02 3f 58 69 5c be a6 48 d9 be
       0.002865127 0.5105131 -0.2152456 -0.4243824
000390 96 ee a7 bd b2 e8 c0 3e 83 91 e7 be 80 f3 24 3f
       -0.081998035 0.37677532 -0.45228204 0.6443405
0003a0 2a f3 9e be 1a 92 23 3e f8 19 39 be 04 c2 44 3f
       -0.31044894 0.15973702 -0.18076313 0.76858544
0003b0 e5 a3 34 3d 80 5e 50 bb 30 15 45 bf 53 77 f4 bd
       0.044101615 -0.0031794608 -0.76985455 -0.11936822
0003c0 ba 74 0e bf 62 80 78 bd 33 98 7d 3d 9f 40 73 3f
       -0.5564686 -0.06066931 0.061912727 0.9502048
0003d0 43 40 20 be 23 8b 8a 3e fe 47 3c 3b 1b 45 09 bf
       -0.15649514 0.27059278 0.0028729434 -0.5362107
0003e0 52 3c b7 be 2f 14 30 3e f2 61 4b be 8f 5a d7 3e
       -0.35788208 0.171952 -0.19861582 0.42061278
0003f0 4e fe 06 3e 0d 39 85 bd 1b 6a 6b be 4a 15 27 bf
       0.13182947 -0.06505022 -0.22989695 -0.6526686

network_body._body_endoder.seq_layers.0.bias f4 [128]
000000 00 00 00 00 00 00 00 00 00 00 00 00 00 00 00 00
       0.0 0.0 0.0 0.0
000010 00 00 00 00 00 00 00 00 00 00 00 00 00 00 00 00
       0.0 0.0 0.0 0.0
000020 00 00 00 00 00 00 00 00 00 00 00 00 00 00 00 00
       0.0 0.0 0.0 0.0
000030 00 00 00 00 00 00 00 00 00 00 00 00 00 00 00 00
       0.0 0.0 0.0 0.0
000040 00 00 00 00 00 00 00 00 00 00 00 00 00 00 00 00
       0.0 0.0 0.0 0.0
000050 00 00 00 00 00 00 00 00 00 00 00 00 00 00 00 00
       0.0 0.0 0.0 0.0
000060 00 00 00 00 00 00 00 00 00 00 00 00 00 00 00 00
       0.0 0.0 0.0 0.0
000070 00 00 00 00 00 00 00 00 00 00 00 00 00 00 00 00
       0.0 0.0 0.0 0.0
000080 00 00 00 00 00 00 00 00 00 00 00 00 00 00 00 00
       0.0 0.0 0.0 0.0
000090 00 00 00 00 00 00 00 00 00 00 00 00 00 00 00 00
       0.0 0.0 0.0 0.0
0000a0 00 00 00 00 00 00 00 00 00 00 00 00 00 00 00 00
       0.0 0.0 0.0 0.0
0000b0 00 00 00 00 00 00 00 00 00 00 00 00 00 00 00 00
       0.0 0.0 0.0 0.0
0000c0 00 00 00 00 00 00 00 00 00 00 00 00 00 00 00 00
       0.0 0.0 0.0 0.0
0000d0 00 00 00 00 00 00 00 00 00 00 00 00 00 00 00 00
       0.0 0.0 0.0 0.0
0000e0 00 00 00 00 00 00 00 00 00 00 00 00 00 00 00 00
       0.0 0.0 0.0 0.0
0000f0 00 00 00 00 00 00 00 00 00 00 00 00 00 00 00 00
       0.0 0.0 0.0 0.0
000100 00 00 00 00 00 00 00 00 00 00 00 00 00 00 00 00
       0.0 0.0 0.0 0.0
000110 00 00 00 00 00 00 00 00 00 00 00 00 00 00 00 00
       0.0 0.0 0.0 0.0
000120 00 00 00 00 00 00 00 00 00 00 00 00 00 00 00 00
       0.0 0.0 0.0 0.0
000130 00 00 00 00 00 00 00 00 00 00 00 00 00 00 00 00
       0.0 0.0 0.0 0.0
000140 00 00 00 00 00 00 00 00 00 00 00 00 00 00 00 00
       0.0 0.0 0.0 0.0
000150 00 00 00 00 00 00 00 00 00 00 00 00 00 00 00 00
       0.0 0.0 0.0 0.0
000160 00 00 00 00 00 00 00 00 00 00 00 00 00 00 00 00
       0.0 0.0 0.0 0.0
000170 00 00 00 00 00 00 00 00 00 00 00 00 00 00 00 00
       0.0 0.0 0.0 0.0
000180 00 00 00 00 00 00 00 00 00 00 00 00 00 00 00 00
       0.0 0.0 0.0 0.0
000190 00 00 00 00 00 00 00 00 00 00 00 00 00 00 00 00
       0.0 0.0 0.0 0.0
0001a0 00 00 00 00 00 00 00 00 00 00 00 00 00 00 00 00
       0.0 0.0 0.0 0.0
0001b0 00 00 00 00 00 00 00 00 00 00 00 00 00 00 00 00
       0.0 0.0 0.0 0.0
0001c0 00 00 00 00 00 00 00 00 00 00 00 00 00 00 00 00
       0.0 0.0 0.0 0.0
0001d0 00 00 00 00 00 00 00 00 00 00 00 00 00 00 00 00
       0.0 0.0 0.0 0.0
0001e0 00 00 00 00 00 00 00 00 00 00 00 00 00 00 00 00
       0.0 0.0 0.0 0.0
0001f0 00 00 00 00 00 00 00 00 00 00 00 00 00 00 00 00
       0.0 0.0 0.0 0.0

network_body._body_endoder.seq_layers.2.weight f4 [128, 128]
000000 fa ab f5 3d 9d cf 33 3d b1 84 58 3e 9f 3e ef 3d
       0.119956926 0.043899167 0.21144368 0.11681866
000010 61 e2 bd bc 47 bd b6 bd 73 42 e6 3d db 6f 27 bd
       -0.023179235 -0.089228205 0.11243143 -0.040878158
000020 fb f8 95 bd 9d 9f 3a bd d0 94 d0 3d d8 05 73 3d
       -0.0732288 -0.045562375 0.10184634 0.059331745
000030 cf 24 9a 3d 41 b6 e3 3d ba 0c 43 bd 2a 00 b5 3c
       0.07526552 0.111187465 -0.04761956 0.022094805
000040 bb 3d 79 bd ab 5e 0d 3d f0 8d cd 3c 7e 23 af bc
       -0.060849886 0.03451411 0.025092095 -0.021379229
000050 6e 98 de 3d c8 a5 e9 bd 6a ad 2c 3c cf bf 29 bd
       0.108689174 -0.114085734 0.010539392 -0.04144269
000060 43 db c0 3c 2e ab 5e bd f3 8c d8 bd 1c 46 cd bc
       0.023542052 -0.05436247 -0.10573759 -0.025057845
000070 ac b4 f8 bc 06 21 8d bd ff dc 87 3b 38 05 13 3d
       -0.030359589 -0.06891064 0.004146218 0.03589365
000080 f1 69 97 3d 85 1a 9d 3d 70 48 3f 3d 07 32 a5 3d
       0.073932536 0.07671074 0.04669994 0.080661826
000090 2a 7d d1 3b 25 40 d7 bb bb a4 13 3d 05 1e 78 3c
       0.0063930945 -0.006568926 0.03604577 0.015143876
0000a0 24 3e a9 bd 44 2a 99 3d 66 3e 99 3d ae b4 e5 3c
       -0.082638055 0.07478765 0.07482605 0.028040256
0000b0 34 9b 84 3d 47 19 ee 3d f6 db 2a bc 26 e4 84 bb
       0.06474915 0.11625915 -0.010428419 -0.0040555177
0000c0 0a 6a 21 3d 40 4c ca bd ee d4 ce 3d 19 7d 32 bd
       0.039407767 -0.09877825 0.10099207 -0.043576334
0000d0 09 cf 03 bd bc 95 b2 bc b2 39 5e bd 44 2b ae bd
       -0.032179866 -0.021799915 -0.05425424 -0.08504346
0000e0 a1 ae 0d bd f4 a3 ef bc 7a 8e ba 3d a1 20 c2 3d
       -0.034590367 -0.029252984 0.091092065 0.0947888
0000f0 83 e9 73 3d aa 12 9c 3c d1 fc 69 3c 02 ec 38 3e
       0.059548866 0.019051868 0.014281468 0.1805878
000100 8c 36 cd bc 91 94 83 bd 54 61 b9 3d 26 1d 08 bc
       -0.025050424 -0.06424821 0.09051767 -0.008307731
000110 fa 96 0c bc 7d cf 96 3d e6 3f 48 bd 10 68 cf 3c
       -0.0085809175 0.07363794 -0.048889063 0.025318176
000120 2f f1 e2 3d 0a fa 9b bc 88 bc 47 bc 05 1d 98 3d
       0.11081158 -0.019040126 -0.012190945 0.0742741
000130 16 43 18 bd f3 b3 1b be 1d 26 2c bc 65 e3 46 3d
       -0.037173353 -0.15205364 -0.010507134 0.048556704
000140 13 3d dc bd 44 7f 98 3d 80 72 02 3c 13 c4 08 be
       -0.107538365 0.07446149 0.007961869 -0.13356046
000150 77 df c3 bd fc 77 1d be 83 b8 52 bc e7 4f 89 3d
       -0.09564107 -0.15377802 -0.012861374 0.06704693
000160 ce c2 7f 3e 2e 16 01 be 0a 02 7d bd 81 3c 61 bc
       0.24976656 -0.12606117 -0.061769523 -0.013747335
000170 b9 c8 c0 3c 82 68 d8 bd 2c 20 b7 3c f6 83 32 bd
       0.023533212 -0.10566808 0.022354208 -0.04358288
000180 29 40 cf 3c 11 f6 7e 3e 63 d6 e1 3d 77 a9 44 3e
       0.025299149 0.24898554 0.11027219 0.1920527
000190 63 e1 ce bd f0 0a 9a bd c7 8b 41 3e b4 8a 9f 3d
       -0.10101583 -0.075216174 0.18900977 0.077901274
0001a0 0b d6 0a be 26 23 14 be 9d 55 52 3b ef a1 97 bd
       -0.13558213 -0.14466533 0.0032094487 -0.07403933
0001b0 ba 0e f6 3d 23 49 cc bd a1 e9 8f 3a 01 35 80 3d
       0.120145276 -0.09974887 0.0010979661 0.0626011
0001c0 eb b4 04 bd 86 7e f2 bd 3b 3f b8 bc d2 c6 60 3d
       -0.0323991 -0.11840539 -0.022491088 0.05487711
0001d0 d1 1f 40 3d ed 78 a0 bb 93 55 d8 bd 34 31 1c 3e
       0.046905342 -0.004897228 -0.10563197 0.15253145
0001e0 1d f7 d2 3b 48 14 2e 3d d8 ca 1f bd ab e8 3f 3d
       0.0064381496 0.04249981 -0.039011806 0.04685275
0001f0 b6 91 31 bd 09 8f a3 3d 17 98 66 3d a0 bb c2 bd
       -0.04335185 0.07986266 0.056297388 -0.09508443
000200 56 04 f1 3d 64 bd 94 3c 3e 07 4d 3b f3 74 d1 3d
       0.11768405 0.018156715 0.0031284834 0.102273844
000210 ba b7 92 3d f2 4d 93 bc c0 22 39 bd 9e 2a 89 bd
       0.07163949 -0.017981503 -0.045199156 -0.06697582
000220 4a 35 19 bd 3c 23 28 bd d8 d8 df bd b4 c0 f5 bd
       -0.037404336 -0.041049227 -0.109300315 -0.11999646
000230 ab f8 c8 bc 87 2f a3 bc d4 a9 81 be 83 cf 2c bd
       -0.024532637 -0.019920124 -0.2532488 -0.042190086
000240 74 fe a5 3d bf e7 95 bc 8a 07 a9 3d 58 13 c8 3c
       0.08105174 -0.018298982 0.08253391 0.024423286
000250 ed 2d 25 3e 75 ff a6 bd d8 6d 5a bd 08 d6 62 bd
       0.161308 -0.08154193 -0.05332741 -0.055379897
000260 b9 1b 11 39 64 22 13 3e e8 1d f0 3b 6b 8e 76 3b
       0.00013838605 0.14368588 0.007327784 0.0037621509
000270 8a 58 4f 3d 19 7f ab 3c f9 00 e0 3d d8 af df bb
       0.050621547 0.020934628 0.109376855 -0.006826382
000280 94 db 97 3d 15 1b c1 3a 7a df 01 3d 44 1a 17 be
       0.07414928 0.0014732803 0.031707264 -0.14756113
000290 26 f4 ca bb b8 b1 40 3c df 24 54 bd b6 e1 ce bd
       -0.0061936555 0.011761121 -0.051792976 -0.10101645
0002a0 db ca 23 bd c5 2d d2 3d 47 0a 54 bb 6b 4a 9e 3c
       -0.03998838 0.10262636 -0.0032354759 0.019322595
0002b0 a7 6a aa 3d d1 f4 00 3e 4a df 8c 3a 1f 4a 90 bd
       0.083211236 0.1259339 0.0010747698 -0.070453875
0002c0 f0 04 45 3d f9 fe 6d bc 8a 7e f5 bd d8 64 db bd
       0.048100412 -0.014526122 -0.11987026 -0.10712594
0002d0 9c 3d 6f 3c b8 fa b3 3d 5c 50 0c be 1e 12 48 3d
       0.014602091 0.08788055 -0.1370253 0.048845403
0002e0 64 8c d5 3d af 0f 52 bc 8c 5d c3 bd 94 61 08 bd
       0.10427168 -0.012821122 -0.09539327 -0.033296183
0002f0 66 33 4b 3d b6 35 23 be 36 f2 cc bd f6 86 a4 bd
       0.049609564 -0.15938458 -0.100071356 -0.08033554
000300 a1 6c f1 3c b7 99 02 3b 22 2a 0a 3d 8e 88 cb bd
       0.029470744 0.0019928047 0.033731587 -0.09938155
000310 5a b6 80 3d 67 76 2c 3d 00 4f fa bd a3 ab 7b bd
       0.06284781 0.042105105 -0.12222099 -0.061442982
000320 c8 bc 52 bc 67 f6 08 3d 98 69 d6 3d 85 2f 5e bd
       -0.012862392 0.033438113 0.10469359 -0.054244537
000330 da 9c 08 be 83 5a 91 3d cd 2e 32 be a1 ee 80 3e
       -0.13341084 0.07097342 -0.17400666 0.2518206
000340 ea d8 40 be e0 3d 07 3d f2 36 4b bc 5e ba 8d 3d
       -0.18832746 0.033017993 -0.012403237 0.06920312
000350 ea 82 d1 3c 86 7c b5 bd cc 12 94 3c ae ee 08 bd
       0.02557512 -0.088616416 0.01807537 -0.033430748
000360 c1 d7 a7 bc 09 7e a0 bd 45 e5 be 3d 62 66 f6 bd
       -0.020488622 -0.07836539 0.093210734 -0.12031247
000370 1c 33 fe bd ee 5c 09 3e cc ba f2 bd 15 af c9 bd
       -0.12412092 0.13414356 -0.11852035 -0.09847847
000380 c3 88 47 bd 66 16 71 3d 83 bc cc bd f9 95 28 bb
       -0.04871441 0.05885925 -0.09996893 -0.0025724156
000390 f5 2a 14 3b 5c 07 48 bd f7 ce 42 bd f8 d6 d4 bc
       0.0022608612 -0.048835143 -0.04756066 -0.025981411
0003a0 ba 58 56 bd 15 f7 35 3c 46 5a 9f 3c 00 e3 52 3e
       -0.05233071 0.011106272 0.019452225 0.20594406
0003b0 08 6c ad 3d d9 45 ed bc 6b 58 1b 3e 00 d3 c9 bd
       0.08467871 -0.02896397 0.15170448 -0.09854698
0003c0 ac 85 93 bd 85 78 a5 bd 72 3c 9a bd 9a 1c a2 bd
       -0.0720323 -0.08079628 -0.0753106 -0.079156116
0003d0 7e 6f 7c 3c a4 35 88 bc f6 35 10 3e bf fc b9 3d
       0.015407441 -0.01662714 0.14083084 0.090814106
0003e0 e0 80 47 bd 38 c2 1c 3d 73 1c cb 3d 1e 42 9c 3c
       -0.04870689 0.03827116 0.09917536 0.019074496
0003f0 61 55 fe 3d 08 00 e6 bd fe e7 e1 bd 74 4f da 3d
       0.124186285 -0.11230475 -0.11030577 0.10659686

network_body._body_endoder.seq_layers.2.bias f4 [128]
000000 00 00 00 00 00 00 00 00 00 00 00 00 00 00 00 00
       0.0 0.0 0.0 0.0
000010 00 00 00 00 00 00 00 00 00 00 00 00 00 00 00 00
       0.0 0.0 0.0 0.0
000020 00 00 00 00 00 00 00 00 00 00 00 00 00 00 00 00
       0.0 0.0 0.0 0.0
000030 00 00 00 00 00 00 00 00 00 00 00 00 00 00 00 00
       0.0 0.0 0.0 0.0
000040 00 00 00 00 00 00 00 00 00 00 00 00 00 00 00 00
       0.0 0.0 0.0 0.0
000050 00 00 00 00 00 00 00 00 00 00 00 00 00 00 00 00
       0.0 0.0 0.0 0.0
000060 00 00 00 00 00 00 00 00 00 00 00 00 00 00 00 00
       0.0 0.0 0.0 0.0
000070 00 00 00 00 00 00 00 00 00 00 00 00 00 00 00 00
       0.0 0.0 0.0 0.0
000080 00 00 00 00 00 00 00 00 00 00 00 00 00 00 00 00
       0.0 0.0 0.0 0.0
000090 00 00 00 00 00 00 00 00 00 00 00 00 00 00 00 00
       0.0 0.0 0.0 0.0
0000a0 00 00 00 00 00 00 00 00 00 00 00 00 00 00 00 00
       0.0 0.0 0.0 0.0
0000b0 00 00 00 00 00 00 00 00 00 00 00 00 00 00 00 00
       0.0 0.0 0.0 0.0
0000c0 00 00 00 00 00 00 00 00 00 00 00 00 00 00 00 00
       0.0 0.0 0.0 0.0
0000d0 00 00 00 00 00 00 00 00 00 00 00 00 00 00 00 00
       0.0 0.0 0.0 0.0
0000e0 00 00 00 00 00 00 00 00 00 00 00 00 00 00 00 00
       0.0 0.0 0.0 0.0
0000f0 00 00 00 00 00 00 00 00 00 00 00 00 00 00 00 00
       0.0 0.0 0.0 0.0
000100 00 00 00 00 00 00 00 00 00 00 00 00 00 00 00 00
       0.0 0.0 0.0 0.0
000110 00 00 00 00 00 00 00 00 00 00 00 00 00 00 00 00
       0.0 0.0 0.0 0.0
000120 00 00 00 00 00 00 00 00 00 00 00 00 00 00 00 00
       0.0 0.0 0.0 0.0
000130 00 00 00 00 00 00 00 00 00 00 00 00 00 00 00 00
       0.0 0.0 0.0 0.0
000140 00 00 00 00 00 00 00 00 00 00 00 00 00 00 00 00
       0.0 0.0 0.0 0.0
000150 00 00 00 00 00 00 00 00 00 00 00 00 00 00 00 00
       0.0 0.0 0.0 0.0
000160 00 00 00 00 00 00 00 00 00 00 00 00 00 00 00 00
       0.0 0.0 0.0 0.0
000170 00 00 00 00 00 00 00 00 00 00 00 00 00 00 00 00
       0.0 0.0 0.0 0.0
000180 00 00 00 00 00 00 00 00 00 00 00 00 00 00 00 00
       0.0 0.0 0.0 0.0
000190 00 00 00 00 00 00 00 00 00 00 00 00 00 00 00 00
       0.0 0.0 0.0 0.0
0001a0 00 00 00 00 00 00 00 00 00 00 00 00 00 00 00 00
       0.0 0.0 0.0 0.0
0001b0 00 00 00 00 00 00 00 00 00 00 00 00 00 00 00 00
       0.0 0.0 0.0 0.0
0001c0 00 00 00 00 00 00 00 00 00 00 00 00 00 00 00 00
       0.0 0.0 0.0 0.0
0001d0 00 00 00 00 00 00 00 00 00 00 00 00 00 00 00 00
       0.0 0.0 0.0 0.0
0001e0 00 00 00 00 00 00 00 00 00 00 00 00 00 00 00 00
       0.0 0.0 0.0 0.0
0001f0 00 00 00 00 00 00 00 00 00 00 00 00 00 00 00 00
       0.0 0.0 0.0 0.0

value_heads.value_heads.extrinsic.weight f4 [1, 128]
000000 e8 dc 9e bc d0 87 21 3d 30 f5 1b 3d 56 3f 27 3e
       -0.019392446 0.03943616 0.038075626 0.16332754
000010 cb 1f f9 bd b0 81 be 3d 50 b3 e7 bc 24 de 9f bd
       -0.12164267 0.0930208 -0.028283745 -0.07806042
000020 86 8d 39 3e 20 90 ff bc 22 ce 8b bd 98 b3 dd 3d
       0.18120393 -0.031196654 -0.06826426 0.108252704
000030 80 84 49 3d d4 0d 8a bd 9e 7d 2c 3e 88 35 23 3e
       0.049198627 -0.06740919 0.16844794 0.1593839
000040 46 11 3d 3e 57 a6 fc bd ac 0d 11 3e 5c 52 dd bd
       0.1846362 -0.12336414 0.14165372 -0.108067244
000050 50 dc 56 3c b4 b1 48 bd 68 fe e8 bd 04 50 2d be
       0.01311405 -0.048997596 -0.11376649 -0.16925055
000060 5d 25 4d be 00 c3 99 3d 4a f7 03 be 20 83 cd bd
       -0.20033784 0.075078964 -0.12887302 -0.10034776
000070 7b 35 e4 bd 46 f4 5a 3e 80 28 07 bc cd 18 16 be
       -0.11143013 0.21382245 -0.008249402 -0.14657898
000080 3a e5 44 3e da 37 3d 3e 66 45 8a bd 44 4f 14 bd
       0.19228068 0.18478337 -0.06751518 -0.036208406
000090 e4 4c ad 3d 88 08 27 3d 78 1a 8a 3d d1 c5 02 be
       0.08461931 0.04077962 0.0674333 -0.12770773
0000a0 40 e3 73 bd 03 e5 3a be 4a 1b 2d be 80 3f ce 3d
       -0.059542894 -0.18251424 -0.16904941 0.100707054
0000b0 00 ba 1e bb f8 09 61 3d 54 0b 8a 3d f8 d8 c7 3d
       -0.0024219751 0.054941148 0.06740442 0.097581804
0000c0 6c 67 97 3d e6 4d 14 be 80 d6 f0 3d 00 39 2b 3d
       0.07392773 -0.14482841 0.11759663 0.041802406
0000d0 80 c7 cb 3d f0 9b 01 be f6 1b d7 bd a8 f0 80 3d
       0.09950161 -0.12657142 -0.1050338 0.062959015
0000e0 70 7c 50 be c4 4c ba 3d 4a bb 4c be b2 e9 e1 bd
       -0.20359969 0.09096673 -0.1999332 -0.11030902
0000f0 76 62 22 3e 51 a9 0a be d5 a6 c5 bd ea f4 26 be
       0.15857872 -0.13541152 -0.09650961 -0.16304365
000100 4b a4 3b be 62 ca 0e be 52 2e 14 3e f0 90 9e bc
       -0.18324392 -0.1394439 0.14470795 -0.019356221
000110 b8 6e 56 3d 68 67 3a be 70 86 5f 3d 80 f1 45 be
       0.052351683 -0.18203509 0.05457157 -0.19330406
000120 b8 68 98 bd 16 68 07 be 16 31 33 be ce 4c 42 3e
       -0.074418485 -0.132233 -0.17499194 0.18974611
000130 40 58 0f 3b 5c dd 2b 3e 2a f9 87 bd 53 4c 53 be
       0.002187267 0.1678366 -0.06639321 -0.20634584
000140 9e 8b 3b 3e 84 56 9a 3d e0 7b df 3c 84 fc 04 3e
       0.18314978 0.07536033 0.027280748 0.12986952
000150 c4 ce 9b bd 14 2f 56 3e 60 f0 16 3d a0 d1 71 bc
       -0.07607797 0.20916396 0.036850333 -0.014759451
000160 d0 f2 0a bc ec f5 1e 3e d0 ad 1a 3d 28 07 87 3c
       -0.008480743 0.15523499 0.037763417 0.016482905
000170 be e8 8d bd f0 79 4f 3e b4 74 ed 3d 6a 78 89 bd
       -0.06929158 0.20261359 0.11594525 -0.0671242
000180 fa 68 da bd 52 e3 4c 3e fc 30 da bd a3 7c 1c be
       -0.10664554 0.20008591 -0.10653874 -0.1528192
000190 6c dc de bd fb 95 31 be 49 e3 fb bd 64 ee d6 3d
       -0.10881886 -0.1734237 -0.122992106 0.10494688
0001a0 98 e6 c1 bc 10 33 44 3e e0 1c e4 bb 4e 64 4c be
       -0.023669526 0.19160104 -0.00696145 -0.19960138
0001b0 38 b2 47 be 90 1e 0e 3e e8 73 8e 3d 5d c9 06 be
       -0.19501579 0.13878846 0.06955701 -0.13162751
0001c0 44 bc 41 3e fb d2 e7 bd e0 41 21 be 30 f4 5a 3e
       0.18919474 -0.11319538 -0.15747786 0.21382213
0001d0 68 1e 35 3d 50 c0 ec 3c 6e 6a 5b 3e 98 25 16 3d
       0.04421845 0.028900295 0.21427318 0.036656946
0001e0 96 ed 36 be 88 f1 f1 3c 26 ab 09 be b6 76 8d bd
       -0.1786407 0.029534116 -0.13444194 -0.06907408
0001f0 c6 4c 0b 3e f8 b7 56 3e 2b e8 c7 bd c0 29 5c 3d
       0.13603505 0.20968616 -0.097610794 0.053750753
