ML Agent Practice/results/ppo/MoveToGoal/MoveToGoal-2367.pt (torch, 149530 bytes, 12 tensors)

network_body._body_endoder.seq_layers.0.weight f4 [128, 6]
00000000: 1475 1c3c 6494 31bd 35a0 8b3e 5d66 9bbb
00000010: d229 363e 067a 2b3f 46ac 933e 5fad ffbe
00000020: 9529 323d 5289 823e 979f a7be e90e 0d3f
00000030: 9541 98bd 2268 203f b491 d1be 2245 d23e
00000040: aa07 ec3e 64e4 c6bd b94b 203e 20b5 573e
00000050: df75 0abe 7a25 a83e 9fb1 833e eeb1 9fbd
00000060: 912a e0be abe8 45bd 960f 143f 2a68 3cbd
00000070: a7a3 3fbd 04b6 a63e f56c febd f91d 833e
00000080: edaf 463f 6fc7 063e 67cf 873e eaba 95ba
00000090: ee95 903e a728 b4be a134 04bf 1c5f 93be
000000a0: dda6 ecbe 7751 523e 935e 80be 8af4 2b3f
000000b0: 78e7 083f 807d c4bd 7baa 3ebe 7476 b53d
000000c0: cf21 51bb ec32 70be e6fc 083e cac7 73be
000000d0: b098 d6bd cd87 f63e eeb9 323e a543 d8be
000000e0: d8f6 6b3d df2d a43e dc06 d6bd 3617 2b3f
000000f0: 1bf9 16be 8be2 bfbe 9b8b 06bf 09da c4bd
00000100: 11bc 4f3f b61d f53d b92d 993e c29d 0b3d
00000110: bb78 88bb efaa f0be 783b cbbe 28d0 4dbe
00000120: 68d5 db3d 35fb cfbe d3c1 5abe 59b2 08bf
00000130: 3fe5 9ebe 4e02 2c3e 0d6e 683f 5f8a 113e
00000140: c274 d7bb cd16 c9bc 5909 e1bd 26d8 f8bd
00000150: 136a b9be 984b 8fbe 9ae3 24be 2c58 563e
00000160: 49ce bb3e 0d52 db3e 4a4e d8bd c16d 83bd
00000170: cae1 753e e0ee 30bf 206f a23d c85e 79be
00000180: f5e1 5b3e 0491 5bbf 8776 d33e d216 4cbe
00000190: f360 0ebe 13a0 a63e 5087 b0bd b85d b7be
000001a0: 1dba 223e 9925 9fbd 8e29 1e3d 59aa 02bf
000001b0: 1476 6cbd 8608 c7be a890 a83d 7aba 3dbf
000001c0: 842c 48bf f2c4 c6be 2512 e13e a365 b73e
000001d0: b6c3 82be 5767 053f 4558 ae3e c47c 053f
000001e0: 23e0 df3d 8b77 5c3c 97b7 173e 68d9 b8be
000001f0: 2918 473e efe3 39bd bc88 a03e ccb2 3f3f
00000200: 1774 85bf 0d5f 793e aba3 36be 1a85 d23e
00000210: fb68 53bf 18d9 4c3e dc2a 62bd 0961 11bf
00000220: e76a 8b3e 2455 c73c 4471 983e b1fb 64bf
00000230: de79 f7bd bea8 003e 0c5d f43e f7a2 ca3e
00000240: c3e1 96be 60c5 e4bd d71c d9be d377 b0bf
00000250: 9367 983e c119 ddbe ea3a e5be b5b8 83bd
00000260: 8fe6 183f 2d16 05be b548 bebd 25a7 83bd
00000270: d556 b7be eb49 6bbf 7cdc aabe ae78 a93e
00000280: 03aa 28bf 7e90 d23c a261 a93d 2cbe f33e
00000290: 4647 6fbe ae0b efbe 0f47 bbbb 0770 e6be
000002a0: 667e 98be 9ddc 1c3e 7066 03bf c8ec d5be
000002b0: e834 253e 63b5 c43e 1952 8f3e 4f16 3cbf
000002c0: 9fad 30bd 9b13 2dbe 9265 89bf dc69 68be
000002d0: 883d 303d 3753 ab3e c77e d3be 2431 733f
000002e0: 3474 b1be 7cf1 64be c213 9dbe 05d0 7a3e
000002f0: ba8b 103e 894c e83e 8c4b 4ebd 4bc9 5b3e
00000300: 0716 4a3f 0a72 18be 1b34 343e 196b 04bd
00000310: 16e7 a3be 244e 13bf 2d6f cd3e 0e86 e33e
00000320: 0bd9 6cbe 10ca 8fbc 2fb3 403e 867c 933e
00000330: ae93 683e 5146 1c3f d01d 3ebf fe05 40bd
00000340: 869e 90be d25c bcbd feff 16bf 3e9b 13bd
00000350: aa7d 2abf adc6 f9be 3935 323e 2142 2c3e
00000360: 291b 30bc 41c0 c1bd aa94 1dbf 089c 45be
00000370: 7aea 0dbf 8570 d63e b793 8abe d28f d03e
00000380: ecf1 003e 8967 52be 478f 68bf f532 dc3e
00000390: 49ac d73e 924b 1cbf 3370 1f3f 8bf5 343e
000003a0: 54c0 9d3e adb9 903e be54 79bd 501a 053f
000003b0: 7181 17be 01c0 0ebe 6bc7 543e 419f 8a3a
000003c0: 57ef d53e 0f76 383f e619 143e cf16 4ebd
000003d0: 2664 173e c80c fabe e188 f13e 72d6 d83e
000003e0: 2611 eabe 4801 59bf 9806 eebe c1c2 c8be
000003f0: 606a 743e d045 98bf 1412 153f 5858 3abf
0.009549398 -0.043354407 0.27270666 -0.0047424273 0.1778939 0.6698307 0.28842372 -0.4993696
0.043496687 0.25495392 -0.32738945 0.55100876 -0.07434384 0.62658894 -0.40931475 0.4106837
0.46099597 -0.09711531 0.15653886 0.21065187 -0.13521527 0.32841092 0.25721452 -0.07797609
-0.43782476 -0.048317593 0.5783628 -0.045997776 -0.04678693 0.32560742 -0.12423126 0.25608805
0.7761219 0.13162015 0.26525423 -0.0011423503 0.28239387 -0.35187265 -0.51642805 -0.287835
-0.46221057 0.20538889 -0.25072154 0.6717001 0.53478193 -0.0959425 -0.1861972 0.08860484
-0.003191102 -0.23456925 0.13377723 -0.23806682 -0.104783416 0.48150483 0.17453739 -0.4223911
0.057608455 0.32066247 -0.10450527 0.6683229 -0.14743464 -0.37477526 -0.5255677 -0.096118994
0.8114634 0.119685575 0.29917696 0.034085996 -0.004164783 -0.47005412 -0.3969381 -0.20098937
0.107340634 -0.40621343 -0.21363 -0.53397137 -0.31034276 0.16797754 0.90792924 0.1421294
-0.006575198 -0.024547005 -0.10988111 -0.12150602 -0.3621374 -0.2798736 -0.16102448 0.20932072
0.3668082 0.42836037 -0.105618075 -0.06417418 0.24011913 -0.69114494 0.07931352 -0.24352562
0.21472915 -0.8576815 0.41301367 -0.1993058 -0.1390417 0.32544002 -0.08619559 -0.3581369
0.15891309 -0.07770843 0.03861385 -0.5104118 -0.057729796 -0.3887369 0.08230716 -0.74112666
-0.78192925 -0.38822132 0.43959156 0.3581973 -0.2553994 0.5211081 0.3405172 0.521435
0.109314226 0.013456236 0.14816128 -0.36103368 0.1944281 -0.04538339 0.3135432 0.748822
-1.0426053 0.24352665 -0.17835872 0.41117173 -0.8258206 0.2000469 -0.055216655 -0.5678869
0.27229998 0.02433259 0.29773915 -0.8944655 -0.12083791 0.1256437 0.4772724 0.39577457
-0.29469118 -0.11170459 -0.42404816 -1.3786567 0.2976652 -0.4318371 -0.4477151 -0.064317144
0.59726804 -0.1299674 -0.092912115 -0.06428365 -0.35808435 -0.91909665 -0.3337134 0.33099884
-0.6588442 0.025703665 0.08270575 0.47606027 -0.23367032 -0.46688598 -0.005715258 -0.45007345
-0.29783934 0.15318532 -0.5132818 -0.41782212 0.16133463 0.38419637 0.27992323 -0.7347154
-0.043134328 -0.1690201 -1.0734122 -0.22696632 0.04302743 0.33461925 -0.4130766 0.9499686
-0.34658968 -0.22357744 -0.30679137 0.24493416 0.14115801 0.45370892 -0.050365016 0.21463506
0.7893986 -0.14887252 0.17598002 -0.0323287 -0.32012242 -0.5754111 0.40123883 0.44438213
-0.2312967 -0.017552406 0.18818353 0.2880594 0.22712585 0.61044794 -0.7426424 -0.046880715
-0.28245944 -0.091973916 -0.58984363 -0.036036722 -0.66598 -0.4878439 0.17403115 0.16822101
-0.010748663 -0.09460498 -0.6155497 -0.19297802 -0.5543591 0.4188272 -0.27065822 0.40734726
0.12592286 -0.20547308 -0.90843624 0.43007627 0.4212363 -0.6105281 0.6228058 0.17671792
0.30810797 0.2826666 -0.060871832 0.51993275 -0.14795472 -0.13940431 0.20779197 0.0010576026
0.41784164 0.72055143 0.14463004 -0.05031472 0.14784297 -0.48837876 0.47174743 0.4235111
-0.45716208 -0.8476758 -0.46489406 -0.39211085 0.23868704 -1.1896305 0.5823071 -0.7279105

network_body._body_endoder.seq_layers.0.bias f4 [128]
00000000: 0000 0000 0000 0000 0000 0000 0000 0000
00000010: 0000 0000 0000 0000 0000 0000 0000 0000
00000020: 0000 0000 0000 0000 0000 0000 0000 0000
00000030: 0000 0000 0000 0000 0000 0000 0000 0000
00000040: 0000 0000 0000 0000 0000 0000 0000 0000
00000050: 0000 0000 0000 0000 0000 0000 0000 0000
00000060: 0000 0000 0000 0000 0000 0000 0000 0000
00000070: 0000 0000 0000 0000 0000 0000 0000 0000
00000080: 0000 0000 0000 0000 0000 0000 0000 0000
00000090: 0000 0000 0000 0000 0000 0000 0000 0000
000000a0: 0000 0000 0000 0000 0000 0000 0000 0000
000000b0: 0000 0000 0000 0000 0000 0000 0000 0000
000000c0: 0000 0000 0000 0000 0000 0000 0000 0000
000000d0: 0000 0000 0000 0000 0000 0000 0000 0000
000000e0: 0000 0000 0000 0000 0000 0000 0000 0000
000000f0: 0000 0000 0000 0000 0000 0000 0000 0000
00000100: 0000 0000 0000 0000 0000 0000 0000 0000
00000110: 0000 0000 0000 0000 0000 0000 0000 0000
00000120: 0000 0000 0000 0000 0000 0000 0000 0000
00000130: 0000 0000 0000 0000 0000 0000 0000 0000
00000140: 0000 0000 0000 0000 0000 0000 0000 0000
00000150: 0000 0000 0000 0000 0000 0000 0000 0000
00000160: 0000 0000 0000 0000 0000 0000 0000 0000
00000170: 0000 0000 0000 0000 0000 0000 0000 0000
00000180: 0000 0000 0000 0000 0000 0000 0000 0000
00000190: 0000 0000 0000 0000 0000 0000 0000 0000
000001a0: 0000 0000 0000 0000 0000 0000 0000 0000
000001b0: 0000 0000 0000 0000 0000 0000 0000 0000
000001c0: 0000 0000 0000 0000 0000 0000 0000 0000
000001d0: 0000 0000 0000 0000 0000 0000 0000 0000
000001e0: 0000 0000 0000 0000 0000 0000 0000 0000
000001f0: 0000 0000 0000 0000 0000 0000 0000 0000
0.0 0.0 0.0 0.0 0.0 0.0 0.0 0.0
0.0 0.0 0.0 0.0 0.0 0.0 0.0 0.0
0.0 0.0 0.0 0.0 0.0 0.0 0.0 0.0
0.0 0.0 0.0 0.0 0.0 0.0 0.0 0.0
0.0 0.0 0.0 0.0 0.0 0.0 0.0 0.0
0.0 0.0 0.0 0.0 0.0 0.0 0.0 0.0
0.0 0.0 0.0 0.0 0.0 0.0 0.0 0.0
0.0 0.0 0.0 0.0 0.0 0.0 0.0 0.0
0.0 0.0 0.0 0.0 0.0 0.0 0.0 0.0
0.0 0.0 0.0 0.0 0.0 0.0 0.0 0.0
0.0 0.0 0.0 0.0 0.0 0.0 0.0 0.0
0.0 0.0 0.0 0.0 0.0 0.0 0.0 0.0
0.0 0.0 0.0 0.0 0.0 0.0 0.0 0.0
0.0 0.0 0.0 0.0 0.0 0.0 0.0 0.0
0.0 0.0 0.0 0.0 0.0 0.0 0.0 0.0
0.0 0.0 0.0 0.0 0.0 0.0 0.0 0.0

network_body._body_endoder.seq_layers.2.weight f4 [128, 128]
00000000: 6ec2 5dbd ddb6 afbc ba32 433d 718b 55bd
00000010: a236 c8bd ea40 05be c96e 233d 1822 aa3c
00000020: f993 01bc 0c43 cabc 3bfa 6a3d fc50 b53d
00000030: bada 2a3e 1033 413d 7832 18bd 7690 dd3d
00000040: 6e0e 663e 547e c13d 2a5a bbbd a8ad 173e
00000050: 54ae ebbd e209 ab3d f698 a1bd 17cf fabd
00000060: c301 963b f9a3 d0bd d54d f5bb e897 393d
00000070: e7af 563c cd2e b13d 7f9a b7bd 95f7 803d
00000080: e3b2 bbbd 2e38 823c b32b 063c 4184 ad3d
00000090: 39fa 8a3d 631e 92bd 5345 98bd d675 9cbd
000000a0: 120d 483c 8cb8 c53c ab87 693d 227d 77bd
000000b0: 8d6d a33d f703 713d 984f 463d 1f90 5abd
000000c0: 35fb 61bd c7d7 6ebd 8012 3b3c ed28 e5bd
000000d0: ed65 273d a3b5 063e 93b7 853d 82f6 be3d
000000e0: 2d23 d73c 9839 ebbd 3403 30bc 5d88 3fbd
000000f0: cad9 4e3d 994d 3fbe ddc1 023d 911d a2bb
00000100: 808e 0cbc 6de3 9bbd 0f23 07be a4da 4b3d
00000110: 1f65 24be 97e5 613d 5b07 50bd 068e 1cbd
00000120: eaa8 b3bd 6985 113d f740 b9bd d081 2f3e
00000130: eb28 513d 53cb 9a3d 57ea f73c 378f 1a3d
00000140: c34b 58bd 8770 d9bc 9268 88bd f8ee 753d
00000150: 5b3e 413b fdfb 283c 5f1e 223d b847 1dbd
00000160: 7193 ab3d 9062 873d 91d2 3f3d cec7 893d
00000170: 1beb 0abe 3f1c 813d a769 ac3c caf6 113e
00000180: db38 87bd 2b68 e8bd addc e6bd c666 b53c
00000190: 760b c63c 0e52 b3bd 1e11 dc38 2bdf 48bd
000001a0: b5a9 8c3d 724f 4fbe 46af f5bd ff8e 48bc
000001b0: e558 94bd 6bd6 9fbd adca e53b cca1 a83d
000001c0: 41a8 89bd 18eb 0abe 80d0 57bb c3cb 223c
000001d0: f4c1 13be d64e 723c e558 8e3c 487c a4bc
000001e0: 84c8 373e 32d4 0e3e 6512 733c e56b 273c
000001f0: 677d ebbd 1745 febd ae27 d9bd bf4c 243c
00000200: ba6a 243d b8fe 0bbe e1a7 bc3d 5258 463e
00000210: 5162 393d 3cae 23be eecf abbc 1289 113e
00000220: 5d73 4e3e 7e64 3e3d cda8 a33c 668e 373d
00000230: 17f6 9bbc e7d7 bb3d 5668 dc3c 5955 50be
00000240: 0293 3e3d de94 94ba 3418 3ebe 7405 983c
00000250: 0992 2e3d 8332 3c3d dcdd 043e 71ad 8f3b
00000260: 2949 30bd 7390 7a3d fc40 e4bd b302 d43c
00000270: f935 90be 00a3 4a3d a7b6 4abd 3ad4 35bd
00000280: cc54 433c 0a9a 363c eded 3e3d fe5d 8d3d
00000290: 7083 ef3d 283a 87ba e54c 46bd 584b a7bc
000002a0: fb99 f7bc e65a f8bd 469d fd3c 637f fabc
000002b0: 5db5 33bc 273c c8bc 8891 a83c d10d 123e
000002c0: 689f 95bd 3be1 b9bc e89d 74bd b670 f4bd
000002d0: 2475 a0bd 4e89 98bd dfa0 87bd 2956 903d
000002e0: 28d3 a5bd 5f53 803c d2ec 2abe e7a8 0d3d
000002f0: c65f f53c 5c9b 94bc 9f03 2abe 7295 7c3d
00000300: 8460 a33c 7bac 883d ef0d fd3d e5f7 07be
00000310: 8c1e 94bd e356 bcbb f34b a5bd ac25 8ebd
00000320: d4c6 cabc e4ce d33b acbb c1bc dead d9bc
00000330: f150 0e3c c257 90bd 1753 5c3c 0b67 4cbd
00000340: 61a9 82bc 9bea 31bd 378e 2d3d 0b1e 0abe
00000350: fc13 163d 4846 18be 0db1 923c 7240 70bd
00000360: a91e 9dbd 74fb 213d 7dcc 94bd f342 97bd
00000370: 4127 2abd ed48 50bc 54e4 a43c a230 993d
00000380: c100 d4bd 8a5c 11be 8a82 2c3d 396d eb3d
00000390: d0c4 e33d b69b 9dbd 5f7e 2cbe a5b3 0bbd
000003a0: cd22 10be 8802 c23c 0231 943d cbbf 60ba
000003b0: 2fce 363d 54a9 48bd c5d6 7a3d 588e 503c
000003c0: 1e68 cf3d fe6d 423b 328b 033d 2728 a43d
000003d0: 944d 8ebd a9c2 1dbd 427f 823d e741 adbd
000003e0: e53d 633c 7b25 2a3e 1b95 de3b 1a05 6bbd
000003f0: aaf5 81bc ce85 ea3c 694a c63d 0ae6 23bd
-0.0541405 -0.0214495 0.0476558 -0.052134935 -0.097760454 -0.13013044 0.039900575 0.02076821
-0.007908815 -0.024690174 0.057367545 0.08853337 0.16685 0.047167838 -0.037157506 0.10818569
0.22466442 0.09447923 -0.09148057 0.14812338 -0.1150786 0.08351494 -0.07890503 -0.122465305
0.0045778467 -0.10187525 -0.007486085 0.045310885 0.013103462 0.08651505 -0.08965015 0.062972225
-0.09164979 0.01589593 0.00818913 0.08472491 0.067860074 -0.07134702 -0.074350975 -0.07639663
0.012210147 0.02413585 0.05701415 -0.06042207 0.079798795 0.05884167 0.04841575 -0.0533601
-0.05517121 -0.05831125 0.011417985 -0.111894466 0.04086869 0.13155226 0.06529155 0.093243614
0.02626189 -0.114855945 -0.010742951 -0.046760906 0.05050067 -0.18681945 0.031923164 -0.0049473722
-0.0085788965 -0.076117374 -0.13196968 0.04976906 -0.160542 0.055150595 -0.050788265 -0.03822138
-0.08772452 0.03552762 -0.09045594 0.17139363 0.051064413 0.07558312 0.03026311 0.037734237
-0.052806627 -0.026542915 -0.0666057 0.06004235 0.002948663 0.010313985 0.039579745 -0.038398474
0.083777316 0.06610596 0.04683167 0.06727563 -0.13566248 0.06304216 0.021046473 0.14254299
-0.06602641 -0.113479935 -0.11272559 0.022143733 0.024175387 -0.08755885 0.00010493606 -0.049040955
0.068683065 -0.2024515 -0.119963214 -0.012241124 -0.07243518 -0.07804569 0.007012686 0.08233985
-0.06721545 -0.13566244 -0.0032930672 0.009936276 -0.14429456 0.014789304 0.017376373 -0.020078793
0.17947584 0.13948134 0.014835929 0.010218595 -0.11498528 -0.124155216 -0.106032714 0.010028063
0.040140845 -0.13671386 0.09211708 0.19369629 0.045259777 -0.15984434 -0.020973172 0.14212444
0.20161195 0.046482556 0.019977951 0.044813536 -0.019038243 0.091720395 0.02690522 -0.20345058
0.046526916 -0.001133587 -0.1856392 0.018557288 0.04261974 0.04594661 0.12975258 0.0043846895
-0.04303852 0.061172914 -0.11145207 0.025880193 -0.28166178 0.049471855 -0.049490597 -0.04439185
0.011922073 0.011145124 0.046613622 0.06902693 0.116949916 -0.0010317015 -0.048413176 -0.020421669
-0.03022479 -0.121267125 0.030958783 -0.03057832 -0.010968533 -0.024442745 0.020577207 0.14263083
-0.07305795 -0.022690406 -0.059720904 -0.119355604 -0.07834843 -0.07448064 -0.066224806 0.07047684
-0.080969155 0.015664754 -0.16691902 0.034584906 0.029952895 -0.018140487 -0.16602944 0.06166596
0.019943483 0.06673523 0.12356173 -0.13278158 -0.07232389 -0.0057476624 -0.08071127 -0.06940779
-0.024753012 0.0064638723 -0.02364906 -0.026572164 0.00868629 -0.070479885 0.013447545 -0.049902957
-0.015949907 -0.043436628 0.042371955 -0.13488023 0.036640152 -0.1487056 0.01790669 -0.05865521
-0.076718636 0.039546445 -0.072655655 -0.073858164 -0.04154134 -0.012712699 0.020128407 0.07479979
-0.10351706 -0.14195457 0.04211668 0.11495442 0.111215234 -0.07695715 -0.16845082 -0.03410687
-0.14075775 0.023682848 0.0723591 -0.0008573501 0.044630226 -0.04898961 0.061239976 0.01272925
0.10127281 0.0029667611 0.03211517 0.08015471 -0.069483906 -0.03851572 0.06371929 -0.084598355
0.013869737 0.1661586 0.006792677 -0.057377912 -0.015864212 0.028628256 0.09682161 -0.040014304

network_body._body_endoder.seq_layers.2.bias f4 [128]
00000000: 0000 0000 0000 0000 0000 0000 0000 0000
00000010: 0000 0000 0000 0000 0000 0000 0000 0000
00000020: 0000 0000 0000 0000 0000 0000 0000 0000
00000030: 0000 0000 0000 0000 0000 0000 0000 0000
00000040: 0000 0000 0000 0000 0000 0000 0000 0000
00000050: 0000 0000 0000 0000 0000 0000 0000 0000
00000060: 0000 0000 0000 0000 0000 0000 0000 0000
00000070: 0000 0000 0000 0000 0000 0000 0000 0000
00000080: 0000 0000 0000 0000 0000 0000 0000 0000
00000090: 0000 0000 0000 0000 0000 0000 0000 0000
000000a0: 0000 0000 0000 0000 0000 0000 0000 0000
000000b0: 0000 0000 0000 0000 0000 0000 0000 0000
000000c0: 0000 0000 0000 0000 0000 0000 0000 0000
000000d0: 0000 0000 0000 0000 0000 0000 0000 0000
000000e0: 0000 0000 0000 0000 0000 0000 0000 0000
000000f0: 0000 0000 0000 0000 0000 0000 0000 0000
00000100: 0000 0000 0000 0000 0000 0000 0000 0000
00000110: 0000 0000 0000 0000 0000 0000 0000 0000
00000120: 0000 0000 0000 0000 0000 0000 0000 0000
00000130: 0000 0000 0000 0000 0000 0000 0000 0000
00000140: 0000 0000 0000 0000 0000 0000 0000 0000
00000150: 0000 0000 0000 0000 0000 0000 0000 0000
00000160: 0000 0000 0000 0000 0000 0000 0000 0000
00000170: 0000 0000 0000 0000 0000 0000 0000 0000
00000180: 0000 0000 0000 0000 0000 0000 0000 0000
00000190: 0000 0000 0000 0000 0000 0000 0000 0000
000001a0: 0000 0000 0000 0000 0000 0000 0000 0000
000001b0: 0000 0000 0000 0000 0000 0000 0000 0000
000001c0: 0000 0000 0000 0000 0000 0000 0000 0000
000001d0: 0000 0000 0000 0000 0000 0000 0000 0000
000001e0: 0000 0000 0000 0000 0000 0000 0000 0000
000001f0: 0000 0000 0000 0000 0000 0000 0000 0000
0.0 0.0 0.0 0.0 0.0 0.0 0.0 0.0
0.0 0.0 0.0 0.0 0.0 0.0 0.0 0.0
0.0 0.0 0.0 0.0 0.0 0.0 0.0 0.0
0.0 0.0 0.0 0.0 0.0 0.0 0.0 0.0
0.0 0.0 0.0 0.0 0.0 0.0 0.0 0.0
0.0 0.0 0.0 0.0 0.0 0.0 0.0 0.0
0.0 0.0 0.0 0.0 0.0 0.0 0.0 0.0
0.0 0.0 0.0 0.0 0.0 0.0 0.0 0.0
0.0 0.0 0.0 0.0 0.0 0.0 0.0 0.0
0.0 0.0 0.0 0.0 0.0 0.0 0.0 0.0
0.0 0.0 0.0 0.0 0.0 0.0 0.0 0.0
0.0 0.0 0.0 0.0 0.0 0.0 0.0 0.0
0.0 0.0 0.0 0.0 0.0 0.0 0.0 0.0
0.0 0.0 0.0 0.0 0.0 0.0 0.0 0.0
0.0 0.0 0.0 0.0 0.0 0.0 0.0 0.0
0.0 0.0 0.0 0.0 0.0 0.0 0.0 0.0

action_model._continuous_distribution.log_sigma f4 [1, 2]
00000000: 0000 0000 0000 0000
0.0 0.0

action_model._continuous_distribution.mu.weight f4 [2, 128]
00000000: b1d8 c23b e9ba 2f3b 5a60 40bc f7fc cc3c
00000010: 33e6 4cbc e672 9fbc 5781 0a3c e053 04bd
00000020: 120f ffbb 321b c7bc 1ade 383c fbb3 b33c
00000030: 4f5f fbbc 55de f4bb f271 323a c8cf 5fbd
00000040: 5e13 25bb e384 b13c 6256 783b 2781 1a3d
00000050: ff4f fbbc 3632 833c 6d76 b6bc bc33 8e3c
00000060: 77b2 cd3c 1543 a7bc bead 1fbd 64b0 4c3b
00000070: 6062 8ebb d8ce 06bd 1315 053c 4a73 76bc
00000080: 033a d8bc 6f7c 31bc 3f02 803c 9607 c33b
00000090: c050 923c 99ab 15bc e1dd 82bc 7f23 993c
000000a0: 6fe1 21bc b4cc 3ebc b2fa bebc 1fd1 4fbc
000000b0: 471f 9b3c 6b63 a5b9 4f5c 67bc 8a13 d73c
000000c0: 3fea 0dbc 6785 473b 352c e43a 9d09 d838
000000d0: 3312 ad3c b074 933c 3b90 89ba e867 1ebc
000000e0: 3799 40bc 1c02 1abc a452 c6bb 0de5 d5bc
000000f0: 5f26 35bd ab7f 2b3c 3ae8 7e3c 0a4b 7bbc
00000100: 23d9 053b 35f4 6cbc 75d7 c5bb e035 46ba
00000110: 43ba 92bc 1f1e 86bc 374e 633c f273 1b3c
00000120: a5e8 cfbc 5782 7bbc ea55 6ebb 3df1 2bbd
00000130: aa1c 823c a773 2e3c 4936 37bc 9fcc 6cb9
00000140: 76db 943b 70a6 5dbb e5cf 81bc e33b a63b
00000150: 63ed aabb 52ff aebc 16ee 13bc 78b4 2c3b
00000160: b4dc 06b9 0342 8ebb 0f74 cfbc 2a92 d93c
00000170: db49 823b a599 753c ffe2 923b 5f9b 05bd
00000180: ea13 b73c 426e d33c 62eb 1abd e7d1 a93c
00000190: f118 c93c ba25 56bc 5f3a b1bc abe7 003c
000001a0: b0e4 083d 48bd 89bc 83ff 3fbc d813 f23b
000001b0: 47f2 0abc 9298 583c a4a2 123c f5cf 723d
000001c0: ba35 1c3c 4b76 1f3c 8f00 76bb cc1d 093c
000001d0: ebdf 383d c5c9 b03a c3ca 41bc 1f36 a2bc
000001e0: 8285 76bc 2b9a 3ebc de65 a6ba bb98 7bbc
000001f0: 2764 91bc 4c35 0fbd 8274 6f3c f427 093d
00000200: 7e03 83bc 08db 193b ae20 c33c 6bef d5bc
00000210: b58c 74bc af4c 8abb ed15 72bc 2f09 18bd
00000220: dc6e 8e3a 22af 913c 88a4 023c 7b88 473a
00000230: 1785 50bd af69 83bc c28e 4bbc 97ec 433b
00000240: 9042 7a3c 5757 9abb 80d2 2d3d e374 933c
00000250: adc1 7a3b 80f4 d13c 75db 48bc 3fc3 4abc
00000260: a3bc f73c 8f9d d23c 5ae7 223c 9b49 d3bc
00000270: 1371 7d3d 86a9 993b 3fe7 d53c 023e 11bd
00000280: 87cb d4bc a872 1a3c b431 adbc 7fa4 d9bc
00000290: 6e12 253b ed79 dfbb 420a 52bc ad7f 213b
000002a0: 11da 37bd 4bd1 43bc 3f36 89bc 4a00 993c
000002b0: 212b b5bb aa73 ce3c af35 c03c 9d01 773c
000002c0: c33f 58bb 8f71 7d3c ff3c 34bd 2943 aebc
000002d0: 5b15 2cbc 8f54 71bc d26a 873c 3272 4e3c
000002e0: 7b4b 7bbc 0e4e a73b 8c55 24bc 8405 cb3c
000002f0: 38bb c53b 7477 18bc f325 9dbc eeda 0dbb
00000300: c262 8b3c 4735 013c c787 55bc d3a2 e23c
00000310: a421 963c 9588 4ebc bb74 59bb 245e c3bc
00000320: 5a44 d3bc e529 113c f84b 7dbc 6d87 763c
00000330: 9e5f 833c 15a6 d3bb 8c3b 1ebb 93f7 2a3d
00000340: 78b5 85ba adac d83c 286b 1a3c 8761 39bc
00000350: 8daf d5bb ac5d a83c d3a8 c9bb 476a d23c
00000360: 5f6f 3ebc 6b85 523c 6a98 63bb ae37 33bc
00000370: 674a 01bd 846e babb 4338 293b 1c86 86bb
00000380: 713f af3b 9c23 b1bc da36 fb3b 0b6b 9c3c
00000390: 70b1 ce3c bba4 743c b569 93bb 5fe0 a13a
000003a0: 7fa6 4abc 4876 aebc 1373 26b9 1fb8 9a3c
000003b0: 70fe 4abc 0b24 1bbc df72 0fbc 3bfe 7fbc
000003c0: 16e6 a93c 97a8 aa3c 67f9 013d cb0c 7f3c
000003d0: 27b8 a3bc b177 9bbc 9d14 64bb 9223 6b3c
000003e0: ed15 933c 15e5 023d 3f84 34bc ad05 523a
000003f0: bb16 893a 6a49 82bc 2046 483c c374 393a
0.005946242 0.0026814288 -0.011741722 0.025022967 -0.012506056 -0.019463968 0.008453689 -0.032306552
-0.007783779 -0.02430496 0.011283422 0.021936407 -0.030685095 -0.007472793 0.00068071403 -0.054641515
-0.0025188546 0.02166981 0.0037893285 0.037720826 -0.030677794 0.016015153 -0.022273267 0.017358653
0.025109513 -0.02041773 -0.038984053 0.0031233067 -0.0043452233 -0.032912105 0.0081227 -0.0150421355
-0.02639485 -0.01083289 0.015626071 0.005951832 0.01786077 -0.00913515 -0.01597494 0.018693684
-0.009880408 -0.011645485 -0.0233129 -0.012684136 0.018935813 -0.00031545325 -0.014121129 0.026254434
-0.008661806 0.0030444504 0.0017408194 0.00010301473 0.021126842 0.017999977 -0.0010495255 -0.009668328
-0.011755279 -0.009399917 -0.006052332 -0.026110196 -0.044226047 0.01046745 0.015558297 -0.015337715
0.0020423613 -0.01446252 -0.0060376474 -0.00075611286 -0.017911082 -0.016371785 0.013873628 0.009488093
-0.025379488 -0.0153509 -0.0036367127 -0.04197811 0.015882809 0.010647691 -0.011182376 -0.00022582941
0.0045427633 -0.0033821128 -0.015846202 0.005073057 -0.005216287 -0.02136198 -0.009028932 0.0026352685
-0.00012861454 -0.0043413653 -0.025323896 0.026558954 0.0039760894 0.014990245 0.0044826264 -0.032618877
0.022348363 0.025809411 -0.037822135 0.020729972 0.024548026 -0.013070518 -0.021634279 0.007867734
0.03342122 -0.01681389 -0.011718634 0.0073876195 -0.008480615 0.013219969 0.008949909 0.059280355
0.009534294 0.009732793 -0.0037536954 0.008368921 0.04513542 0.0013487866 -0.011828127 -0.019801198
-0.015046479 -0.011633436 -0.0012695154 -0.015356238 -0.017747952 -0.034962937 0.01461518 0.033485368
-0.015992876 0.00234765 0.023819294 -0.02611514 -0.014926125 -0.004220567 -0.014775735 -0.037118133
0.0010866779 0.017783705 0.007973798 0.0007611585 -0.050908174 -0.016041605 -0.012424173 0.0029895657
0.015274659 -0.0047101188 0.042437077 0.018000072 0.0038262412 0.025629282 -0.012259354 -0.012375652
0.030241316 0.025709895 0.009942854 -0.025791934 0.061875414 0.004689398 0.026111243 -0.035459526
-0.025975956 0.00942675 -0.021141864 -0.026567696 0.0025187987 -0.0068199546 -0.012819828 0.002464275
-0.0448857 -0.011951755 -0.0167495 0.018676896 -0.005528823 0.025201637 0.023463098 0.015076068
-0.003299699 0.015468969 -0.044003483 -0.021272259 -0.010503138 -0.014729633 0.016530428 0.0126004685
-0.01533782 0.0051057404 -0.010030162 0.024782903 0.006034281 -0.009305824 -0.019183135 -0.0021645385
0.017014865 0.007886237 -0.01303286 0.027665531 0.018326588 -0.012605806 -0.003318115 -0.0238486
-0.025789429 0.008860086 -0.015460007 0.015046936 0.016036805 -0.0064590075 -0.002414438 0.04174001
-0.0010201177 0.026449526 0.009424962 -0.011314756 -0.0065211714 0.020552479 -0.0061541586 0.025685443
-0.011623233 0.012849192 -0.0034728297 -0.010938568 -0.031565096 -0.005689444 0.0025820888 -0.0041053426
0.005348139 -0.021623425 0.007666451 0.01909401 0.025231093 0.014931853 -0.0044986852 0.0012350193
-0.012368797 -0.021296635 -0.00015873862 0.018886624 -0.012389764 -0.0094690425 -0.008755415 -0.015624578
0.020739596 0.020832343 0.03173199 0.015567015 -0.019985272 -0.018977972 -0.0034802326 0.014351742
0.017954791 0.03195675 -0.011017858 0.000801171 0.0010459045 -0.015904147 0.01222375 0.0007074589

action_model._continuous_distribution.mu.bias f4 [2]
00000000: 0000 0000 0000 0000
0.0 0.0

network_body._body_endoder.seq_layers.0.weight f4 [128, 6]
00000000: f931 20bf 91ab e93d ab57 87be 1ae5 623e
00000010: d5ee 30be b77c 27bf aa08 023e 1e9a e5bd
00000020: 8633 f63c 6c1f 66be d8bf a2be 5780 383e
00000030: 168e 21be c023 2ebe b036 023f 5351 d83e
00000040: 6754 53be 09d4 8d3d c833 20bf 590c e0be
00000050: 0edb c0be a036 29be 4356 8e3e a8db 033f
00000060: 8cb3 13bf 7f95 b03d 3d66 083f 8882 133f
00000070: 626e c7bd 9c97 51be 712c a3be 9a1b d43b
00000080: f87b a63e 43d0 b6bd 5788 223f 5ea2 c03e
00000090: 28c9 83be c30a fa3e efc4 d53e eaec 0cbf
000000a0: 80ce ffbe 2895 823d d2cb 953c 2301 a03e
000000b0: 6d89 a6be 8d61 033e f502 debe b704 433e
000000c0: df29 cc3d 597d 15bf e04d 583f bf47 9fbe
000000d0: 58d0 42bd 5370 e2be 686a 8dbd 623b dfbd
000000e0: 3b7a 16bd 032c 493f c8a4 fa3e 4962 843d
000000f0: 0ae9 c03e 93d3 b5be 4c9f 463e 76d8 2a3e
00000100: f0df 1f3d d1bb e83e b8db a83d 7326 c63d
00000110: e2d0 d93e 633d 15bf 2ad5 723f d821 073f
00000120: bec4 3cbf 0add d7be 43e5 853f 406e 903e
00000130: 6092 04bf b504 a8bd 2495 9cbe 4f52 383d
00000140: 8440 ba3d 6bf3 6fbf 5cc8 04bf e72b bfbb
00000150: 96aa 493e d85b 763f 1543 3bbe eab1 2e3e
00000160: 2a8a 313d 485f e0bc 0364 50bc c6d8 2bbf
00000170: 885a 30be dadc 54be 927e 0a3f 0aa1 c2be
00000180: 5e08 5b3c 32c1 32be 1e68 68be f10d 0bbf
00000190: 2b2c b53b 612e 93be 7db9 4d3e 0ce3 d7be
000001a0: d8c6 6d3e 915b 043e 72cb 99bd 7c2f a93e
000001b0: b449 0bbf 75c0 8e3f 8b5a 49be 4358 433e
000001c0: 4996 903f 8ad8 823e 7dac a9be 420f a1bd
000001d0: 5f28 813e 745e 433e a2bf 3ebf b772 a7be
000001e0: 1aed 933d 12fb 803e 5dc6 8c3e 0d35 083f
000001f0: 64ff 9b3e 694d ef3e bce1 39bf d061 f03d
00000200: cc30 3e3e d4ea 3d3f a36f d2bd e98e 9b3e
00000210: 5fb7 b93c 185f 6e3e 2e63 f4be 8d8e cc3e
00000220: 6ca9 aabe 0214 73bd 0fb8 993e 744d a4be
00000230: 2143 08be fd40 ef3e f10d 1f3e e4bb 493e
00000240: 27a3 903e e361 dc3b 2c98 bfbe dd43 2b3e
00000250: 4014 3dbc 8017 a23e eaf7 ab3c 0c00 2c3d
00000260: dcfb 7d3e 7165 34bf 0ef0 423e e5b4 b3be
00000270: eb03 f63e 4a92 b8bd 3deb 733f dc2c d83e
00000280: ed93 2abd aa19 ea3e 3b9e 11bf ee41 c8be
00000290: de73 bebe c212 3a3f 5a3c cc3e 3c19 263d
000002a0: cc8c 44be 1083 61bb 1f6a 9abe 2ab8 77be
000002b0: cf78 d93e 6d0e 55be e508 813e db74 4b3e
000002c0: ca92 a4be c4c9 d1be 50f2 01bf b75f 40bf
000002d0: c6bc 0a3c 594a 6d3e bc55 e63d 9676 ac3e
000002e0: 3b24 cc3e 5eb0 313f 5568 cf3e 3920 70be
000002f0: 1419 37be 6bc2 65be 2613 65bf 76c1 78be
00000300: f1a7 463e a089 2dbf 93c8 3b3e 80aa 813e
00000310: 223c 70be 71c9 c7be 65aa bebe 4bd1 8f3c
00000320: 9d00 043d b620 cabe 3dad 313d de4a 963e
00000330: 650f 323f ce33 a5bc 7da9 dabe f025 df3e
00000340: 7f35 e73e 3fae d9be 949f 223e fea5 cc3e
00000350: 8a01 54bf 7168 043f c831 8abd 6909 81bf
00000360: bdea cdbd 4c8e 673e 49ed 61bf da4d 27bf
00000370: 6be5 7fbe 5982 aa3e e6cf 35bf 1503 a63b
00000380: 4c11 273f 27b9 f0be ea35 463e 40cb 4d3f
00000390: 3ca2 4ebd fb8d 453d 89f2 073f 9a8f 03be
000003a0: a1b8 b43e 20f1 f53e 9352 b13e ec44 b23e
000003b0: a749 83bd 8669 62bc 7ac8 ca3e cc37 a83e
000003c0: 6f1a a53e c08b aa3e 0e11 96be 2389 2b3e
000003d0: c793 cd3e e851 93bd 0414 0ebe ad75 973e
000003e0: 4431 68bd 7d09 ca3d 793e 883d a983 643e
000003f0: 44bc 643f 6f55 76be 51ae 413e 8d34 3bbe
-0.6257625 0.11409677 -0.26434073 0.22157708 -0.17278607 -0.65424675 0.12698618 -0.11211036
0.030053865 -0.22472924 -0.3178699 0.18017708 -0.15776858 -0.17005825 0.50864697 0.42249545
-0.20637666 0.06925208 -0.6257901 -0.4375942 -0.37667125 -0.16524744 0.27800187 0.51507044
-0.5769584 0.08622264 0.53281003 0.5762105 -0.09737851 -0.2046799 -0.31869844 0.006473017
0.32516456 -0.089264415 0.6348929 0.37623876 -0.25739408 0.48836336 0.4175181 -0.55049
-0.49962234 0.063761055 0.018285666 0.31250867 -0.32526723 0.12830181 -0.4336163 0.19044767
0.09968924 -0.5839439 0.8449383 -0.31109425 -0.047561973 -0.44226322 -0.06905061 -0.10899998
-0.03673766 0.7858278 0.48953843 0.06464059 0.37677795 -0.3551298 0.19396704 0.16684136
0.039031923 0.45455793 0.08245033 0.09675302 0.42542177 -0.58296794 0.9485651 0.52786016
-0.73737705 -0.42160827 1.046059 0.28209114 -0.5178585 -0.08204023 -0.30582535 0.04500037
0.09094337 -0.937308 -0.51868224 -0.005834091 0.1969398 0.9623389 -0.18287309 0.17060056
0.043344654 -0.027389184 -0.012719157 -0.67127645 -0.17222035 -0.20787373 0.5409938 -0.38013488
0.013368694 -0.1745651 -0.22695968 -0.5431815 0.005528947 -0.28746322 0.2009029 -0.4216541
0.23220384 0.12925555 -0.07509507 0.3304404 -0.5440934 1.1152483 -0.19663446 0.19076638
1.1295863 0.2555583 -0.3313941 -0.07864238 0.25226113 0.19079 -0.7451116 -0.32704708
0.07222958 0.2519155 0.2749509 0.5320595 0.30468285 0.46738747 -0.7261007 0.11737406
0.18573302 0.74186444 -0.10275199 0.3038247 0.022670446 0.23278463 -0.47731918 0.39952508
-0.33332384 -0.059345253 0.30023238 -0.32090342 -0.13306858 0.4672927 0.15532662 0.19700581
0.28249475 0.006725536 -0.37420785 0.16725107 -0.0115404725 0.31658554 0.020992238 0.041992232
0.24803108 -0.7046729 0.19036886 -0.3509895 0.48049864 -0.090122774 0.9528082 0.42221725
-0.04164498 0.45722705 -0.56882066 -0.391128 -0.37197775 0.7268487 0.39889795 0.04055141
-0.19194335 -0.0034410395 -0.3015909 -0.24191347 0.42474982 -0.20806284 0.25202098 0.19868796
-0.3214324 -0.40974247 -0.50760365 -0.7514605 0.008467859 0.23172893 0.11246821 0.33684224
0.39871392 0.6940974 0.40509287 -0.23449792 -0.1788066 -0.22437446 -0.89482343 -0.2429255
0.19400002 -0.67788124 0.18338232 0.25325394 -0.23460439 -0.39020875 -0.37239376 0.017555853
0.032227147 -0.3947808 0.043378104 0.29353994 0.6955474 -0.020166304 -0.42707434 0.43583632
0.45158002 -0.42515752 0.15881187 0.39970392 -0.8281485 0.51721865 -0.06747776 -1.0080997
-0.100545384 0.22612876 -0.88252693 -0.6535317 -0.2498986 0.33302572 -0.7102035 0.0050662854
0.6526077 -0.4701626 0.19356504 0.8038826 -0.050447688 0.048231106 0.53104454 -0.12847748
0.3529711 0.48035526 0.34633312 0.34818208 -0.064105324 -0.013819104 0.39606076 0.3285507
0.3224673 0.33309746 -0.29309887 0.16751532 0.40151808 -0.07193357 -0.13874823 0.29581967
-0.05668761 0.09865091 0.06652541 0.2231585 0.8934977 -0.24056028 0.18914153 -0.18281765

network_body._body_endoder.seq_layers.0.bias f4 [128]
00000000: 0000 0000 0000 0000 0000 0000 0000 0000
00000010: 0000 0000 0000 0000 0000 0000 0000 0000
00000020: 0000 0000 0000 0000 0000 0000 0000 0000
00000030: 0000 0000 0000 0000 0000 0000 0000 0000
00000040: 0000 0000 0000 0000 0000 0000 0000 0000
00000050: 0000 0000 0000 0000 0000 0000 0000 0000
00000060: 0000 0000 0000 0000 0000 0000 0000 0000
00000070: 0000 0000 0000 0000 0000 0000 0000 0000
00000080: 0000 0000 0000 0000 0000 0000 0000 0000
00000090: 0000 0000 0000 0000 0000 0000 0000 0000
000000a0: 0000 0000 0000 0000 0000 0000 0000 0000
000000b0: 0000 0000 0000 0000 0000 0000 0000 0000
000000c0: 0000 0000 0000 0000 0000 0000 0000 0000
000000d0: 0000 0000 0000 0000 0000 0000 0000 0000
000000e0: 0000 0000 0000 0000 0000 0000 0000 0000
000000f0: 0000 0000 0000 0000 0000 0000 0000 0000
00000100: 0000 0000 0000 0000 0000 0000 0000 0000
00000110: 0000 0000 0000 0000 0000 0000 0000 0000
00000120: 0000 0000 0000 0000 0000 0000 0000 0000
00000130: 0000 0000 0000 0000 0000 0000 0000 0000
00000140: 0000 0000 0000 0000 0000 0000 0000 0000
00000150: 0000 0000 0000 0000 0000 0000 0000 0000
00000160: 0000 0000 0000 0000 0000 0000 0000 0000
00000170: 0000 0000 0000 0000 0000 0000 0000 0000
00000180: 0000 0000 0000 0000 0000 0000 0000 0000
00000190: 0000 0000 0000 0000 0000 0000 0000 0000
000001a0: 0000 0000 0000 0000 0000 0000 0000 0000
000001b0: 0000 0000 0000 0000 0000 0000 0000 0000
000001c0: 0000 0000 0000 0000 0000 0000 0000 0000
000001d0: 0000 0000 0000 0000 0000 0000 0000 0000
000001e0: 0000 0000 0000 0000 0000 0000 0000 0000
000001f0: 0000 0000 0000 0000 0000 0000 0000 0000
0.0 0.0 0.0 0.0 0.0 0.0 0.0 0.0
0.0 0.0 0.0 0.0 0.0 0.0 0.0 0.0
0.0 0.0 0.0 0.0 0.0 0.0 0.0 0.0
0.0 0.0 0.0 0.0 0.0 0.0 0.0 0.0
0.0 0.0 0.0 0.0 0.0 0.0 0.0 0.0
0.0 0.0 0.0 0.0 0.0 0.0 0.0 0.0
0.0 0.0 0.0 0.0 0.0 0.0 0.0 0.0
0.0 0.0 0.0 0.0 0.0 0.0 0.0 0.0
0.0 0.0 0.0 0.0 0.0 0.0 0.0 0.0
0.0 0.0 0.0 0.0 0.0 0.0 0.0 0.0
0.0 0.0 0.0 0.0 0.0 0.0 0.0 0.0
0.0 0.0 0.0 0.0 0.0 0.0 0.0 0.0
0.0 0.0 0.0 0.0 0.0 0.0 0.0 0.0
0.0 0.0 0.0 0.0 0.0 0.0 0.0 0.0
0.0 0.0 0.0 0.0 0.0 0.0 0.0 0.0
0.0 0.0 0.0 0.0 0.0 0.0 0.0 0.0

network_body._body_endoder.seq_layers.2.weight f4 [128, 128]
00000000: e47f c0bd c107 163d a8c4 70bd 9cf7 3d3d
00000010: 39ec 933d 8fb1 c13d 547b 2bbe 30c9 d8bd
00000020: 3fee 7dbe 2f37 7d3c 724b e73d 3e6a 783d
00000030: 654f a7bd 8d43 8a3d 1d6e 013b 5972 65bb
00000040: 7621 b3bc b185 9d3d 49ca 8bbd f125 ca3d
00000050: 83a6 a7bd 6752 61bd 36e9 c0bd cc0f e4bd
00000060: da9f 02bd b071 c33d 940b f4bd f045 0abd
00000070: 7101 13be 8278 bd3c b0b1 c63d 610b 99bd
00000080: 22b9 ff3b b4ac 8a3d a019 fa3b 9122 ea3d
00000090: be63 103c 3210 aebd 49ce 8b3d b70a 21bc
000000a0: 8d93 abbc 4763 223e 77cb 993c a641 7f3d
000000b0: b187 b23c 70fa 073e 8409 0c3e a12e c43d
000000c0: a16c 8fbd 8cee 133e 6f2f 30be 8bab d33c
000000d0: 4d58 d0bd 3d19 d9bd 8e41 be3d 0014 9abd
000000e0: dc5d 15bd a5ff 673d d1ff a0bd 1afb ca3c
000000f0: ecfc a4bd 78ff 2b3d a402 5c3d 35a8 7ebd
00000100: d1cb 14be d007 a0bd 5fa1 8f3c 3b3f c7bb
00000110: f815 1b3d d576 a73d 83f9 3c3e b3dd 5f3d
00000120: 0664 713d 9844 873d ff42 493c afa4 b03d
00000130: b176 593d 4018 823c 260d 153d 9183 1fbb
00000140: aac2 bcbd ec52 333d 266b 39bd f5ee 6dbd
00000150: 8537 b7bd 31b4 b63d 3020 1dbc f45e eb3d
00000160: 6e8e 52be 5a67 8cbe f6a1 883d d5da a53c
00000170: c7cd 183e 8af9 92bc d5a7 b5bd ecfe 823c
00000180: 425a 193e 26ea fabc 4366 eb3d b38b a13d
00000190: 320e 34bc 9d4b dbbd 1ee3 adbd 1999 b0bc
000001a0: 876e 463d 016b 403e abc1 eebc ab0d fd3c
000001b0: 5f15 3f3d df82 babd 0cbe e43d 15da 39bd
000001c0: f71d cd3c a7b6 2abc 0cab 9c3c 5139 073e
000001d0: d8e0 2a3e 870a 94bd 221d d53d ef1f 443e
000001e0: d2f4 d43d b3aa 043e b07d f83c 998c 89bc
000001f0: ea93 d13d dc00 dabc e7c7 1b3e ea20 c73c
00000200: 0897 ee3d 3e28 443c f850 25bc 3730 843c
00000210: e515 0a3d 610b c53d 37c9 493d e502 a8bd
00000220: 91ac debc e1c1 86bd 987d cb3c 72f7 b1bd
00000230: 4735 84bc 87b8 2bbc 36bf 00be de0a bb3c
00000240: 0a3c 913d 852c 1bba 9a0c 1dbb 8fa0 61bd
00000250: 6ed4 5a3d 09f6 3e3d 4065 0abd c2c9 103d
00000260: 8976 32be 9db2 19bd 787b 4ebe 1b73 05bd
00000270: f976 39bd 7c6b 603c 9bec 82bc d588 9a3d
00000280: 1416 edbd c8fc 733d ad8b 823d c6f0 e93d
00000290: 2f55 6cbe 2748 023e 9c3e a83d d434 983d
000002a0: 3ace ab3d 4bde 093b 8ce7 aabc 29ec 223e
000002b0: 9354 44bc 2d0d f8bd 1434 823d ec7a ae3c
000002c0: 79ea 3e3d 7e03 babd 3b70 cfbd 3733 c53d
000002d0: 4892 0cbd bc1b 16be 3cb9 793d 5eae 483d
000002e0: 56a7 033d 4658 7cbc eab4 5e3c cde1 af3d
000002f0: 0edb 18be 89b5 24be 329c 3abb 3ba8 32bd
00000300: f45c cb3d 79bb 9f3c d2b0 26bd 8ec7 e13d
00000310: 87e6 343d dbd5 2d3e 9cdc 473c 138a bc3c
00000320: 8a82 f7bd 050d 563d 91c4 0e3e 4f68 c3bb
00000330: df2b 56be 6dd7 d43c cb15 9b3d 2ee4 dbbd
00000340: 466d 29bd 8bec 24be da02 be3c 179f ae3c
00000350: eeaa 7b3c 25ed da3c 0706 a43d 6eaf 5e3d
00000360: 6b82 19be 95c2 0cbd 2f98 f43c ceab f2bc
00000370: 4671 eebd 0b15 0d3e c26d ea3d 9b9b 533d
00000380: c969 8bbb c702 0e3c 0052 17be b3db 96bd
00000390: 0ae5 0d3e 78bd 17be eb2b bcbd 9fa8 0ebd
000003a0: 288e d2bc e8be 5ebd 918b d03d d90b 7d3c
000003b0: 133c 673d 31d0 74b9 c2c2 833d 481e d6bd
000003c0: 5bb5 28bd 218a 1cbe 4d73 173e 2f7d 96bc
000003d0: 5767 113e 3da6 4dbd 4bd7 213e 73c8 e63c
000003e0: f332 213e 69e4 d4bc 3fa1 b5bc 95a7 593c
000003f0: 36f9 90bc e025 22bd 0b01 c73d 71f5 14bd
-0.09399393 0.03662849 -0.058781296 0.046378717 0.0722279 0.09457695 -0.16746265 -0.105852485
-0.24797915 0.015455051 0.11293687 0.060648195 -0.0816944 0.067511655 0.001974947 -0.0035010783
-0.021866541 0.07691515 -0.06825692 0.09870518 -0.081860565 -0.055010226 -0.094194815 -0.111358255
-0.031890728 0.095431685 -0.11916271 -0.033758104 -0.14356019 0.023128752 0.0970186 -0.074728735
0.007804052 0.06771222 0.0076324493 0.11432374 0.008812843 -0.08499183 0.06826455 -0.009829215
-0.020944381 0.15858184 0.018773777 0.062318467 0.021793218 0.13279128 0.13675505 0.09579206
-0.07003141 0.14446467 -0.17205594 0.025838634 -0.10173092 -0.10600517 0.09289847 -0.07523346
-0.036466464 0.056640286 -0.07861293 0.024777938 -0.080560535 0.04199168 0.053713456 -0.062172133
-0.14530875 -0.0781399 0.017533002 -0.0060805357 0.037862748 0.08176962 0.18454556 0.05465479
0.05893328 0.0660488 0.0122840395 0.08625161 0.05309171 0.015880704 0.036389492 -0.0024339894
-0.09216817 0.043780252 -0.0452682 -0.058089215 -0.089461364 0.089210875 -0.009590194 0.1149272
-0.20562145 -0.274226 0.066715166 0.020245949 0.14922248 -0.017941255 -0.08869902 0.015990697
0.14975837 -0.030629229 0.11494114 0.07887974 -0.010989713 -0.107077815 -0.08490585 -0.021557378
0.04844525 0.18790819 -0.029145082 0.030890306 0.04665124 -0.09106993 0.11169061 -0.045373995
0.025038702 -0.010419524 0.01912453 0.13205458 0.16687334 -0.072285704 0.10405947 0.19152807
0.10398258 0.12955742 0.03033337 -0.016790675 0.102332905 -0.026611738 0.15212975 0.024307687
0.11649901 0.011972485 -0.010090105 0.016136272 0.033712287 0.09621311 0.04926416 -0.08203677
-0.027181895 -0.06579948 0.024840161 -0.086897746 -0.016138686 -0.0104810065 -0.12572941 0.02283233
0.0709153 -0.00059194147 -0.002396381 -0.05508476 0.053425245 0.046621356 -0.033787966 0.03534866
-0.1742803 -0.037523855 -0.20164287 -0.032580476 -0.045279477 0.013697501 -0.015981963 0.0754563
-0.11576477 0.059567243 0.06374297 0.11422877 -0.2307937 0.12722836 0.08215067 0.07431951
0.08388944 0.0021037038 -0.020862363 0.159104 -0.011983055 -0.12111888 0.06357589 0.021298848
0.04661033 -0.09082697 -0.10128828 0.09628909 -0.034319192 -0.14659017 0.06096767 0.048994415
0.032142006 -0.015401905 0.013592938 0.0858799 -0.14927313 -0.16084875 -0.0028474447 -0.04361747
0.09929839 0.019498574 -0.040695973 0.1102439 0.04416516 0.1697611 0.0121985935 0.023015058
-0.12085445 0.05225851 0.13942172 -0.0059633623 -0.20915173 0.02598163 0.07572516 -0.10736881
-0.041363977 -0.16105859 0.02319472 0.021316094 0.015360577 0.026724407 0.08008962 0.05436652
-0.14991157 -0.034365255 0.029857723 -0.029622938 -0.11642699 0.13777559 0.11446716 0.05166207
-0.004254554 0.008667654 -0.14777374 -0.07366123 0.13856903 -0.1481837 -0.09188064 -0.03482878
-0.025702551 -0.05438128 0.1018287 0.015444719 0.056453776 -0.0002334721 0.064336315 -0.104549944
-0.04118858 -0.15287067 0.14790078 -0.018370239 0.14199577 -0.050207365 0.15804784 0.028171754
0.15742092 -0.02598782 -0.022171615 0.013284584 -0.017696958 -0.0395869 0.09716996 -0.036366884

network_body._body_endoder.seq_layers.2.bias f4 [128]
00000000: 0000 0000 0000 0000 0000 0000 0000 0000
00000010: 0000 0000 0000 0000 0000 0000 0000 0000
00000020: 0000 0000 0000 0000 0000 0000 0000 0000
00000030: 0000 0000 0000 0000 0000 0000 0000 0000
00000040: 0000 0000 0000 0000 0000 0000 0000 0000
00000050: 0000 0000 0000 0000 0000 0000 0000 0000
00000060: 0000 0000 0000 0000 0000 0000 0000 0000
00000070: 0000 0000 0000 0000 0000 0000 0000 0000
00000080: 0000 0000 0000 0000 0000 0000 0000 0000
00000090: 0000 0000 0000 0000 0000 0000 0000 0000
000000a0: 0000 0000 0000 0000 0000 0000 0000 0000
000000b0: 0000 0000 0000 0000 0000 0000 0000 0000
000000c0: 0000 0000 0000 0000 0000 0000 0000 0000
000000d0: 0000 0000 0000 0000 0000 0000 0000 0000
000000e0: 0000 0000 0000 0000 0000 0000 0000 0000
000000f0: 0000 0000 0000 0000 0000 0000 0000 0000
00000100: 0000 0000 0000 0000 0000 0000 0000 0000
00000110: 0000 0000 0000 0000 0000 0000 0000 0000
00000120: 0000 0000 0000 0000 0000 0000 0000 0000
00000130: 0000 0000 0000 0000 0000 0000 0000 0000
00000140: 0000 0000 0000 0000 0000 0000 0000 0000
00000150: 0000 0000 0000 0000 0000 0000 0000 0000
00000160: 0000 0000 0000 0000 0000 0000 0000 0000
00000170: 0000 0000 0000 0000 0000 0000 0000 0000
00000180: 0000 0000 0000 0000 0000 0000 0000 0000
00000190: 0000 0000 0000 0000 0000 0000 0000 0000
000001a0: 0000 0000 0000 0000 0000 0000 0000 0000
000001b0: 0000 0000 0000 0000 0000 0000 0000 0000
000001c0: 0000 0000 0000 0000 0000 0000 0000 0000
000001d0: 0000 0000 0000 0000 0000 0000 0000 0000
000001e0: 0000 0000 0000 0000 0000 0000 0000 0000
000001f0: 0000 0000 0000 0000 0000 0000 0000 0000
0.0 0.0 0.0 0.0 0.0 0.0 0.0 0.0
0.0 0.0 0.0 0.0 0.0 0.0 0.0 0.0
0.0 0.0 0.0 0.0 0.0 0.0 0.0 0.0
0.0 0.0 0.0 0.0 0.0 0.0 0.0 0.0
0.0 0.0 0.0 0.0 0.0 0.0 0.0 0.0
0.0 0.0 0.0 0.0 0.0 0.0 0.0 0.0
0.0 0.0 0.0 0.0 0.0 0.0 0.0 0.0
0.0 0.0 0.0 0.0 0.0 0.0 0.0 0.0
0.0 0.0 0.0 0.0 0.0 0.0 0.0 0.0
0.0 0.0 0.0 0.0 0.0 0.0 0.0 0.0
0.0 0.0 0.0 0.0 0.0 0.0 0.0 0.0
0.0 0.0 0.0 0.0 0.0 0.0 0.0 0.0
0.0 0.0 0.0 0.0 0.0 0.0 0.0 0.0
0.0 0.0 0.0 0.0 0.0 0.0 0.0 0.0
0.0 0.0 0.0 0.0 0.0 0.0 0.0 0.0
0.0 0.0 0.0 0.0 0.0 0.0 0.0 0.0

value_heads.value_heads.extrinsic.weight f4 [1, 128]
00000000: 84ee 47be 8036 183b e890 533e 1aa3 4f3e
00000010: 00c8 c2bb acd2 243e 1aef bebd b093 5fbc
00000020: 244b 3c3e c832 263e 1c61 fc3d 1f85 27be
00000030: 1825 c2bc 581d 49be cf89 3cbe 481e 95bd
00000040: 7ca1 89bd 0074 243b f0e6 2d3d 3088 ea3d
00000050: 5856 3e3e 9e9f 213e 8cac 4abe b01c 53bd
00000060: 10ba 453e 8483 e43d 7e1b 39be 702a 1c3e
00000070: 6e05 2dbe 50b7 663d 7439 1bbe 947a 923d
00000080: 90a4 25be 6c83 10be 8aad 503e 2ae1 33be
00000090: fae7 15be 6229 563e 40e7 d63b 7051 433c
000000a0: 39c1 03be a0d1 e3bb c40d 593e 3482 9d3d
000000b0: 6edf 13be 241f 7cbd 68cc 013d 98d0 643d
000000c0: 2003 513d 90d8 f03c 80e0 86bd 303d 36be
000000d0: 7c4f 02be c017 3f3e 62fc 50be 18fd f6bd
000000e0: 2aaa 1f3e e4fd d3bd 78d7 efbd 1081 4b3e
000000f0: f42a c73d 8a6d a8bd a869 1fbd cef6 0abe
00000100: 8c0b 413e 186b 4f3d fa13 f8bd a803 f03d
00000110: 275b 59be e6f5 4fbe 5441 ea3d 9094 563d
00000120: 4fc2 50be e032 8b3d 2305 cdbd cc11 db3d
00000130: 5400 413e 10a2 843c 30ab 0d3c d124 c7bd
00000140: e22b 14be c230 4fbe 78ca 94bc f07c 5b3d
00000150: 98c8 323d 08f9 fdbd 28c2 37bd 7cdf 8b3d
00000160: 709b 2b3d 647f 1ebd 34f3 b8bd 8024 a43c
00000170: 90a6 3abe 3cc6 3a3e 4181 bcbd eaa3 0b3e
00000180: b83d 9bbd 2846 56be aee1 19be 94a8 0c3e
00000190: 27c1 11be 624b b3bd e08f ca3b a56e f4bd
000001a0: 802b ca3d 10da 47bd 906f 623d 848b 933d
000001b0: 3e15 403e 3889 f6bc 08aa 713d 144a 23bd
000001c0: 8a5f 303e 80fa 8cbb fe9e 57be 28b4 e53d
000001d0: 3450 ee3d f0bb 933d 782e 3dbd 23e7 09be
000001e0: 0024 8dbd f036 08be 404a 83bc 1824 373d
000001f0: 582c 573d a849 8a3d b10c 22be d8c2 ac3c
-0.1952458 0.0023225844 0.20660746 0.20277062 -0.005944252 0.1609599 -0.09322949 -0.013646051
0.18388039 0.16230309 0.1232321 -0.16359375 -0.023699328 -0.196401 -0.18411945 -0.07281166
-0.06720254 0.0025093555 0.042456567 0.11451757 0.18587625 0.15783545 -0.19792384 -0.05154103
0.19309258 0.11157897 -0.18076894 0.15250564 -0.16896603 0.056327164 -0.15158635 0.07152286
-0.16176057 -0.14112633 0.203787 -0.17566362 -0.14639273 0.20914224 0.006558329 0.011921272
-0.12866677 -0.0069524795 0.21196657 0.0769085 -0.144407 -0.061553136 0.031689078 0.055862993
0.05102837 0.02940014 -0.06585789 -0.17796779 -0.12725633 0.18661404 -0.20408776 -0.120599926
0.15592256 -0.1035116 -0.11711019 0.19873452 0.097249895 -0.08224018 -0.03891912 -0.13570711
0.18852061 0.050639242 -0.12113185 0.117194474 -0.21226178 -0.20308647 0.114382416 0.052387774
-0.20386623 0.06796813 -0.100107454 0.10696754 0.18847781 0.016190559 0.008646771 -0.09723819
-0.14469865 -0.20233443 -0.01816295 0.053585947 0.043648332 -0.124010146 -0.044862896 0.06829736
0.041896284 -0.038695708 -0.09030762 0.020036936 -0.18227601 0.18239683 -0.09204341 0.13636747
-0.07580131 -0.209252 -0.15027496 0.13736182 -0.14233838 -0.087546125 0.006181702 -0.11935166
0.09871578 -0.048791945 0.055282176 0.07204345 0.18758103 -0.030094728 0.059000045 -0.03986557
0.17223945 -0.004302323 -0.21056744 0.11216003 0.11636391 0.072135806 -0.046186894 -0.13467078
-0.06891632 -0.13302207 -0.016026616 0.044712156 0.052532524 0.0675233 -0.15825154 0.021089002
