ML Agent Practice/results/ppo/MoveToGoal/MoveToGoal-81706.pt (torch, 441756 bytes, 36 tensors)

network_body._body_endoder.seq_layers.0.weight f4 [128, 6]
000000 8c 30 fa 3c 83 f3 e2 be 29 d4 1f 3e c7 b4 5c 3f
       0.030540727 -0.4432641 0.15608276 0.86213344
000010 02 15 86 3e da a1 ee 3d fb 65 17 3e ad 13 87 3e
       0.26187903 0.116519645 0.14784996 0.263822
000020 ea a8 a2 bd 70 7a 0c 3d 92 89 00 bf 8b cc ac be
       -0.07942374 0.034296453 -0.50209916 -0.33749804
000030 4c fb fa 3e e9 bb 20 be 6c 7c 8d 3e 11 6c 2c bf
       0.4901985 -0.15696682 0.2763399 -0.67352396
000040 ed 67 f4 bd ec 8f 1e be 59 3c 11 3e db 4e 9c bd
       -0.11933885 -0.1548459 0.14183177 -0.07632228
000050 f6 e0 47 3e 3e 1e b0 bb 4f 8c 27 be 04 fa 8c bd
       0.1951941 -0.005374699 -0.16362117 -0.06883624
000060 a7 b3 e2 be 19 81 68 3e a9 86 e4 be c6 d9 dc 3d
       -0.4427769 0.22705497 -0.44633988 0.107837245
000070 d3 2d dd be 5c c0 2f bc a0 13 2d 3e 3e 0b 18 3f
       -0.43199024 -0.010727014 0.16902018 0.59392154
000080 48 58 5d bd 27 0f 37 bf 6c bc aa 3d 18 3c b0 3e
       -0.05403927 -0.71507496 0.0833672 0.34420848
000090 73 1f af be 8c 5d 28 3f dc c8 96 3e 8e ef 54 3e
       -0.3420368 0.6576774 0.2945012 0.20794508
0000a0 7a 96 1a 3e 35 0d 25 be 6b 34 4e 3e 66 2f 2a 3f
       0.15096465 -0.1611832 0.20137183 0.66478574
0000b0 b4 3a 70 be 1d da 03 bf 5e 28 83 3e c2 f0 2b 3f
       -0.23459893 -0.5150469 0.25616735 0.6716424
0000c0 dc a5 33 3f 0f 8a 08 bf 74 60 03 3e a4 2b 12 3f
       0.70174956 -0.5333566 0.12829763 0.5709784
0000d0 9d 07 08 3f 3d fa 28 bf a0 f6 cc 3d 25 87 a2 3b
       0.53136617 -0.66006833 0.100079775 0.004959958
0000e0 a9 aa 68 3e 23 f3 9d 3e 52 3b a5 3f e4 e4 ad 3e
       0.22721352 0.3084956 1.2908728 0.33963692
0000f0 18 34 b3 be 33 ad 51 be dc 1a 07 bb 68 fd 4d 3e
       -0.35000682 -0.20476227 -0.0020615375 0.20116198
000100 15 42 2e be 64 6c a2 be d1 45 4e 3b 5b f4 1c 3f
       -0.17017396 -0.3172332 0.003147472 0.61310357
000110 cf 4a dd 3e 50 5d 99 3e cf 0d 2b bf 61 c7 04 3e
       0.43221137 0.29954004 -0.66817945 0.12966682
000120 a9 52 67 3f 1e 87 f1 bc fb 16 97 3e f7 f7 b7 3c
       0.90360504 -0.029483374 0.2950972 0.022457106
000130 52 b7 99 3e 89 d4 aa bb 06 1d 16 3d 28 7a 4c 3f
       0.30022675 -0.0052133244 0.036648773 0.79873896
000140 71 15 34 bd 4b 59 61 bf 50 b4 d1 3d 97 9c 43 be
       -0.04396576 -0.88026875 0.1023947 -0.19102703
000150 11 16 b9 be 8b 2d 35 3f 5c 05 ba 3e fc b9 53 bd
       -0.36149648 0.7077262 0.36332214 -0.05169104
000160 4e 73 1b 3f 83 43 0c be cb ed bb 3e 46 ef dd 3e
       0.60722816 -0.13697629 0.3670486 0.43346614
000170 31 64 28 bf e4 12 da 3c 85 56 f8 3e 22 2d 03 bf
       -0.6577788 0.026620336 0.4850351 -0.5124074
000180 1d 9b 9f bd b4 34 9a 3d 58 02 d5 be c6 d8 c8 3e
       -0.077932574 0.075295836 -0.4160335 0.39227885
000190 17 f2 b1 be e1 f7 3f 3d 62 b5 d0 3e 40 e3 30 bc
       -0.34755012 0.046867255 0.40763384 -0.010796368
0001a0 a2 b9 11 3f 12 18 a6 bd 99 9a aa 3e 47 13 72 3e
       0.5692388 -0.0811006 0.33321074 0.23640166
0001b0 76 80 86 bd bc eb 99 3e c4 ab a3 3e 7c cc ab bd
       -0.06567471 0.30062664 0.31966984 -0.08388612
0001c0 53 22 62 3e 05 3a 83 be c0 25 8c 3e 0c 68 1b be
       0.22083406 -0.25630203 0.2737255 -0.1517641
0001d0 71 8b 6a bf f0 bf 82 3e 3f 46 b3 3e a1 24 f3 3e
       -0.9161902 0.25537062 0.3501453 0.47488883
0001e0 7e 2d b8 3b 81 df 9e 3d c8 7e 65 bd 06 fd 1b 3e
       0.0056206575 0.07757474 -0.05602911 0.1523324
0001f0 6a bd 57 3f 91 40 8f 3e 2b 4b 1c be 8b 6c a6 3d
       0.842734 0.27978948 -0.1526305 0.08126172
000200 f8 79 7f 3e da cd b0 3e f5 eb c4 3d f6 c8 6a 3e
       0.24948871 0.34532052 0.09615318 0.22928223
000210 bc b1 65 3d 63 ed b2 be 27 23 d1 be fe c7 92 bc
       0.056077704 -0.34946737 -0.40847132 -0.01791763
000220 65 09 f0 3e da 4d 3a 3e d4 83 83 3e d5 c4 69 3d
       0.46882167 0.1819376 0.25686514 0.05707248
000230 0e ef d1 be 93 22 87 bd 28 fc 11 3f e4 a5 f0 bd
       -0.41002697 -0.065983914 0.57025385 -0.11750391
000240 67 46 77 3e 20 6d 37 be 69 3f c2 3e 1a 9d 11 bf
       0.2414795 -0.17912722 0.37939003 -0.5688034
000250 1c 08 d1 be 92 fd 1a bf c6 16 af 3e df c7 69 3f
       -0.408265 -0.6054317 0.34197062 0.91320604
000260 f5 95 c3 be 20 63 ba 3e 00 74 26 bf 9f 4c 0b bf
       -0.38200346 0.3640375 -0.6502075 -0.5441379
000270 e0 d0 4b 3e 7b 9f 12 bc 04 49 6d be 8b 75 c0 be
       0.19903898 -0.008949156 -0.23172385 -0.37589678
000280 7d a2 79 bf 9c e5 99 be 25 93 1c bf 21 64 46 3f
       -0.9751356 -0.3005799 -0.61162025 0.77496535
000290 62 76 07 bf 6b 4c 78 be 99 5c f1 be 53 f1 7d be
       -0.5291501 -0.24247901 -0.4714096 -0.24799089
0002a0 08 57 ed be 84 1f 10 bf 97 96 90 bc 30 19 ae be
       -0.46355462 -0.5629809 -0.017649932 -0.34003592
0002b0 89 0b 13 3f ec aa f2 3d 89 5c c8 3e 09 f7 dd be
       0.57439476 0.11849007 0.391331 -0.43352535
0002c0 57 f4 25 3d 8e 59 2d 3f 29 b2 07 be 98 56 8c 3e
       0.040516224 0.67714775 -0.13251556 0.27409816
0002d0 cd d1 2d be 96 76 ba be 9e 9f 62 bf d7 dd 22 3f
       -0.16974564 -0.364186 -0.88524806 0.6361975
0002e0 66 c0 a1 be 33 89 44 be 75 ca 7e be 48 e1 a2 be
       -0.315921 -0.19192962 -0.24881919 -0.318125
0002f0 35 09 20 be 72 ff ae 3e bb 9c fc 3e 4d 94 e0 3d
       -0.15628512 0.34179264 0.49338326 0.10965786
000300 7c 12 e1 3e af 2b 90 3e 87 57 e7 3e 73 0c c3 3e
       0.43959415 0.28158328 0.45183966 0.38095436
000310 3d c9 8b 3e 23 2f 05 be 87 07 95 bd b9 ae 24 bf
       0.2730197 -0.13006262 -0.07276826 -0.64329106
000320 62 c8 db 3d 7a fd bb be c1 d1 74 be 03 ff 31 bf
       0.10731579 -0.36716825 -0.2390814 -0.6952974
000330 6a eb 5b 3d 94 63 b0 3e f6 57 05 bf a3 58 00 3e
       0.053691305 0.34450972 -0.5208734 0.12533812
000340 36 a1 2c bf 85 7d 35 3f b5 d0 81 3e b2 f8 b2 3d
       -0.6743349 0.7089465 0.25354543 0.08738841
000350 3f 01 f9 be c3 2d 9d bc 78 de b5 3d 69 30 0d be
       -0.48633763 -0.01918686 0.08880323 -0.13787998
000360 3e 78 0d bf d9 fb 43 3d 00 a3 a5 3d 28 85 89 be
       -0.552616 0.047847603 0.080877304 -0.26859403
000370 2a 22 d8 bd 43 5b c8 be 9f f3 17 3e bf 99 89 3e
       -0.10553391 -0.39132127 0.14839028 0.2687511
000380 f8 41 84 3e 3e e3 fe 3e 68 ec bf 3e 94 75 de be
       0.2583158 0.49782747 0.3748505 -0.4344908
000390 6c 26 08 3f d6 42 c2 bd f8 ab 00 3f 6a ea a1 bd
       0.5318363 -0.09485404 0.50262403 -0.07906039
0003a0 e7 12 2d 3f e5 cb 90 3e 42 ea fc bd 9b cf 9c 3e
       0.6760697 0.2828056 -0.12349369 0.3062714
0003b0 36 ca ae be 96 f2 93 be 38 47 a0 bd 48 3e 39 3d
       -0.3413865 -0.28896016 -0.07826084 0.04522541
0003c0 e4 a0 1a 3f 85 c5 cd 3e 33 4f f8 3e 6d e5 af bc
       0.6040175 0.40189758 0.48497924 -0.021471703
0003d0 f8 74 01 3f 4b e7 1a 3c 93 33 0f 3c cf 52 d5 be
       0.50569105 0.009454559 0.008740324 -0.4166474
0003e0 95 ac e4 3e 1b a7 a1 3e db f0 85 3e 72 78 ae be
       0.4466292 0.31572804 0.2616032 -0.34076267
0003f0 ab 49 08 be db 0b 75 3e c6 aa d4 be bc 2b 30 3f
       -0.13309352 0.23930304 -0.4153654 0.68816733

network_body._body_endoder.seq_layers.0.bias f4 [128]
000000 1a 67 dc 39 f1 1e 13 bc 08 12 78 3b fa 82 85 bb
       0.00042038487 -0.008979545 0.0037852544 -0.0040744515
000010 44 9d 27 3c 0b 22 16 3c 95 a1 dc 3c 2c 69 cd b9
       0.010230366 0.00916339 0.026932517 -0.00039179006
000020 8a ce 9a bb 5f 37 be bb 9b e4 60 bb 26 33 75 3a
       -0.0047243284 -0.0058049406 -0.0034315947 0.000935363
000030 f5 1a db 3b 55 f4 88 bb e4 6f 8e bb 95 82 51 bb
       0.006686563 -0.0041795173 -0.0043468345 -0.0031968702
000040 26 e0 af bb a3 ad 11 39 54 1b 2d 3c c3 09 83 3a
       -0.0053672967 0.00013892962 0.010565598 0.0009997416
000050 2d 6d 3a ba 30 af 93 3b 26 73 8d bb b7 1b 44 3c
       -0.00071116054 0.004506968 -0.0043167053 0.011969498
000060 c0 cc 12 bb aa 0c 9e 3b 89 b5 ac 3b 2b 14 56 3b
       -0.0022399873 0.004823287 0.005270664 0.003266583
000070 b0 25 15 3b 20 c9 94 bb fb 28 5e 3c 21 b7 89 3a
       0.002275806 -0.0045405775 0.013559575 0.0010506847
000080 8a d4 69 3a 76 14 90 3b 17 68 77 3b 67 44 e2 bb
       0.00089199154 0.0043969704 0.0037751251 -0.006905127
000090 71 08 0e 3c 8a 70 d6 ba 6f e7 26 3b b1 d4 1e bb
       0.008669005 -0.0016360444 0.0025467535 -0.002423566
0000a0 84 04 72 b9 cf c0 8b 3b 75 fa 6d 3b f0 c2 91 39
       -0.000230806 0.004264928 0.0036312614 0.00027801795
0000b0 b4 44 72 3c 50 65 00 bc f8 5b 44 bb 40 76 8c bc
       0.014786888 -0.007836655 -0.0029962044 -0.01714623
0000c0 74 8e 04 3b 76 e1 9e ba ea b3 ef ba c2 e9 76 bb
       0.002022651 -0.0012121636 -0.0018287871 -0.0037675952
0000d0 37 52 0b bc 00 b9 1c bb 48 3c 38 bc 66 3f 90 bb
       -0.008503488 -0.002391398 -0.011244841 -0.004402089
0000e0 69 31 b7 bb 81 f6 c2 b8 f9 44 0d bc cb 77 8c ba
       -0.005590607 -9.296556e-05 -0.008622401 -0.0010716853
0000f0 7c 77 ea bb c9 99 55 bb 91 3c 65 bc be f6 56 3c
       -0.007155357 -0.0032592884 -0.013991491 0.013120351
000100 a0 03 5a 3b 15 84 c9 3b 40 71 0b 3c 4f 66 8a 3b
       0.003326632 0.0061497786 0.008510888 0.004223622
000110 53 3c 1b ba 8a 05 f5 ba 06 a0 8f bb 48 5e 03 bb
       -0.000592177 -0.0018693667 -0.00438309 -0.002004521
000120 41 a4 b7 b9 6a 9a 70 b9 3b c2 22 bc 5f cf 12 bb
       -0.0003502686 -0.00022945707 -0.009934003 -0.0022401435
000130 19 09 84 ba a3 2e 04 3b 3d ab a1 3b 59 81 5e bb
       -0.0010073512 0.00201694 0.0049337433 -0.003395161
000140 f4 88 d0 ba b4 95 6a ba 24 81 37 3b 55 71 a5 bb
       -0.0015909956 -0.0008948699 0.0028000558 -0.0050489106
000150 4c fc 05 bc 1f 00 f3 bb 23 8a 1b 3b 58 fd 97 bb
       -0.008177828 -0.007415786 0.002373346 -0.004638355
000160 78 6c 0b bc e6 e2 49 bb 96 c4 b2 bb d6 f9 f7 39
       -0.008509748 -0.0030805408 -0.005455564 0.00047297654
000170 53 6d 07 bc 03 f6 0e 3b 00 cf c7 3a 3a 8b f3 b9
       -0.008265811 0.0021814115 0.0015244186 -0.00046452304
000180 97 83 08 3b 53 74 2d bb 6a 6b 31 ba db ec 7c 3b
       0.0020830387 -0.002646704 -0.000676802 0.0038593325
000190 e7 df 04 3c b5 75 70 3b ba b6 21 bc 35 aa 1d 39
       0.008110023 0.0036691253 -0.009870226 0.00015036094
0001a0 22 eb cd ba a6 5a 7d 3c 3c f5 d6 bb a8 d0 07 bb
       -0.0015710334 0.015463507 -0.006559996 -0.0020723734
0001b0 52 b7 03 3b 6b db 06 bb 6a 39 7c 39 ba bb e6 39
       0.002009828 -0.002057756 0.00024053981 0.00044008886
0001c0 f2 0a ff b9 9a f5 95 3a 5d 3d 9e bb 80 65 9e 3c
       -0.00048645545 0.0011440993 -0.0048290924 0.019335508
0001d0 1a b3 26 3b cd d8 3b 3c f3 70 6d 3a 07 28 c7 3b
       0.0025436343 0.011465264 0.0009057663 0.0060777697
0001e0 f0 c5 c4 bb 17 54 8a 3a 07 3a 3d 3c 2b fc 69 bb
       -0.0060050413 0.0010553625 0.011549479 -0.0035703282
0001f0 c0 72 f7 bb 7e 2f 77 bb 9f 02 e5 ba f0 8f 8d bb
       -0.007551521 -0.0037717517 -0.0017472095 -0.004320137

network_body._body_endoder.seq_layers.2.weight f4 [128, 128]
000000 02 1f 34 bc e0 9c 26 bc a9 4c d6 3d a2 db 4f bd
       -0.010993721 -0.010169238 0.104638405 -0.050746568
000010 c1 03 2f 3e 18 29 dd 3d cd fd fb b8 5c 73 0c bd
       0.17091276 0.10798854 -0.00012015887 -0.034289703
000020 42 9e 61 b9 41 00 b8 bd 6a 3e 30 3e cd d1 d7 ba
       -0.00021516628 -0.089844234 0.17211309 -0.0016465724
000030 d4 de 29 bd cd 32 7c 3c b3 c2 a6 3d e2 4d df bc
       -0.04147227 0.015392971 0.08142605 -0.027258817
000040 08 04 e2 bd 5e eb cb 3c e3 ed 87 3d 11 75 0e 3e
       -0.11035925 0.024892505 0.0663717 0.13911845
000050 a2 0a eb 3d ec 8d 78 bd d6 76 33 bd 47 64 37 3d
       0.114766374 -0.060682222 -0.043814503 0.044773366
000060 4c ff 0e 3c 52 dd a5 3d 50 6a ab 3b b7 7b 20 be
       0.00872786 0.08098854 0.0052311793 -0.15672193
000070 2a 30 92 bc 91 8b 09 3e c8 54 a7 bd 9c 93 c2 bd
       -0.017845232 0.13432147 -0.081704676 -0.095008105
000080 f4 76 ac 3c eb 79 1d 3d 6c e0 03 be 7e 51 7d bd
       0.021052815 0.03844635 -0.12878579 -0.061845295
000090 bf 9c 4e 3d 64 39 db bd fe b6 34 3d 2a 55 62 3d
       0.050442453 -0.10704306 0.044119827 0.055257
0000a0 a3 49 05 bd 3c a4 6a 3d 74 d4 ab 3d fe b6 d8 3c
       -0.03254093 0.057285532 0.083901316 0.026454445
0000b0 cb 34 29 3e 87 6e 11 bc a8 aa f1 3d 5b 93 84 bb
       0.16524045 -0.008876449 0.11800128 -0.0040458865
0000c0 33 45 b7 bd 55 23 15 bd 4a 97 30 bd 71 42 88 3d
       -0.089487456 -0.03641065 -0.04311303 0.06653298
0000d0 7d d1 6f 3c 94 21 2b 3e fb 75 26 3e d2 6e a5 3d
       0.014637348 0.16712028 0.16255943 0.08077778
0000e0 31 b7 a6 3c 93 ff 42 3d da 11 35 3c c0 73 f1 bd
       0.020351024 0.047607016 0.011051619 -0.11789656
0000f0 67 9c 04 3e 55 31 c8 bc f7 ca c5 bd 53 9b b5 3c
       0.12950288 -0.024437586 -0.09657853 0.02216879
000100 1d 18 a1 3d 63 28 ab 3d 8b d6 4e be df fd 9e bd
       0.07865927 0.083573125 -0.20199029 -0.07763266
000110 bd ff 0e 3b 29 90 1a bd ce b6 f8 3c 65 39 2e bc
       0.0021819912 -0.037735138 0.030360606 -0.010633801
000120 ca a0 b0 3c 3f 92 14 bd b5 9c f2 3c fb d4 3b 3d
       0.021561045 -0.036272284 0.02961574 0.04585741
000130 a0 57 a2 bd 9d b5 96 bc cd b7 a9 3d a9 7b d1 bc
       -0.079268694 -0.018397147 0.0828701 -0.025571661
000140 68 d3 d2 3d 43 07 b8 3d d6 a3 53 bc b6 27 6f be
       0.10294229 0.0898576 -0.0129174795 -0.23354992
000150 5a c1 76 3c 50 df a5 3c 03 08 f0 bd 14 e9 5c 3d
       0.015060747 0.020248085 -0.11720278 0.053933218
000160 bb d6 9a 3d b2 42 d0 3c 57 dc 9b bd 5a cc f5 bc
       0.07560488 0.025422428 -0.07610386 -0.030004669
000170 d3 87 81 bd c8 99 2e bc 24 00 5f 3e a3 e4 b4 3c
       -0.063247345 -0.0106567815 0.21777397 0.022081679
000180 23 52 b1 3d 8f e3 4a 3d 70 1c 74 3d 2e ba 5f bc
       0.086582445 0.049533423 0.059597433 -0.013655229
000190 2f 32 0e 3e fc 91 8f 3d 02 d2 0b 3e 25 ff 99 3d
       0.13886331 0.07010266 0.1365433 0.07519368
0001a0 d2 7a 57 3c 27 ba 83 bd 47 62 1a 3c 18 eb d8 3d
       0.013151841 -0.0643199 0.009422845 0.105917156
0001b0 7a fa 98 bd b4 95 43 be 52 3c 98 3d 32 41 2d bc
       -0.074696496 -0.19100076 0.0743338 -0.010574626
0001c0 e3 a2 25 3d 5e 3e f2 bd 83 38 89 3d f1 5b cf 3d
       0.040438544 -0.11828302 0.06700232 0.10124958
0001d0 d1 69 b9 3d 4f 25 5c 3c 8b 4e a7 3c 4f 0f 00 be
       0.09053386 0.013436629 0.020423194 -0.1250584
0001e0 49 38 fa bd 81 2a a3 bd 02 cd ba 3c 53 33 d3 bb
       -0.12217767 -0.07967091 0.022802833 -0.0064453273
0001f0 f3 c5 76 3d 73 12 98 bc 67 91 d8 bc cc eb 56 3d
       0.060247373 -0.018563485 -0.02643652 0.052470967
000200 23 c5 84 3d c2 f4 1f bc ed 26 be 3c 58 8b 09 3d
       0.06482913 -0.009762945 0.02321192 0.033580154
000210 1c 15 06 3e e4 a0 41 3e 0f 08 67 be cd f1 87 3b
       0.1309399 0.18909031 -0.22561668 0.004148698
000220 44 2a da bc e9 11 67 bd 1e 2a 6e bc 1c 5d 5d 3c
       -0.026631482 -0.056413565 -0.014536409 0.013510969
000230 92 46 60 3c 29 1e 04 be 12 76 50 bd 88 84 b3 bc
       0.0136887 -0.1290213 -0.05089385 -0.021913782
000240 71 44 38 3d e2 84 49 3d 81 5e 01 bd 7b 00 9b 3d
       0.044987146 0.049198993 -0.031584267 0.07568451
000250 35 6a 4d 3b 0c 0d 0a bd 10 9d 30 bd e9 00 71 bc
       0.0031343822 -0.03370385 -0.043118536 -0.01470969
000260 39 f7 a8 3d 10 3f cd 3c eb 75 e8 3d c3 a4 34 3d
       0.08250279 0.025054485 0.11350616 0.04410244
000270 ba 36 e0 3d d2 91 18 3d d7 29 94 3d 2e 4b 71 3d
       0.10947938 0.03724844 0.07234543 0.058909588
000280 40 57 d6 bc 07 b8 69 bc 46 4c b4 3c 39 66 4d 3d
       -0.02616465 -0.014265067 0.022009026 0.050146315
000290 1b 47 0c be bc db 9d 3b f8 03 d7 bd c2 9f f5 bd
       -0.13699 0.004817454 -0.10498804 -0.11993362
0002a0 29 6b 55 3d 4b 9a 72 3b 9b 46 90 bd 41 4b e8 bb
       0.05210415 0.0037018235 -0.07044717 -0.007089049
0002b0 ce 4e ab 3d ab 3b d9 bd c5 b5 39 3d 1f 93 5d bd
       0.0836464 -0.10607084 0.045339365 -0.054095384
0002c0 56 cc 62 3d a5 c2 b7 3c c6 b5 61 3d 13 a7 b1 bd
       0.05537065 0.022431681 0.055104993 -0.08674445
0002d0 ec d3 b5 3d 35 8d 93 bd 27 77 a4 bd 62 59 e2 b9
       0.088783115 -0.072046675 -0.08030539 -0.00043172674
0002e0 63 e8 13 bd be 76 14 3d a0 d5 55 3c c1 e0 b1 bd
       -0.036110293 0.036246054 0.01305142 -0.086854465
0002f0 fd 64 92 bc a6 3f b8 bc ec 26 8f bc 54 ac a4 bd
       -0.01787042 -0.022491287 -0.017474614 -0.080406815
000300 3a e5 76 bc d5 04 0b be bf 69 07 3d 83 0b c1 3d
       -0.0150693 -0.13576062 0.03305983 0.09426024
000310 aa 23 0f bc 67 66 6e bb bd d4 18 3e d1 49 32 bd
       -0.00873653 -0.0036376955 0.14924903 -0.043527428
000320 f3 0d 9f 3c 24 d7 a9 bd da a4 16 3e 21 a4 c1 3b
       0.019415831 -0.08292988 0.14711323 0.0059094583
000330 ba 9d b3 3d 66 df b3 bd fa ef fa bd 8a 8d 20 3c
       0.08770318 -0.08782844 -0.12252803 0.009799371
000340 7c b7 8e bc a5 a4 03 be 4b 36 d7 bd 53 3a 78 3d
       -0.017421477 -0.12855776 -0.105084024 0.060602497
000350 8d 2c d6 3d 4c d8 90 3d 85 58 9a bc e3 2a 72 bd
       0.10457716 0.07072505 -0.018841038 -0.05912293
000360 ed f9 e3 3c 12 40 8e 3c dc 85 01 be 77 f5 13 bd
       0.027829135 0.017364535 -0.1264872 -0.036122765
000370 0a a8 d9 b8 ac 6f b5 bb a7 5f c8 bd bb 16 f0 ba
       -0.00010378666 -0.005536994 -0.09783869 -0.0018317321
000380 b9 72 75 bd 32 37 43 bd 08 53 a5 bd 47 10 4d 3e
       -0.05992386 -0.04766006 -0.080724776 0.2002574
000390 61 c6 aa 3c 4b 79 e0 3d e7 9f b2 bc 28 6e 0f bb
       0.020846548 0.10960635 -0.021804763 -0.0021885727
0003a0 f7 fa 65 be db b0 e2 bd b4 d9 30 bd 73 30 45 3d
       -0.22459017 -0.11068889 -0.043176368 0.048141908
0003b0 b1 78 82 3d 2b 3f 95 3e 20 34 bb bc d2 da a0 bd
       0.06370676 0.29149756 -0.022852004 -0.07854237
0003c0 f6 65 14 3e ff 37 38 3c 76 45 c6 bc d8 8b a7 3d
       0.1449202 0.011243819 -0.024203043 0.0818097
0003d0 b6 7d 23 be ea 42 82 3e 6c 15 2e 3d 2b 16 cb 3b
       -0.15965924 0.25441676 0.0425009 0.006197711
0003e0 6f bd da 3d d6 cd a3 bc c9 13 a1 3b ec 9b 61 be
       0.10680663 -0.019995611 0.0049156887 -0.22032136
0003f0 8c 5f 1b be f0 53 9e 3d fe 50 05 3c fe 29 22 3b
       -0.15173167 0.077308536 0.008136986 0.0024744268

network_body._body_endoder.seq_layers.2.bias f4 [128]
000000 1e 62 45 bb 91 31 6a ba 6c 4b 0b 3b c7 17 10 bc
       -0.0030118297 -0.00089337776 0.0021254672 -0.008794731
000010 a8 91 97 bb 87 6e 21 3a eb 4c f0 ba 9f a1 27 3b
       -0.004625518 0.00061581325 -0.001833347 0.0025578511
000020 f9 e9 11 3b c8 a6 ee b8 fe 85 8f 3a 70 a7 86 3a
       0.0022264703 -0.0001137979 0.0010949967 0.0010273289
000030 56 b8 24 bb cd 71 25 bb 8a 49 90 b9 fd a6 02 bb
       -0.0025134287 -0.0025244833 -0.0002752061 -0.0019935959
000040 70 8f 2b bb a8 0e 44 3a 58 c6 71 bb 14 84 0d 3a
       -0.0026178025 0.00074789906 -0.0036891904 0.00053984043
000050 4c 67 47 bb ec a2 90 37 01 f0 1a 3b 3e 1c da 39
       -0.003042656 1.7242004e-05 0.0023641589 0.00041601242
000060 b4 80 8d ba 84 15 94 bb 30 7b 58 bb aa 70 38 bb
       -0.0010795803 -0.0045191664 -0.003303241 -0.0028143325
000070 b4 24 ed 3a 36 dc 1f bb c1 13 78 bb 70 54 a4 3b
       0.0018092603 -0.002439273 -0.003785357 0.0050149485
000080 bf 49 4a 3c 4d c8 2a 3b ea 88 26 3c 31 3b 9f 3c
       0.012346684 0.002605933 0.010164479 0.019437404
000090 ea 5b f5 3a c3 b0 85 3a e4 02 c2 38 14 12 7e 39
       0.0018719409 0.0010199774 9.251179e-05 0.00024230062
0000a0 b4 34 27 ba c9 99 35 bb dd 42 17 3b 8d 23 cc 3a
       -0.0006378398 -0.0027710071 0.0023080625 0.001557456
0000b0 40 53 63 bb a7 94 9e bb 70 48 58 3c da 04 fc 3a
       -0.0034687072 -0.004839498 0.013200864 0.001922752
0000c0 25 0d a5 3a a6 d2 ea 3a 1d 10 33 bb 79 21 c5 3a
       0.0012592418 0.0017915561 -0.0027322837 0.0015039883
0000d0 5b 3a dd 3b 70 63 d0 3b e9 10 ca 3b 83 d5 ed bb
       0.0067513413 0.00635951 0.0061665666 -0.0072581186
0000e0 62 32 d6 3b 31 57 b8 b9 84 d6 d5 3a 91 af 6b 3c
       0.006536768 -0.00035160178 0.0016314541 0.01438512
0000f0 bf 9e 79 3a 3c 91 a1 3a d0 ba 3e 3a d9 fd 90 bb
       0.0009522251 0.0012326608 0.0007275762 -0.0044247922
000100 33 36 80 38 dc 19 26 bb e7 3a 94 3b db aa 07 3a
       6.113611e-05 -0.0025345003 0.0045236233 0.0005175301
000110 7e f0 5d 3a 96 68 73 bb fa 93 c7 ba bd 0d fd 3a
       0.0008466317 -0.0037141195 -0.0015226596 0.0019306462
000120 1e c3 31 3c c1 f9 19 3b cd 26 f5 ba f6 bd a6 39
       0.010849742 0.0023494812 -0.001870358 0.0003180352
000130 12 fa 9e ba a3 67 ad bb a5 18 54 3a 5e 9f 4f 3a
       -0.001212897 -0.0052918955 0.00080908305 0.0007920171
000140 75 c1 a4 b9 98 80 41 bb d6 fc 57 3b 60 f8 35 39
       -0.00031424654 -0.002952611 0.0032957098 0.00017354032
000150 19 0b 20 3b 88 dc 06 b9 51 c0 f4 39 3c 22 96 3b
       0.0024420677 -0.0001286139 0.00046682594 0.004581718
000160 7a bf 8c 3b 5f 2e 82 ba 22 05 c3 ba cf 1f 50 bb
       0.0042952867 -0.0009932033 -0.0014878849 -0.003175724
000170 ca c3 a6 bb aa 86 39 bb 7d bc 45 bb b9 bf a7 bb
       -0.005089258 -0.0028309026 -0.0030172162 -0.0051192907
000180 88 5c cd 3b 87 67 77 ba 18 33 76 3a ed b7 95 bb
       0.006267134 -0.0009437729 0.0009391769 -0.004569045
000190 e7 4b 1f bb c8 28 f0 ba 54 9d 38 3c 3a 00 84 ba
       -0.0024306716 -0.0018322701 0.011267979 -0.0010070868
0001a0 dd 71 17 3b 30 85 f9 ba f4 11 84 3b 40 17 92 b8
       0.002310864 -0.0019036885 0.0040304605 -6.966153e-05
0001b0 c3 ea 2f ba e3 d0 0a 3b 75 12 62 39 c3 49 6c ba
       -0.00067107024 0.0021181635 0.00021559915 -0.0009013677
0001c0 71 6c 60 bc 0c f7 a3 bb e2 74 87 bb c3 ee 23 bb
       -0.013697729 -0.0050038155 -0.0041338066 -0.002501414
0001d0 41 16 8e 3b 84 a4 e9 3a 1e 0a 42 bb d5 55 27 bb
       0.004336149 0.0017825519 -0.002960808 -0.0025533338
0001e0 96 db 5b 3b 93 3d ca ba d7 83 4a bb 60 4c fa 3a
       0.0033547631 -0.0015429728 -0.0030901337 0.0019096248
0001f0 0e 4c 0d bb 5c e0 84 3a 59 0b d3 bb 7e 2b 13 3c
       -0.0021560225 0.0010137665 -0.0064405617 0.008982537

action_model._continuous_distribution.log_sigma f4 [1, 2]
000000 95 0d 9f bc 89 c1 e9 bb
       -0.019415656 -0.007133667

action_model._continuous_distribution.mu.weight f4 [2, 128]
000000 d7 3e c3 3c 18 0f 4c 3c a0 3a b3 bc 4b 74 91 3c
       0.023833675 0.0124547705 -0.02187854 0.017755648
000010 92 b7 a8 3c 4d 68 bc bb 78 8f 89 3c 13 a0 ca 3c
       0.020595346 -0.0057497383 0.016792044 0.024734532
000020 34 67 25 bc a5 8f 00 3c d9 7d 07 3b d8 16 8d ba
       -0.010095406 0.0078467475 0.0020674376 -0.0010764254
000030 95 c0 14 3d e2 f9 e8 bc ac 8d e3 bb d5 88 4e 3b
       0.036316473 -0.028439466 -0.006944379 0.0031514664
000040 1a 0a c8 3c 16 6d 03 bd ea fd d2 bc 35 8a f4 bb
       0.02441888 -0.032086454 -0.025755841 -0.0074627646
000050 8d 39 9f 3c 36 7d bb b9 cd 39 cb ba 28 f9 a2 ba
       0.019436622 -0.0003576071 -0.0015504897 -0.0012433873
000060 8c 25 77 bc 7f e7 3a 3b 4f 20 c6 3c 96 8e a3 bb
       -0.0150846355 0.002851933 0.024185328 -0.004991363
000070 cc 78 00 bd a8 65 46 3a 13 d2 cf 3b 2f c1 48 bc
       -0.0313652 0.00075682485 0.0063421815 -0.01225309
000080 8d 48 ea 3c 19 8d 05 bd a8 85 02 3d 93 ca 40 bb
       0.028599048 -0.032605264 0.031865746 -0.0029417619
000090 a5 48 44 3c 74 b3 7a 3b 89 e8 74 bc 8e 81 93 bc
       0.01198021 0.0038253935 -0.014948019 -0.018006112
0000a0 73 f9 0c 3c ca a7 e6 3b 76 0f 85 bc ab 52 27 bd
       0.008604395 0.007039045 -0.016242724 -0.040850323
0000b0 db fd ec 3a aa 01 32 3c e5 c7 36 3c c2 7b df 3c
       0.0018081026 0.010864655 0.011156057 0.027280692
0000c0 ef ee 30 bc a9 7b 46 bd a1 9a cd 3b 92 29 d5 3c
       -0.010799154 -0.048457775 0.0062745367 0.026020799
0000d0 13 37 98 b9 e5 a0 16 3d 42 e9 1d 3d f0 e4 3f bc
       -0.00029032733 0.036774535 0.03855253 -0.011712298
0000e0 95 43 f1 3b 43 7a bb bc 7c 07 6e bb 94 f9 04 3d
       0.0073627927 -0.022885447 -0.003632038 0.03246458
0000f0 35 f0 aa bc 8b 7b de bc 06 3d c5 bc cb ca bd 39
       -0.020866493 -0.02715852 -0.02407695 0.00036199982
000100 f2 a2 57 bc 6e 13 0d bb 78 52 4e 3b b5 e1 0f 3d
       -0.013161408 -0.0021526474 0.003148226 0.03512736
000110 ad fb 5d 3d 57 2e ab 3a 14 ad 38 3c 8b 3a 0f bc
       0.054195095 0.0013060075 0.011271734 -0.008741985
000120 89 4f 24 bd 36 ae 14 3c 2e 38 14 bc 13 7d c1 3b
       -0.040114913 0.009074738 -0.009046597 0.0059048026
000130 39 c6 61 3c c5 e8 8f 3c 40 20 06 bd 93 0b 93 3b
       0.01378017 0.017567048 -0.0327456 0.0044874637
000140 e8 75 b0 bb da 96 8e 3b 8e 11 db bb 5b 44 e9 38
       -0.0053851493 0.004351479 -0.0066854423 0.00011123038
000150 15 60 f9 bb e1 8d ae 3c ba 34 68 3d 21 bd 3f 3d
       -0.007610331 0.021307888 0.05669091 0.046811227
000160 b0 6d ad bc f9 6a b4 bc 17 da 3c bc 37 55 03 3d
       -0.021170467 -0.022023665 -0.011526606 0.03206369
000170 94 f9 7e bc b8 27 c0 3c 85 15 78 3b 03 ff 9d bb
       -0.015562434 0.02345644 0.0037854624 -0.0048216595
000180 f5 58 49 3d 3f af 42 bc 95 35 ab bc a9 3b 56 ba
       0.0491571 -0.011882602 -0.020899573 -0.0008172342
000190 13 4c b4 bc 5a 1e de bb c2 ea 86 3c 80 49 13 36
       -0.022008931 -0.0067785205 0.016469363 2.194749e-06
0001a0 ff b2 52 3c 71 ee bb 3c 27 59 03 3c 0d 51 5e bc
       0.012860059 0.022940846 0.008016861 -0.013569129
0001b0 7c 24 32 3c 2a e7 e8 3c f9 27 b7 bc a0 d6 1d 3c
       0.010872956 0.02843054 -0.022357928 0.00963369
0001c0 fe d7 2d 3b ee 52 0b 3d 84 34 b5 3b 1b 29 a0 bc
       0.0026526446 0.034014635 0.005529942 -0.01955085
0001d0 c7 8e b5 bc 50 f0 2a bd 6f 2e b6 3c 8f b1 39 3c
       -0.022162808 -0.041733086 0.022238938 0.011333837
0001e0 c2 63 90 bc ca 1a 9b 3c d5 9e 87 3c fb d9 94 3a
       -0.017625693 0.018933672 0.01655523 0.0011356467
0001f0 c5 00 cc 3c f4 67 2e ba 19 ab 9b 3a c4 a5 94 3c
       0.02490271 -0.00066530635 0.0011876553 0.01814545
000200 37 27 26 3c c2 46 0b bc a1 45 a2 bc 91 3e d0 3c
       0.0101411855 -0.008500757 -0.019808592 0.025420459
000210 ba 23 f9 ba 3d 71 80 ba 1f 00 9b 3b 0b 32 42 3b
       -0.001900784 -0.0009799373 0.004730239 0.0029631879
000220 17 40 06 bc 30 95 b6 bc c5 03 15 bc e5 0e 83 bc
       -0.008193991 -0.022287935 -0.009095137 -0.015998313
000230 f5 c3 a2 bb 83 c3 bb 3b ca d6 c6 bc e0 6b 45 3c
       -0.0049672076 0.005730094 -0.024272341 0.012049645
000240 25 b5 95 bb 2d 46 e7 3b 58 ab cc 3c 1f 31 6f bb
       -0.0045687133 0.007057926 0.024984047 -0.0036497784
000250 c0 25 17 3c db 6c c7 3a ff a7 94 bc ff 78 a0 3b
       0.009225309 0.0015214937 -0.018146513 0.0048972364
000260 04 60 a0 3c b5 14 a5 3c 3e 3e 1f 3d dd ec 7c 3c
       0.019577034 0.020151475 0.03887772 0.015437332
000270 7b e7 01 bc 77 8e a1 3c 00 22 0c 3c 09 26 80 3c
       -0.007928724 0.019721253 0.008553028 0.015643137
000280 34 25 68 ba 9a 6e 9a bb 02 b7 54 3d ac df 34 3d
       -0.00088556414 -0.0047128918 0.051932342 0.044158623
000290 2d 8f 77 3c e9 a3 66 ba da f2 3b 3c 8a ef 5e 3b
       0.015109819 -0.0008798228 0.011471475 0.0034017288
0002a0 92 fd 95 b9 05 98 8b bb 42 25 66 bc 71 cf 14 bb
       -0.0002860842 -0.0042600655 -0.014046969 -0.0022706653
0002b0 da 8d 3d bc 38 b6 20 bc c1 d6 1b 3d a3 27 90 3b
       -0.011569465 -0.009809069 0.038046602 0.0043992563
0002c0 31 aa e7 3c 5a ac ac ba 80 ce e2 3c 68 06 03 3d
       0.028279396 -0.0013173923 0.027686357 0.03198853
0002d0 c3 3e cd 3c 47 07 84 3c 75 d2 cb 3c 6d 75 af bb
       0.025054341 0.016116751 0.024880627 -0.0053545744
0002e0 b9 e0 5e 3c 4f 62 ae 3c 5c 32 eb bc b4 40 1c bc
       0.013603383 0.021287112 -0.028710537 -0.009536911
0002f0 2d f0 9c 3a 80 e9 d6 3a 45 f0 91 3b 80 1f 69 3c
       0.0011973433 0.0016396493 0.004453691 0.014228702
000300 36 b2 9a 3c ab d1 35 3c 49 17 dc 3c d0 61 48 3c
       0.018883806 0.011097352 0.026866572 0.012230352
000310 3c 3a 1e 3c b2 6e 26 3c 10 6c da bc 13 ad e7 bc
       0.009657439 0.010158228 -0.026662856 -0.02828077
000320 a3 bf 02 3d 67 bc 60 3c 0a 00 92 3c 77 63 0b 3c
       0.03192104 0.013716794 0.017822284 0.008507601
000330 e3 11 dd 3b b9 c5 4b 3b dc 1c 93 bc 20 02 a2 bc
       0.006746517 0.0031093194 -0.017958097 -0.019776404
000340 69 4e 22 bc 7c ee 8a 3c 04 d0 22 3c 03 ec 82 3b
       -0.00990639 0.016959421 0.00993729 0.00399542
000350 12 60 11 bd 70 61 b6 bc 88 13 61 bc 13 1c 52 3b
       -0.03549201 -0.022263259 -0.013737567 0.003206019
000360 37 0d b0 bc 9b 04 1b 3c 5d a0 e4 3c 15 df da 3c
       -0.021490676 0.009461547 0.027908498 0.026717702
000370 35 56 90 bc 5c 1b ef 3a 53 23 89 3c 5a b3 69 bb
       -0.017619232 0.0018242407 0.016740477 -0.003565988
000380 71 67 9c 3c 08 cf 1d 3c 89 b4 06 bc 5c 7a e4 3b
       0.019092293 0.00963188 -0.008221754 0.006972594
000390 81 e6 a7 bc f2 3a 43 3b b1 16 f9 3a 7b 06 52 bc
       -0.020495655 0.0029789773 0.0019003955 -0.012818928
0003a0 e7 5c 80 3c ce 50 49 3b 53 0a a9 3c 10 5d ce bb
       0.0156693 0.003071833 0.020634806 -0.006297715
0003b0 f3 67 42 bc d9 42 e5 3b b6 f0 41 3c cc da db bb
       -0.011865604 0.0069964943 0.011837175 -0.006709432
0003c0 0c dc 94 bc ae bc f4 3b b7 e5 cb 3b 9a 4d 2c bb
       -0.018171333 0.0074687814 0.0062224525 -0.0026291371
0003d0 d0 dc 78 bb 77 61 fe ba 3b 13 a0 3c d0 94 61 bc
       -0.0037973411 -0.0019407709 0.01954042 -0.01376839
0003e0 79 3e 05 bd b6 fd 41 3c 87 4b b5 ba 60 69 eb 3c
       -0.03253028 0.011840275 -0.0013831713 0.02873677
0003f0 e1 e4 0f 3c e0 19 ef 3c 93 8d 91 3b 82 38 54 bc
       0.008782596 0.029187143 0.004441926 -0.012952926

action_model._continuous_distribution.mu.bias f4 [2]
000000 7f a3 05 bb 85 04 0f bb
       -0.002039164 -0.0021822762

exp_avg f4 [128, 6]
000000 7a 85 8e 39 0b cd 0c 3a 57 0b 98 b9 c1 a8 29 b9
       0.00027183798 0.000537113 -0.00029000148 -0.00016179962
000010 86 ea 0f 3a 94 e5 10 ba 88 ec 8e b7 85 1f 92 b7
       0.0005489964 -0.0005527374 -1.7037863e-05 -1.7419234e-05
000020 4d b5 13 37 7b 12 b0 36 2b 5b 95 b7 ba 5f 96 37
       8.804095e-06 5.24736e-06 -1.7804638e-05 1.792597e-05
000030 0e ce 2d 37 bb 1b 4c 39 69 30 9a b9 22 f1 75 b8
       1.0359579e-05 0.00019465286 -0.00029409237 -5.8637124e-05
000040 d7 9f 50 39 b1 0b 52 b9 70 52 d1 39 fb 6e d7 39
       0.00019895971 -0.00020031516 0.00039925007 0.00041090682
000050 4a db 6e b9 4e cb 01 b9 2b 33 dc 39 54 b3 dd b9
       -0.0002277914 -0.00012378136 0.00041999793 -0.00042286015
000060 fa ce 3f ba 3e df 4f ba 99 a8 5c 39 14 7a 7a 39
       -0.00073169137 -0.0007929689 0.00021043642 0.00023887336
000070 95 78 54 ba 42 eb 55 3a 8e e5 ca 35 b7 d5 05 37
       -0.00081051263 0.00081603613 1.5116982e-06 7.977177e-06
000080 ad 22 72 b5 00 44 21 b6 c4 cb 08 37 4f ba 09 b7
       -9.0202485e-07 -2.403045e-06 8.153675e-06 -8.209215e-06
000090 26 9d de 37 a0 a4 2e 38 55 47 ce b7 03 70 52 b7
       2.653764e-05 4.163815e-05 -2.459033e-05 -1.2543055e-05
0000a0 be 81 32 38 2d b9 33 b8 53 ca 04 38 c8 2c 22 38
       4.255934e-05 -4.2849384e-05 3.165968e-05 3.8665516e-05
0000b0 8d ea ac b7 fc 69 43 b7 56 c3 25 38 80 e4 26 b8
       -2.0613219e-05 -1.1647582e-05 3.9520986e-05 -3.979029e-05
0000c0 d6 4c 85 b7 9a f6 0b b8 de af 02 38 52 a6 28 37
       -1.5890615e-05 -3.3369848e-05 3.1158204e-05 1.0052305e-05
0000d0 4e 0f 0f b8 e3 08 10 38 b5 92 3e b7 4c 55 96 b7
       -3.410811e-05 3.434055e-05 -1.135904e-05 -1.7921113e-05
0000e0 dc cd 88 37 33 25 b5 36 ce a8 99 b7 d5 b4 9a 37
       1.6308324e-05 5.398551e-06 -1.8317627e-05 1.8442437e-05
0000f0 76 96 3e ba 6f 49 7a ba 89 19 f0 39 ed ca 96 39
       -0.0007270345 -0.00095476856 0.00045795392 0.0002876142
000100 16 d3 7f ba ab c8 80 3a c8 d8 1e 38 de d0 96 38
       -0.0009758932 0.0009825429 3.787203e-05 7.191462e-05
000110 39 e7 b3 b8 27 ba b5 b7 09 27 9a 38 0d 34 9b b8
       -8.578454e-05 -2.1663565e-05 7.350563e-05 -7.400671e-05
000120 59 c0 0c 37 84 e9 46 37 a5 8c 35 b7 48 ae 6f b6
       8.389435e-06 1.1856089e-05 -1.0821187e-05 -3.571522e-06
000130 2b 50 4b 37 d0 b2 4c b7 9f 94 ed b5 79 95 10 b6
       1.2118408e-05 -1.2200981e-05 -1.770113e-06 -2.1544677e-06
000140 2a 01 64 35 b1 37 2e 35 65 c8 13 b6 3a ca 14 36
       8.493831e-07 6.4901093e-07 -2.2021352e-06 2.217143e-06
000150 d8 3f 51 b7 c0 17 34 b7 ae 10 1b 37 19 01 59 36
       -1.24722355e-05 -1.0734366e-05 9.2426035e-06 3.2336159e-06
000160 c4 13 38 b7 e6 54 39 37 6a 2b a2 b2 ec ff dc b2
       -1.0971857e-05 1.1046626e-05 -1.8879025e-08 -2.572775e-08
000170 bc 48 78 32 ce 25 05 32 a2 e3 e1 b2 bd 6d e3 32
       1.4452038e-08 7.750215e-09 -2.6296963e-08 2.6476181e-08
000180 fe f7 51 b9 34 e1 9f b9 56 ab e7 38 02 a6 c0 38
       -0.00020024178 -0.00030494633 0.00011046852 9.186195e-05
000190 c1 6a a3 b9 df 87 a4 39 30 f9 7b 38 37 23 dc 38
       -0.0003116932 0.0003138175 6.0075137e-05 0.00010496977
0001a0 a2 e4 27 b9 d7 a0 04 b8 14 02 e1 38 92 8a e2 b8
       -0.00016011533 -3.1621046e-05 0.00010729223 -0.000108023305
0001b0 44 ef ea b6 46 c7 20 37 c6 00 ae b7 36 bb 41 b6
       -7.0015976e-06 9.58314e-06 -2.0742777e-05 -2.8868212e-06
0001c0 f4 55 24 37 a5 74 25 b7 ad ff 05 36 26 68 4d 37
       9.795174e-06 -9.861925e-06 1.9967367e-06 1.2243201e-05
0001d0 82 5d 6f b7 c9 81 77 b6 60 f3 51 37 e4 61 53 b7
       -1.4267282e-05 -3.6881413e-06 1.2514036e-05 -1.2599372e-05
0001e0 c9 4d 69 38 5f 48 80 38 8a ac c4 b7 40 93 9a b7
       5.5623972e-05 6.116996e-05 -2.3445366e-05 -1.84268e-05
0001f0 fa 1e 83 38 b3 03 84 b8 9b 76 cd b7 80 cd cd 38
       6.2523366e-05 -6.2949395e-05 -2.4493134e-05 9.813439e-05
000200 ac f7 95 b8 cd fb f7 b7 2c 5b d2 38 18 ca d3 b8
       -7.151006e-05 -2.9561948e-05 0.000100305624 -0.00010098907
000210 56 e2 38 34 bb 75 62 36 89 e1 98 b5 f8 6f 88 b5
       1.7218676e-07 3.3745152e-06 -1.1390522e-06 -1.0165377e-06
000220 64 78 67 36 32 0c 69 b6 ba ea 2e 36 b3 69 58 36
       3.449176e-06 -3.4726804e-06 2.606465e-06 3.2248033e-06
000230 ea 6b 9a b5 60 62 82 b5 7e 33 5d 36 5d b5 5e b6
       -1.1505301e-06 -9.714386e-07 3.2961539e-06 -3.3186145e-06
000240 ce ca 8e 38 0c a0 64 b8 62 41 f6 38 d1 bd 89 37
       6.808863e-05 -5.450849e-05 0.000117423726 1.6420063e-05
000250 df ae 69 b8 82 46 6b 38 e3 20 55 b6 36 6e 77 b6
       -5.571439e-05 5.609403e-05 -3.1758616e-06 -3.687002e-06
000260 86 4e 0f 36 65 12 95 35 be e7 7c b6 e1 a0 7e 36
       2.1354367e-06 1.1106719e-06 -3.7685818e-06 3.7942593e-06
000270 53 54 3d 3a 29 28 86 3a 4f 0f d8 b9 44 a7 a1 b9
       0.0007222343 0.0010235357 -0.00041210136 -0.00030832936
000280 fe 1f 89 3a 3d 0f 8a ba ea 38 98 b5 71 93 6e b6
       0.0010461805 -0.0010533106 -1.1341447e-06 -3.5550586e-06
000290 59 56 fb 36 7d bc 8f 35 8f da 73 b6 bf 83 75 36
       7.490435e-06 1.0709188e-06 -3.633704e-06 3.6584531e-06
0002a0 04 91 17 ba dc 17 30 ba 52 10 d9 38 5b 2f 54 39
       -0.0005781802 -0.00067174225 0.00010350406 0.00020235537
0002b0 4e fd 33 ba 48 37 35 3a 95 bd 3e 3a 60 cb 71 3a
       -0.00068660534 0.00069128396 0.0007276175 0.00092237256
0002c0 4e 5d 94 b9 12 ad 91 b9 e3 24 77 3a 0e d4 78 ba
       -0.00028298277 -0.00027785503 0.0009427799 -0.0009492048
0002d0 7b e7 b3 ba 4a 59 92 ba c8 39 ae 39 25 58 b0 39
       -0.0013725603 -0.0011165526 0.00033230917 0.0003363501
0002e0 38 96 95 ba 21 9b 96 3a 1f fb e8 38 a4 de a4 38
       -0.0011412567 0.0011490324 0.00011109397 7.8615994e-05
0002f0 c1 47 5b b8 3f a9 c6 b7 78 84 a8 38 64 aa a9 b8
       -5.2280495e-05 -2.368225e-05 8.0355385e-05 -8.090286e-05
000300 a8 62 d5 b4 66 2c 18 b4 12 7c 6c b7 12 5d 37 33
       -3.9746124e-07 -1.4172255e-07 -1.40955835e-05 4.2692655e-08
000310 05 89 1b b4 aa 9c 1c 34 21 8c 7e b9 3d d3 17 b9
       -1.4485347e-07 1.4585626e-07 -0.0002427553 -0.00014479175
000320 ef 09 b4 38 5c f1 36 38 11 2f 1b b9 e0 3d 1c 39
       8.584919e-05 4.3616965e-05 -0.00014799486 0.0001490037
000330 28 aa 66 b9 95 65 0a b9 3e ac 26 39 2c c3 26 38
       -0.00021997897 -0.00013198548 0.00015895159 3.9759252e-05
000340 76 75 0d b9 3c 6c 0e 39 9a 07 82 b7 64 1a 86 b7
       -0.00013490565 0.00013582496 -1.5500747e-05 -1.5986334e-05
000350 2b 45 d2 36 b4 96 a1 36 f4 11 89 b7 15 01 8a 37
       6.26654e-06 4.815718e-06 -1.6340033e-05 1.6451386e-05
000360 3c c8 28 ba 78 54 31 ba 4e 94 35 39 e2 ac 55 39
       -0.00064385287 -0.0006764601 0.00017316753 0.00020377667
000370 e8 40 35 ba 16 7d 36 3a 10 fe cf 36 1e 58 7a 36
       -0.0006914274 0.0006961388 6.1986575e-06 3.7304194e-06
000380 8b 81 46 b6 b5 d3 96 b5 0b e2 7f 36 32 d0 80 b6
       -2.9579703e-06 -1.1237486e-06 3.8129535e-06 -3.8389344e-06
000390 e6 de 6e 38 bb 39 5d 39 1b dd 8e b9 a0 48 85 b8
       5.6951212e-05 0.00021097709 -0.00027249087 -6.355462e-05
0003a0 c4 1e 62 39 32 a9 63 b9 c8 e0 8e b7 ac 89 43 b7
       0.000215645 -0.00021711437 -1.7032391e-05 -1.165496e-05
0003b0 5f 32 f3 36 46 9d 6b 36 12 dd 47 b7 db 39 49 37
       7.2478283e-06 3.5109274e-06 -1.1912796e-05 1.1994004e-05
0003c0 5f fa d5 36 96 c4 96 37 f3 ff b9 b7 45 ab b5 b6
       6.3770417e-06 1.7972936e-05 -2.2172904e-05 -5.4141587e-06
0003d0 8b 1a 9a 37 62 27 9b b7 d7 81 15 39 d0 ef 85 39
       1.837059e-05 -1.8495779e-05 0.00014258116 0.0002554641
0003e0 97 12 b2 b9 6a 63 a1 b8 75 e6 88 39 40 d5 89 b9
       -0.00033964656 -7.6955956e-05 0.00026111645 -0.0002628956
0003f0 ae b7 4f ba 81 99 50 ba 55 7d d3 39 98 5a 7b 39
       -0.0007923794 -0.0007957444 0.00040338436 0.00023970974

exp_avg_sq f4 [128, 6]
000000 46 f7 f2 35 b2 e9 0c 36 49 f6 8f 36 43 98 4c 34
       1.8102371e-06 2.0997654e-06 4.2904035e-06 1.9054373e-07
000010 98 37 13 36 01 3b 15 36 f4 89 70 30 a2 9a 65 30
       2.1937067e-06 2.2237075e-06 8.7507535e-10 8.352946e-10
000020 4d c8 10 31 0f af a6 2e 4c e0 6f 30 0e 28 73 30
       2.1068616e-09 7.579903e-11 8.726644e-10 8.8459806e-10
000030 78 24 a5 34 4d 99 8b 35 d0 67 2e 36 df af ca 33
       3.076018e-07 1.0400923e-06 2.5988447e-06 9.438349e-08
000040 29 d8 91 35 b6 d6 93 35 19 17 3f 35 80 51 36 35
       1.0866253e-06 1.1014843e-06 7.1186656e-07 6.791888e-07
000050 4b f5 79 35 34 5b 84 33 a5 79 3e 35 7d 14 41 35
       9.3116677e-07 6.163319e-08 7.095753e-07 7.1927917e-07
000060 0f c9 ab 35 f7 e5 8a 35 19 78 54 35 7b ab c9 33
       1.2799009e-06 1.034873e-06 7.915092e-07 9.390984e-08
000070 d0 1c 91 35 cf 18 93 35 f4 9c d1 30 c8 ff e6 30
       1.0811727e-06 1.0959574e-06 1.525136e-09 1.68074e-09
000080 94 df c2 30 54 b2 27 2f 77 55 f1 30 57 a2 f4 30
       1.4178902e-09 1.5251916e-10 1.7559348e-09 1.7799476e-09
000090 75 94 c7 32 11 f8 7f 32 e1 70 41 33 e3 d2 b9 30
       2.323416e-08 1.4899357e-08 4.5038977e-08 1.3520459e-09
0000a0 e1 b5 85 32 fa 89 87 32 27 87 d8 30 bc de 14 31
       1.5565947e-08 1.5778813e-08 1.5754481e-09 2.1663444e-09
0000b0 22 af 2f 31 e7 25 58 2f c6 87 1b 31 44 a8 1d 31
       2.5565403e-09 1.9658551e-10 2.2632647e-09 2.2942155e-09
0000c0 0e 68 01 31 60 4e e5 31 26 e2 84 32 b3 77 26 30
       1.8831119e-09 6.6736874e-09 1.5469663e-08 6.056055e-10
0000d0 b3 90 ef 31 51 d7 f2 31 d4 a5 20 31 10 1a a1 31
       6.972266e-09 7.0676056e-09 2.3377327e-09 4.6886797e-09
0000e0 86 36 32 32 58 e8 e9 2f 3a 4f a8 31 6e 9c aa 31
       1.0373361e-08 4.2547543e-10 4.8984505e-09 4.965435e-09
0000f0 72 0f 34 36 95 60 6d 36 14 30 03 37 ae 53 ac 34
       2.683108e-06 3.537197e-06 7.8194025e-06 3.2098382e-07
000100 4f ff 77 36 7d 63 7b 36 b0 05 21 34 8d f6 3c 34
       3.6954477e-06 3.7459824e-06 1.4996363e-07 1.7598559e-07
000110 ca 5f 87 34 15 2e 89 32 cf 6a 45 34 e5 1d 48 34
       2.5215405e-07 1.5969855e-08 1.8385911e-07 1.8637327e-07
000120 14 09 4e 31 aa 3a ea 31 19 87 90 32 9d 0a 2a 30
       2.9982106e-09 6.8169657e-09 1.6825242e-08 6.186072e-10
000130 5c b5 f4 31 10 0e f8 31 e6 76 c8 2c aa fb c5 2c
       7.121953e-09 7.2193487e-09 5.6975423e-12 5.627017e-12
000140 4d a4 ec 2c 6d ba 0f 2b 39 d7 ce 2c 53 ab d1 2c
       6.7257645e-12 5.1062523e-13 5.8787667e-12 5.959158e-12
000150 97 02 f0 31 7f ad f6 31 1d 64 a6 32 23 14 33 30
       6.9852137e-09 7.1792665e-09 1.937047e-08 6.5148437e-10
000160 67 db 00 32 7e 9e 02 32 8c 24 7c 26 02 bc a9 26
       7.500467e-09 7.603033e-09 8.7479593e-16 1.177769e-15
000170 a5 8c 1e 26 03 71 f6 24 05 54 b1 26 d5 c0 b3 26
       5.500787e-16 1.0687694e-16 1.2304616e-15 1.2472887e-15
000180 52 0d 0a 35 41 a2 03 35 00 94 47 34 4b 1f 3f 33
       5.142839e-07 4.9037413e-07 1.8587161e-07 4.4499114e-08
000190 e2 85 09 35 55 67 0b 35 34 25 68 33 d7 c5 b0 33
       5.12313e-07 5.1931903e-07 5.4050545e-08 8.2316255e-08
0001a0 14 57 53 34 90 54 00 32 74 ae b8 33 fd 34 bb 33
       1.9682585e-07 7.469808e-09 8.5999005e-08 8.7175046e-08
0001b0 8e 8c 39 30 0b 1e 1b 31 ee db 7c 31 f9 37 61 2f
       6.750235e-10 2.2572546e-09 3.6795842e-09 2.0483516e-10
0001c0 a0 0e 22 31 fe 45 24 31 8e 0a c9 30 fd ea e9 30
       2.3582416e-09 2.3904927e-09 1.4627675e-09 1.7019769e-09
0001d0 ae 2e 6b 30 c7 d0 29 2f 12 62 f4 30 a2 b9 f7 30
       8.555884e-10 1.5444633e-10 1.778121e-09 1.8024375e-09
0001e0 fe 78 03 32 cb 8a 03 32 3c bb 54 32 41 fd 3e 30
       7.652714e-09 7.6567614e-09 1.2382596e-08 6.9481493e-10
0001f0 5f 6d 09 32 78 4e 0b 32 4b 52 da 34 0a 27 16 35
       7.999318e-09 8.108707e-09 4.066554e-07 5.5936164e-07
000200 f8 5a 9c 35 98 02 5a 33 cf de 1c 35 fb 03 1f 35
       1.1649381e-06 5.075944e-08 5.843876e-07 5.923791e-07
000210 48 db 2d 30 43 33 60 30 9d 71 fa 30 ca c2 a2 2e
       6.324865e-10 8.156357e-10 1.8222185e-09 7.4015086e-11
000220 0c 3b 6a 30 12 6f 6d 30 fd 81 9e 2d 82 63 ad 2d
       8.5212615e-10 8.637794e-10 1.8020247e-11 1.9712013e-11
000230 23 8c bd 2c 55 bf fb 2b 60 25 b5 2d 8b 9f b7 2d
       5.3872614e-12 1.7887728e-12 2.0593915e-11 2.0875543e-11
000240 5a ea 19 35 9c cd 82 35 7b 50 34 36 a0 ea bd 33
       5.733797e-07 9.745595e-07 2.6868936e-06 8.8436764e-08
000250 c2 a7 88 35 35 86 8a 35 35 97 a6 2d 7c 19 f7 2d
       1.0181614e-06 1.0320861e-06 1.8939164e-11 2.8091966e-11
000260 6f ac be 2d 8b 62 33 2c ce 13 01 2e ae d7 02 2e
       2.1677075e-11 2.5492132e-12 2.9348794e-11 2.975014e-11
000270 de 4c eb 35 83 77 fe 35 e0 4f ea 35 b4 bb 38 34
       1.7531236e-06 1.8959257e-06 1.7457605e-06 1.7204621e-07
000280 f7 ec 04 36 56 be 06 36 4c 57 0d 32 cc 94 f2 31
       1.9807464e-06 2.0078346e-06 8.227129e-09 7.060043e-09
000290 c8 ab ef 31 d5 1a 30 30 30 6f fd 31 33 73 00 32
       6.9753447e-09 6.406656e-10 7.3759097e-09 7.476774e-09
0002a0 aa 1e 04 36 e1 bb 09 36 2d eb 58 36 a4 fa 47 34
       1.9687382e-06 2.052395e-06 3.2323399e-06 1.8624502e-07
0002b0 60 e5 0f 36 20 dd 11 36 e6 1d 95 36 a6 00 7c 36
       2.1442174e-06 2.1735395e-06 4.4440267e-06 3.7551304e-06
0002c0 58 96 e2 36 bf f1 b6 34 71 a3 83 36 52 70 85 36
       6.752827e-06 3.4076035e-07 3.9231313e-06 3.9767847e-06
0002d0 26 82 09 37 8d 57 11 37 40 f8 28 36 7f 06 53 35
       8.196139e-06 8.663058e-06 2.5178451e-06 7.861308e-07
0002e0 2d d8 17 37 b9 eb 19 37 a2 23 84 34 e1 9a 7c 34
       9.050634e-06 9.174394e-06 2.4612842e-07 2.3525673e-07
0002f0 b2 53 c8 34 bc 61 b7 32 04 f4 83 34 fa c1 85 34
       3.73138e-07 2.1348448e-08 2.4578196e-07 2.4914317e-07
000300 31 7b 89 32 5e 95 37 33 ba 13 25 34 45 46 85 31
       1.600492e-08 4.2743856e-08 1.5373999e-07 3.878798e-09
000310 f6 cb 3f 33 5f 6b 42 33 18 a0 0f 35 cf fa 2a 35
       4.4656154e-08 4.52668e-08 5.350462e-07 6.369491e-07
000320 9d 4c 5e 35 e5 3f 78 33 1b a1 32 35 72 12 35 35
       8.281293e-07 5.780011e-08 6.6544607e-07 6.7454596e-07
000330 bc 1d bf 35 8f 02 e1 35 ce 83 51 36 48 59 23 34
       1.4239263e-06 1.6764551e-06 3.1220147e-06 1.5213038e-07
000340 b0 13 eb 35 9c 4a ee 35 84 bc 38 2f 4b 54 7b 2f
       1.7514594e-06 1.7754096e-06 1.6801677e-10 2.2858264e-10
000350 e5 5c 4f 2f 9d 74 b6 2d 6b 49 83 2f 05 15 85 2f
       1.8859543e-10 2.0742791e-11 2.3880928e-10 2.4207494e-10
000360 86 4a a3 35 8e fe 78 35 db 8c a0 35 a6 c2 b4 33
       1.2166136e-06 9.2757625e-07 1.1961923e-06 8.4173095e-08
000370 27 11 82 35 83 d8 83 35 af 0f 51 30 4b bf 8d 30
       9.690747e-07 9.823274e-07 7.6056045e-10 1.0313469e-09
000380 61 23 31 31 63 ce cd 2e bf 16 94 30 2d 1d 96 30
       2.5777e-09 9.358982e-11 1.0774882e-09 1.0922229e-09
000390 4b 09 38 35 b9 6e e4 35 c3 86 98 36 52 d5 25 34
       6.8558865e-07 1.7019548e-06 4.5456413e-06 1.5444428e-07
0003a0 07 a7 ee 35 85 ea f1 35 5a 5c 4e 31 9f a4 40 31
       1.7780993e-06 1.8024153e-06 3.0029441e-09 2.8033253e-09
0003b0 04 fa f9 30 00 da 8b 2f 09 43 49 31 8e 03 4c 31
       1.8188193e-09 2.543885e-10 2.9287455e-09 2.9687928e-09
0003c0 c8 c4 9d 30 12 f2 83 31 1c 3e 03 32 31 93 bf 2f
       1.1479182e-09 3.840122e-09 7.639326e-09 3.4847283e-10
0003d0 3e d9 89 31 d0 bb 8b 31 5f b1 8b 35 6f 79 f9 35
       4.0119223e-09 4.0667842e-09 1.0407929e-06 1.8587288e-06
0003e0 1e ea 89 36 e3 1b 35 34 5a 51 02 36 93 19 04 36
       4.110173e-06 1.6867084e-07 1.9418862e-06 1.968442e-06
0003f0 2f d2 b8 35 6c 9c c1 35 8f bd 18 35 e2 8d 0c 34
       1.377024e-06 1.4425145e-06 5.6900257e-07 1.3090133e-07

exp_avg f4 [128]
000000 4a 23 c4 b8 40 8d 4b 36 ba 29 0e b8 14 0d 96 b8
       -9.3525814e-05 3.0331576e-06 -3.38943e-05 -7.154993e-05
000010 d0 c8 10 39 1a 6f ba b5 c4 47 f3 b6 7f e9 e1 b6
       0.00013807719 -1.3890415e-06 -7.250319e-06 -6.732705e-06
000020 89 f8 c2 36 9f 6a 51 36 a5 53 2e 39 be 16 52 b7
       5.810584e-06 3.1205489e-06 0.00016625093 -1.25222705e-05
000030 34 8b 0a b6 5c 68 c9 34 38 df fa 35 8c ed 99 31
       -2.064463e-06 3.75151e-07 1.8691417e-06 4.479892e-09
000040 06 b7 5e 38 d5 53 99 b7 82 f7 df b5 48 11 0f b6
       5.309938e-05 -1.8278059e-05 -1.6686829e-06 -2.131872e-06
000050 22 b3 32 b7 d0 57 8f b7 25 bb 1d b5 b7 bb 16 b5
       -1.0651334e-05 -1.708782e-05 -5.875939e-07 -5.6152516e-07
000060 35 3d 1f 37 5d 56 2c 35 ee e1 3a b9 47 2b 26 35
       9.491389e-06 6.420067e-07 -0.00017822508 6.1902796e-07
000070 03 4d f5 38 64 69 28 b9 bd dd 4b 39 76 aa 65 b7
       0.00011696855 -0.0001606099 0.00019442193 -1.3689152e-05
000080 a7 f9 d3 32 9f 7e d3 37 e8 c9 c0 37 c6 ce 3a 36
       2.4677162e-08 2.5212123e-05 2.2982204e-05 2.7836518e-06
000090 04 06 f7 38 d3 5d 2e b5 d0 15 1a b8 89 31 08 36
       0.00011778998 -6.4956583e-07 -3.6736776e-05 2.0294412e-06
0000a0 a0 05 52 b6 7a 93 3a b8 8b 4a 11 39 13 15 5e 35
       -3.1295713e-06 -4.4483204e-05 0.00013856047 8.273211e-07
0000b0 97 19 4e b7 66 70 21 37 28 1d 7f 39 a6 7d 1b 34
       -1.2284515e-05 9.622518e-06 0.00024329557 1.448121e-07
0000c0 3c 75 08 b7 4c ab 32 b7 43 8e 68 37 a5 bf f0 38
       -8.133527e-06 -1.064951e-05 1.38614005e-05 0.000114797884
0000d0 ea fa 4a b5 dd 2a 0c 37 8a 88 92 b7 31 71 3f 38
       -7.561599e-07 8.35463e-06 -1.7468137e-05 4.5643366e-05
0000e0 6a 08 24 38 6e 39 bf 37 9a 3a a8 b8 b0 f1 0a b6
       3.9108483e-05 2.2795717e-05 -8.02178e-05 -2.0704283e-06
0000f0 3e 2a 75 36 16 ea e5 38 13 d6 35 36 1d 1f 1d b6
       3.6532433e-06 0.00010963173 2.709571e-06 -2.3412933e-06
000100 78 fe 9b 38 7e d9 99 34 19 8e 67 b7 10 6d d7 b7
       7.4383745e-05 2.8656717e-07 -1.3801758e-05 -2.5680783e-05
000110 f0 00 db 35 bd 23 bc 34 6b fb b0 b8 bb f8 d3 34
       1.6317044e-06 3.5043732e-07 -8.439164e-05 3.9482788e-07
000120 f1 74 11 37 12 c3 0c b7 8f 68 a7 b5 56 bb e5 35
       8.669901e-06 -8.390069e-06 -1.24729e-06 1.7116352e-06
000130 34 c3 56 b6 fd ca bf b5 50 8c d6 b6 b2 69 48 b4
       -3.2002108e-06 -1.4289686e-06 -6.3940315e-06 -1.8664903e-07
000140 b5 43 8e b6 48 c8 46 39 f5 76 4f b9 81 30 8d 35
       -4.239812e-06 0.00018957362 -0.00019785373 1.0519435e-06
000150 fd 8a 34 b6 fb 71 27 b8 84 99 87 38 43 e7 23 38
       -2.6902992e-06 -3.9922055e-05 6.465896e-05 3.9077608e-05
000160 9e 13 93 b8 b5 fd 35 b2 2e 98 d1 38 62 cb 6f 36
       -7.01316e-05 -1.0593273e-08 9.994242e-05 3.573216e-06
000170 89 76 d8 b8 55 c9 1e b6 a4 3c 16 39 00 1a 14 37
       -0.000103217615 -2.3661025e-06 0.00014327705 8.827541e-06
000180 05 d6 84 b8 28 80 c8 38 46 a5 ab 35 5a 67 c1 36
       -6.334115e-05 9.560614e-05 1.2788594e-06 5.76388e-06
000190 3f 9f 52 b5 c4 18 73 36 4f e8 d2 b7 bb 72 fe b7
       -7.846283e-07 3.6224237e-06 -2.5142128e-05 -3.0332585e-05
0001a0 f9 68 39 39 18 da a2 34 85 21 cf b4 54 f0 d5 b8
       0.0001768208 3.0333536e-07 -3.8581143e-07 -0.00010201396
0001b0 c0 a9 3d b9 cf 21 c1 b7 00 80 36 b7 4c 7f 04 38
       -0.00018087681 -2.3023136e-05 -1.0877848e-05 3.1589807e-05
0001c0 c0 e3 3c b7 a7 87 ed 36 3a c2 d0 36 12 ef 2e 37
       -1.12587e-05 7.0789424e-06 6.221494e-06 1.0426871e-05
0001d0 4e 2f e3 38 16 e8 df b8 92 61 cc b7 b5 d9 8b 36
       0.00010833015 -0.00010676698 -2.436413e-05 4.1678672e-06
0001e0 28 4e cc b6 8d 48 3a b9 4d 51 e9 38 f1 db 6f 38
       -6.0887724e-06 -0.0001776537 0.00011125449 5.7186877e-05
0001f0 cd 9e 0a b6 ed f7 ef b5 a0 2a 71 36 b8 b7 db 37
       -2.0656037e-06 -1.7879044e-06 3.593661e-06 2.6192385e-05
