ML Agent Practice/results/ppo/MoveToGoal/MoveToGoal-1536.pt (torch, 145749 bytes, 11 tensors)

network_body._body_endoder.seq_layers.0.weight f4 [128, 1]
000000 a3 04 dd bf 60 96 01 bf 0b a1 05 3f 0b 69 a6 3e
       -1.726704 -0.5062008 0.5219886 0.32502016
000010 fd 5d 3b 3e 23 24 31 bf 14 8b d0 3e ca b8 95 bf
       0.18297572 -0.69195765 0.40731108 -1.1697018
000020 34 9b 57 bf 28 73 cd 3e e6 fb 4e 3f 66 de 37 bf
       -0.84221196 0.4012692 0.80853117 -0.7182373
000030 4f 34 bd 3e ba 39 b8 bf a7 08 b0 3d c1 ef 2f 3f
       0.3695397 -1.4392617 0.085954 0.6872521
000040 ee 4d 04 bf 65 4d c3 3e 07 29 8d 3f 1a 92 7c 3e
       -0.5168141 0.38144985 1.1028146 0.24665108
000050 80 58 55 bf bc 4f 42 bf ef 50 16 c0 9a d2 f3 3e
       -0.83338165 -0.75902915 -2.3486898 0.47621614
000060 7c f5 9d bf af 7f c3 3f 32 13 96 3d 3c 7e 89 3a
       -1.2340541 1.5273341 0.0732788 0.0010489891
000070 99 e3 2e bf 09 cf a7 be e4 e8 7e 3e 62 b6 75 3f
       -0.68316036 -0.32775143 0.24893528 0.9598142
000080 54 d9 54 3e 74 b7 24 be 12 e9 47 3f 8e 7f 7f 3f
       0.20786029 -0.16085607 0.7809001 0.9980401
000090 3a a2 8d bf d2 48 86 bf 11 a6 c2 be 8e 30 4f be
       -1.1065133 -1.0490973 -0.38017324 -0.20233366
0000a0 50 bd 3a bf 6b 2a 37 bf 6e 50 82 3f fd 94 a8 be
       -0.7294512 -0.715491 1.0180795 -0.3292617
0000b0 0a fc 44 bf 17 24 5e 40 12 24 d7 be fe 50 32 bf
       -0.7694708 3.4709527 -0.42019707 -0.69654834
0000c0 6f df 77 3f 31 3f af bf c0 19 10 c0 cc 64 f7 be
       0.9682531 -1.369116 -2.2515717 -0.4831909
0000d0 c5 bd 8e bf c5 a9 29 3f da e7 21 3d f3 1d 79 3f
       -1.1151663 0.6627467 0.03952775 0.97311324
0000e0 75 dd 00 c0 6e 6b 3a 3f 8a a9 b6 bd 61 5f 91 bf
       -2.0135167 0.72820175 -0.08919056 -1.1357232
0000f0 0b 91 8f 3f a6 cd 1a 3f 1a c0 86 bf 50 62 f5 bf
       1.1216139 0.60470045 -1.0527375 -1.9170628
000100 a5 76 16 bf 68 bd e0 3c d7 d3 74 3f 24 bb fb 3e
       -0.5877479 0.027434066 0.9563574 0.49166214
000110 d1 dc 10 bf 62 f9 7e bf fc 1f 13 bf 28 a3 51 bf
       -0.5658694 -0.9959928 -0.5747068 -0.8188958
000120 ee e2 40 3e 75 16 77 3e 7c 78 33 3f 98 5a 33 bf
       0.18836567 0.2412966 0.7010572 -0.7006011
000130 78 84 49 bf 92 0e 25 3f ac 7c 15 bf 68 06 71 bf
       -0.78717756 0.6447536 -0.5839336 -0.941504
000140 0b a6 f2 bd 48 f9 dc 3f 7e 5d ab bf 70 53 3e bf
       -0.118480764 1.7263575 -1.3387907 -0.74346066
000150 f0 a4 c1 3e 31 cc af be d8 5a 3b 3f ad d0 9f bd
       0.3782115 -0.34335473 0.7318549 -0.078034736
000160 fb 73 63 bf 99 24 cf be 30 87 22 3f 7f a4 b8 3d
       -0.8884885 -0.4045761 0.6348753 0.0901575
000170 4c 64 8d be f8 1b a3 bf 5e e6 70 3e 31 d9 41 3f
       -0.27615583 -1.274291 0.23525378 0.7572203
000180 dc cf 4a be 95 f6 3f c0 f9 90 2a c0 49 27 62 bc
       -0.19805855 -2.9994252 -2.6650984 -0.013803312
000190 09 cd 92 bf bf 7d 00 bf 3c 37 7d bd ed ad f8 3c
       -1.1468822 -0.50191873 -0.061820254 0.030356372
0001a0 dd a0 bb bf 7a 5e 50 be 5f db 5b bf 51 a8 67 bf
       -1.4658467 -0.2034854 -0.8588161 -0.90491205
0001b0 87 a2 b7 be 23 a1 9c 3f 1d fd d8 3f eb 4d 28 3e
       -0.35866186 1.2236675 1.6952244 0.16435973
0001c0 30 7a 14 3e ee ea 35 3d 94 15 f0 be 39 fe a0 be
       0.14499736 0.0444135 -0.46891463 -0.31443956
0001d0 ad 18 b1 3e d4 18 04 be 77 39 f8 bf 06 c8 88 bc
       0.3458914 -0.12900096 -1.9392537 -0.016696941
0001e0 1d 5c 6f be b9 6b ae 3f 02 a9 64 3f 58 9a 9f 3e
       -0.23374982 1.3626624 0.89320385 0.31172442
0001f0 da 1e 10 3e 12 af 66 be 82 3c 21 be 01 23 66 3e
       0.14074269 -0.22527722 -0.15745738 0.2247429

network_body._body_endoder.seq_layers.0.bias f4 [128]
000000 00 00 00 00 00 00 00 00 00 00 00 00 00 00 00 00
       0.0 0.0 0.0 0.0
000010 00 00 00 00 00 00 00 00 00 00 00 00 00 00 00 00
       0.0 0.0 0.0 0.0
000020 00 00 00 00 00 00 00 00 00 00 00 00 00 00 00 00
       0.0 0.0 0.0 0.0
000030 00 00 00 00 00 00 00 00 00 00 00 00 00 00 00 00
       0.0 0.0 0.0 0.0
000040 00 00 00 00 00 00 00 00 00 00 00 00 00 00 00 00
       0.0 0.0 0.0 0.0
000050 00 00 00 00 00 00 00 00 00 00 00 00 00 00 00 00
       0.0 0.0 0.0 0.0
000060 00 00 00 00 00 00 00 00 00 00 00 00 00 00 00 00
       0.0 0.0 0.0 0.0
000070 00 00 00 00 00 00 00 00 00 00 00 00 00 00 00 00
       0.0 0.0 0.0 0.0
000080 00 00 00 00 00 00 00 00 00 00 00 00 00 00 00 00
       0.0 0.0 0.0 0.0
000090 00 00 00 00 00 00 00 00 00 00 00 00 00 00 00 00
       0.0 0.0 0.0 0.0
0000a0 00 00 00 00 00 00 00 00 00 00 00 00 00 00 00 00
       0.0 0.0 0.0 0.0
0000b0 00 00 00 00 00 00 00 00 00 00 00 00 00 00 00 00
       0.0 0.0 0.0 0.0
0000c0 00 00 00 00 00 00 00 00 00 00 00 00 00 00 00 00
       0.0 0.0 0.0 0.0
0000d0 00 00 00 00 00 00 00 00 00 00 00 00 00 00 00 00
       0.0 0.0 0.0 0.0
0000e0 00 00 00 00 00 00 00 00 00 00 00 00 00 00 00 00
       0.0 0.0 0.0 0.0
0000f0 00 00 00 00 00 00 00 00 00 00 00 00 00 00 00 00
       0.0 0.0 0.0 0.0
000100 00 00 00 00 00 00 00 00 00 00 00 00 00 00 00 00
       0.0 0.0 0.0 0.0
000110 00 00 00 00 00 00 00 00 00 00 00 00 00 00 00 00
       0.0 0.0 0.0 0.0
000120 00 00 00 00 00 00 00 00 00 00 00 00 00 00 00 00
       0.0 0.0 0.0 0.0
000130 00 00 00 00 00 00 00 00 00 00 00 00 00 00 00 00
       0.0 0.0 0.0 0.0
000140 00 00 00 00 00 00 00 00 00 00 00 00 00 00 00 00
       0.0 0.0 0.0 0.0
000150 00 00 00 00 00 00 00 00 00 00 00 00 00 00 00 00
       0.0 0.0 0.0 0.0
000160 00 00 00 00 00 00 00 00 00 00 00 00 00 00 00 00
       0.0 0.0 0.0 0.0
000170 00 00 00 00 00 00 00 00 00 00 00 00 00 00 00 00
       0.0 0.0 0.0 0.0
000180 00 00 00 00 00 00 00 00 00 00 00 00 00 00 00 00
       0.0 0.0 0.0 0.0
000190 00 00 00 00 00 00 00 00 00 00 00 00 00 00 00 00
       0.0 0.0 0.0 0.0
0001a0 00 00 00 00 00 00 00 00 00 00 00 00 00 00 00 00
       0.0 0.0 0.0 0.0
0001b0 00 00 00 00 00 00 00 00 00 00 00 00 00 00 00 00
       0.0 0.0 0.0 0.0
0001c0 00 00 00 00 00 00 00 00 00 00 00 00 00 00 00 00
       0.0 0.0 0.0 0.0
0001d0 00 00 00 00 00 00 00 00 00 00 00 00 00 00 00 00
       0.0 0.0 0.0 0.0
0001e0 00 00 00 00 00 00 00 00 00 00 00 00 00 00 00 00
       0.0 0.0 0.0 0.0
0001f0 00 00 00 00 00 00 00 00 00 00 00 00 00 00 00 00
       0.0 0.0 0.0 0.0

network_body._body_endoder.seq_layers.2.weight f4 [128, 128]
000000 58 27 1e bc 75 15 ab bd ac 33 fd bd 76 f6 b0 3b
       -0.009652935 -0.08353702 -0.12363371 0.005400474
000010 9c cd 57 3c 79 21 ea bd b0 a2 f9 bd ff 82 8c bd
       0.01317158 -0.11432166 -0.12189233 -0.06860923
000020 3f c0 b4 bd fa e3 35 bd a0 9b 01 bd ec 98 24 3e
       -0.088257305 -0.04440687 -0.031642556 0.1607396
000030 5a 76 88 3d 51 54 94 3d 81 23 61 3d 60 56 d4 3c
       0.06663199 0.072426446 0.0549655 0.025920093
000040 93 c3 0d 3d 6f 2a 61 3d 84 cb fd bd 6e 98 49 bd
       0.034610342 0.05497211 -0.12392333 -0.049217634
000050 1d e3 f3 3c 59 02 77 3b 5c 53 09 3b f7 ba 99 bd
       0.029771382 0.0037690608 0.0020954227 -0.07506364
000060 66 95 f7 3d 71 91 0f be 2e 6a 2c 3e 4d 1b 8a 3d
       0.12089042 -0.14020325 0.1683738 0.067434885
000070 07 48 a0 bc 35 fa 25 bd 4f e8 42 bc d0 ad e7 bb
       -0.019565595 -0.04052182 -0.011896207 -0.0070702806
000080 93 8a 1f be 1f c1 c2 bc f5 c9 a2 3d f6 23 5c 3d
       -0.15580206 -0.023773728 0.079486765 0.053745233
000090 a6 24 5d bb b2 b8 a7 3d 68 f1 39 bd 37 b1 18 bc
       -0.0033743768 0.08189525 -0.04539624 -0.009319595
0000a0 98 e5 64 3c ae c8 04 be 68 82 0b be cb a1 be 3d
       0.013970755 -0.12967178 -0.13623965 0.09308203
0000b0 9c ec f7 3c c2 0b 8e 3d fe e5 92 bd 93 9e e6 3c
       0.030264191 0.069358364 -0.07172774 0.028151786
0000c0 53 ae 48 3e 78 d6 8b bd dc 8c 2a bd dc b8 bf ba
       0.1959775 -0.06828016 -0.04163824 -0.0014627236
0000d0 8d dc bb 3a d2 25 3f be 73 17 8e 3c dd fd a4 bd
       0.0014332697 -0.18666771 0.017345166 -0.08056233
0000e0 da ad 28 3d 40 8a 83 bd 48 3b 08 3e 2c 3d 00 3e
       0.041181423 -0.064228535 0.13303864 0.12523335
0000f0 33 cb 80 3c c6 b7 03 be 65 be 14 3d dd c8 e3 3c
       0.015721893 -0.12863073 0.036314387 0.02780574
000100 eb 3d 0a 3e 94 93 a0 bd 6e 54 66 bc 09 ee b9 bd
       0.13500182 -0.07840648 -0.014058216 -0.09078605
000110 7e 43 c2 3d 5d ac d2 3d 46 d5 f2 3c 00 eb 41 3d
       0.09485529 0.10286782 0.029642712 0.047343254
000120 50 e2 90 3b df f2 e4 3c b7 80 ba 3c a8 ad 97 bd
       0.00442151 0.027947841 0.022766454 -0.07406169
000130 e1 27 33 3d a1 57 14 be ea 5c cb bd 9b 25 83 bd
       0.043739203 -0.14486553 -0.09929831 -0.06403657
000140 35 08 8a bd ed a3 ea bb 0f 6d 0c 3e 72 04 ef 3d
       -0.067398466 -0.0071606548 0.13713478 0.1167077
000150 86 03 05 3e 12 0d 1b 3e df 36 a7 bd 3c 1f aa bc
       0.12989625 0.15141705 -0.08164763 -0.020766847
000160 7c 7d 35 3d df e2 f2 bc 51 17 06 bd e6 fc fe bc
       0.044309124 -0.029649196 -0.03273708 -0.03112645
000170 4d 92 07 3e 07 7f 33 3b d4 05 01 be 49 77 4b 3d
       0.13239403 0.0027388947 -0.1259988 0.049674306
000180 a4 9d f2 3d 3b 90 89 bd f8 56 48 bd b4 77 02 3e
       0.11846474 -0.06716963 -0.048911065 0.12740976
000190 dd 91 dd 3d df 3e f1 3d 49 1e 97 3d ec cc 22 3e
       0.10818837 0.1177957 0.07378823 0.15898484
0001a0 4f a6 37 bc e8 49 c4 3d 83 26 c3 bd e7 3b 58 bd
       -0.011209085 0.09584409 -0.0952883 -0.052791502
0001b0 85 fb 29 be de 45 0b bd a1 3e 70 bd 3f 0f 16 3d
       -0.16599853 -0.034002177 -0.058653478 0.036635634
0001c0 bf e8 00 3e dc e9 b2 3b 00 e6 fb 3d 71 6c 1f bc
       0.12588786 0.005460007 0.122997284 -0.009730444
0001d0 cf 80 af 3d e9 a4 79 bd f0 15 72 bd 50 85 71 3d
       0.0856949 -0.060948286 -0.059102952 0.058965027
0001e0 66 a2 17 3d be 5d 83 3a 81 4c 5f bd af 8c 63 3d
       0.03702011 0.0010022444 -0.05451632 0.05555409
0001f0 7c c7 a0 bc 89 51 18 be 33 17 aa 3b cb 2e e4 3a
       -0.019626372 -0.14874853 0.005190754 0.0017408965
000200 ee 62 ea 3d d2 03 d0 bc 13 90 2f be 6e 3b 88 bd
       0.114446506 -0.025392447 -0.17144804 -0.0665196
000210 e9 01 7e 3d 9f 72 ea 3d ed 1e a2 bd 7f 7a 89 bd
       0.06201354 0.114476435 -0.07916055 -0.067128174
000220 6f fc 9a bd f5 1c e1 3d 12 d8 c9 bc 2e b0 87 3d
       -0.07567679 0.10991851 -0.024639163 0.066254005
000230 d5 69 de bd f9 03 de bc 20 c5 bf 3a c9 7d 19 3d
       -0.108600296 -0.027101504 0.0014630891 0.037473474
000240 53 37 57 bb 9f 2b d0 bd 05 10 06 3e 06 2d b2 3b
       -0.0032839372 -0.1016457 0.13092048 0.005437496
000250 25 b0 40 bd 25 71 8c bd ff 81 c2 3d 0e ae 85 3c
       -0.047042985 -0.06857518 0.09497451 0.016318347
000260 20 d5 f0 bd f3 e8 d5 3d 2e 70 18 be 5b c4 a8 bc
       -0.117594 0.10444822 -0.14886543 -0.020601442
000270 21 66 e5 bd 93 6b ef bd 26 2f 73 3d d5 ad c6 bd
       -0.1120112 -0.1169044 0.059371136 -0.097011246
000280 a8 1b 84 3c 00 a3 01 3e 58 24 b5 3c a6 b7 de bc
       0.016126469 0.12659836 0.022112057 -0.02718718
000290 a3 ba 88 bd 04 e4 b9 3b 2b c8 d1 3d fc 2b 2c 3c
       -0.06676223 0.0056729335 0.10243257 0.010508534
0002a0 93 2e 7f 3c df 0a c7 3d c3 4d 9b bd 68 61 85 3d
       0.015575069 0.0971887 -0.07583191 0.065127194
0002b0 1d 25 2a bd 08 3f 57 3d 2a 53 6c 3c b6 be 86 3c
       -0.0415393 0.052550346 0.014424125 0.01644836
0002c0 11 4c 9e 3d 4e c6 b4 3d c3 59 47 bd ab 0e f1 3d
       0.07729352 0.08826886 -0.048669588 0.11770376
0002d0 cc bc 2a 3d c3 7f 2f be 43 0d c0 bd 1c 7a 06 ba
       0.041683957 -0.17138581 -0.093775295 -0.000512989
0002e0 99 e0 ea ba b4 5f 4d bc c8 32 29 bc 2d ae d2 3d
       -0.0017919719 -0.012535024 -0.010327049 0.10287128
0002f0 24 d8 da 3c 17 12 f0 bc 78 a2 ae 3d 1d 75 83 bd
       0.026714392 -0.0293055 0.08527082 -0.06418822
000300 ae 95 2f 3d c0 6e 2b bc e5 04 26 bd d8 06 e0 3c
       0.042867355 -0.010463417 -0.04053201 0.027347013
000310 60 97 1e 3d fb e6 4a 3d 61 5d 85 bd 60 63 d8 3b
       0.03871858 0.049536686 -0.06511951 0.0066036433
000320 20 66 ca 3d 4d 81 14 3e 56 1b 60 3c 78 06 a7 3d
       0.0988276 0.1450245 0.013678392 0.08155531
000330 ce 80 de bd 09 57 a8 bd e4 d8 ba 3b fc 22 f2 3d
       -0.10864411 -0.08219726 0.005702125 0.11823079
000340 41 e7 cf bd 25 62 bf 3c 8c dd be bd 29 16 10 bc
       -0.1015153 0.023362229 -0.093196005 -0.008794346
000350 f2 01 97 bc b6 e7 a0 bd cc 7f 96 ba 0a dc 07 be
       -0.018433545 -0.07856695 -0.0011482178 -0.13267532
000360 d6 05 2f be fd 9b 4d 3d b1 49 99 bd 16 8a 13 ba
       -0.1709207 0.05019759 -0.07484759 -0.00056281814
000370 c6 0e 39 be 7e bf 71 bd 4a c6 40 3d d0 d9 14 bd
       -0.18072042 -0.05902051 0.047064103 -0.036340535
000380 80 56 83 bd 4c 49 03 bd 1d 97 3f be be ed 3c 3e
       -0.06412983 -0.032052323 -0.18709989 0.18450066
000390 5e 4c 59 3d 7b c7 a4 bd e3 70 82 bc 57 94 ff bd
       0.053051345 -0.080458604 -0.01592297 -0.124794655
0003a0 d4 bf a7 3c dc 48 03 be 20 32 59 3d 7d b0 dd bc
       0.020477213 -0.12820762 0.05302632 -0.027061695
0003b0 a6 15 b1 bc 8b 15 88 bd ea aa 90 3d a1 2b 16 be
       -0.021616768 -0.06644734 0.07063849 -0.1466508
0003c0 ea 46 ba 3d 33 33 a0 3d 44 54 8a 3d 3f 74 cc 3c
       0.09095557 0.078222655 0.06754354 0.024957774
0003d0 2e 54 bc b9 e1 06 1d be a9 35 8a be db d1 10 bd
       -0.00035920873 -0.15334655 -0.26994064 -0.035356384
0003e0 b2 ea d8 ba 12 40 93 3d 18 fb 58 bc a0 56 c8 3d
       -0.0016549437 0.07189955 -0.013243459 0.097821474
0003f0 da aa 7f 3d a5 fa c5 bd 1c 16 23 be 9a ee a8 3d
       0.062418796 -0.09666947 -0.15926403 0.08248635

network_body._body_endoder.seq_layers.2.bias f4 [128]
000000 00 00 00 00 00 00 00 00 00 00 00 00 00 00 00 00
       0.0 0.0 0.0 0.0
000010 00 00 00 00 00 00 00 00 00 00 00 00 00 00 00 00
       0.0 0.0 0.0 0.0
000020 00 00 00 00 00 00 00 00 00 00 00 00 00 00 00 00
       0.0 0.0 0.0 0.0
000030 00 00 00 00 00 00 00 00 00 00 00 00 00 00 00 00
       0.0 0.0 0.0 0.0
000040 00 00 00 00 00 00 00 00 00 00 00 00 00 00 00 00
       0.0 0.0 0.0 0.0
000050 00 00 00 00 00 00 00 00 00 00 00 00 00 00 00 00
       0.0 0.0 0.0 0.0
000060 00 00 00 00 00 00 00 00 00 00 00 00 00 00 00 00
       0.0 0.0 0.0 0.0
000070 00 00 00 00 00 00 00 00 00 00 00 00 00 00 00 00
       0.0 0.0 0.0 0.0
000080 00 00 00 00 00 00 00 00 00 00 00 00 00 00 00 00
       0.0 0.0 0.0 0.0
000090 00 00 00 00 00 00 00 00 00 00 00 00 00 00 00 00
       0.0 0.0 0.0 0.0
0000a0 00 00 00 00 00 00 00 00 00 00 00 00 00 00 00 00
       0.0 0.0 0.0 0.0
0000b0 00 00 00 00 00 00 00 00 00 00 00 00 00 00 00 00
       0.0 0.0 0.0 0.0
0000c0 00 00 00 00 00 00 00 00 00 00 00 00 00 00 00 00
       0.0 0.0 0.0 0.0
0000d0 00 00 00 00 00 00 00 00 00 00 00 00 00 00 00 00
       0.0 0.0 0.0 0.0
0000e0 00 00 00 00 00 00 00 00 00 00 00 00 00 00 00 00
       0.0 0.0 0.0 0.0
0000f0 00 00 00 00 00 00 00 00 00 00 00 00 00 00 00 00
       0.0 0.0 0.0 0.0
000100 00 00 00 00 00 00 00 00 00 00 00 00 00 00 00 00
       0.0 0.0 0.0 0.0
000110 00 00 00 00 00 00 00 00 00 00 00 00 00 00 00 00
       0.0 0.0 0.0 0.0
000120 00 00 00 00 00 00 00 00 00 00 00 00 00 00 00 00
       0.0 0.0 0.0 0.0
000130 00 00 00 00 00 00 00 00 00 00 00 00 00 00 00 00
       0.0 0.0 0.0 0.0
000140 00 00 00 00 00 00 00 00 00 00 00 00 00 00 00 00
       0.0 0.0 0.0 0.0
000150 00 00 00 00 00 00 00 00 00 00 00 00 00 00 00 00
       0.0 0.0 0.0 0.0
000160 00 00 00 00 00 00 00 00 00 00 00 00 00 00 00 00
       0.0 0.0 0.0 0.0
000170 00 00 00 00 00 00 00 00 00 00 00 00 00 00 00 00
       0.0 0.0 0.0 0.0
000180 00 00 00 00 00 00 00 00 00 00 00 00 00 00 00 00
       0.0 0.0 0.0 0.0
000190 00 00 00 00 00 00 00 00 00 00 00 00 00 00 00 00
       0.0 0.0 0.0 0.0
0001a0 00 00 00 00 00 00 00 00 00 00 00 00 00 00 00 00
       0.0 0.0 0.0 0.0
0001b0 00 00 00 00 00 00 00 00 00 00 00 00 00 00 00 00
       0.0 0.0 0.0 0.0
0001c0 00 00 00 00 00 00 00 00 00 00 00 00 00 00 00 00
       0.0 0.0 0.0 0.0
0001d0 00 00 00 00 00 00 00 00 00 00 00 00 00 00 00 00
       0.0 0.0 0.0 0.0
0001e0 00 00 00 00 00 00 00 00 00 00 00 00 00 00 00 00
       0.0 0.0 0.0 0.0
0001f0 00 00 00 00 00 00 00 00 00 00 00 00 00 00 00 00
       0.0 0.0 0.0 0.0

action_model._discrete_distribution.branches.0.weight f4 [5, 128]
000000 83 03 d6 3a 0f 94 45 3b a5 14 23 3b 26 77 bc bb
       0.0016327951 0.0030148064 0.0024884131 -0.0057515083
000010 47 03 62 3b 5b 7c 5b bb 6b 12 45 bc d3 8c 31 3c
       0.0034486817 -0.003349087 -0.012028317 0.010836798
000020 c0 ec 26 bc a9 38 8f bc b0 fe 3e bc 87 bb fa 3b
       -0.010188282 -0.017483072 -0.011657402 0.0076517495
000030 d0 15 7e 3a 28 48 7a 3c 92 00 e2 ba 56 c0 93 bb
       0.00096925814 0.015275992 -0.0017242602 -0.004509012
000040 96 cc ca 3a aa d0 5f 3c 38 11 56 3b 58 2f 5e ba
       0.0015472348 0.013660589 0.0032664072 -0.00084756827
000050 2d 13 f0 3b 7b 35 16 3c fc d1 3d 3c d3 3d cb 39
       0.0073265047 0.009168024 0.011585709 0.0003876524
000060 d4 6a 00 bc d9 86 cc 3b 1c d4 4b ba f3 9f 0a bc
       -0.00783797 0.006241661 -0.0007775442 -0.008460986
000070 20 cb 4d bc 7b d6 4c bc 6a c7 72 bb 60 15 73 bc
       -0.012560636 -0.012502308 -0.003704513 -0.014836639
000080 71 c5 c5 bb b3 ae 68 b9 d0 09 e0 3b 71 8e 97 3c
       -0.0060354997 -0.00022190325 0.0068371072 0.018500539
000090 c7 6a 3c ba 92 39 bc bc 79 58 04 3c 13 73 7b 3c
       -0.0007187542 -0.02297667 0.008077734 0.01534726
0000a0 8b ba 9b 38 13 a2 6a bc 2f 13 e1 3b 40 4d e8 bb
       7.425722e-05 -0.014320868 0.006868742 -0.007089287
0000b0 d3 62 20 bc 3e 05 a1 3a 42 31 a9 bc c8 91 63 bc
       -0.0097891865 0.0012284887 -0.02065337 -0.013889737
0000c0 13 58 13 bb f7 57 56 3b 96 34 82 bb a5 87 45 bc
       -0.0022482916 0.003270624 -0.003973554 -0.012056266
0000d0 8b bb 04 3c 9c 9c bc 3a 81 4d ba bc 08 41 53 bb
       0.008101354 0.0014389935 -0.022742035 -0.0032234807
0000e0 9b ff 2a bc 6f cd e4 bb 35 3b f5 3b 63 b2 91 ba
       -0.010436918 -0.0069824974 0.0074838647 -0.0011115785
0000f0 e7 6f cf bb dc a7 84 3b 20 36 a4 bb 2b 48 f0 3b
       -0.0063304785 0.0040483307 -0.005011335 0.007332822
000100 4c d1 27 bc d7 82 61 bb ba 18 c2 3a 74 b9 23 3c
       -0.010242771 -0.0034410262 0.0014808394 0.009992946
000110 e3 5b 48 3b 7f 1d 96 ba 1b 83 3f 3b 15 d4 50 3b
       0.0030572347 -0.0011452882 0.0029222432 0.0031864692
000120 7a ed 41 bc 58 c9 c4 3b 32 db 0a bc e3 af 96 bb
       -0.011836404 0.0060054474 -0.008475112 -0.004598604
000130 2b 28 42 bc 33 15 c1 3b 5d 04 8c 3b db d3 9c 3c
       -0.011850397 0.0058924197 0.004272981 0.01914399
000140 5b 9c 0a bc b1 28 85 bb 79 4a aa bc 37 ef c0 3b
       -0.00846013 -0.0040636887 -0.020787464 0.0058878916
000150 77 c4 1e bc 98 21 18 3c 57 f0 8c bb e2 56 54 3c
       -0.009690396 0.009285353 -0.0043011117 0.012960168
000160 1c 65 99 bb d1 b4 3c 3b df 6e af bb a9 8f 3d bc
       -0.0046812426 0.0028794298 -0.005353793 -0.011569896
000170 c3 5a 8e 3b 63 f7 b5 3b a6 f6 3c 3c f0 6a c2 3b
       0.0043443157 0.0055531724 0.011533415 0.005933158
000180 95 09 96 3b 83 c6 84 3b c5 64 e3 3a 0d 2c 47 3c
       0.004578779 0.0040519848 0.0017348757 0.012156499
000190 7e 01 1d bc 68 66 53 3c c3 71 93 bb c7 19 44 bb
       -0.009582875 0.0129028335 -0.0044996454 -0.002992259
0001a0 a7 99 82 3b da 1d f2 bb 2a 1c 4e bc 05 85 83 bb
       0.003985602 -0.0073888125 -0.012579957 -0.00401366
0001b0 f6 1d cb ba f0 31 d9 3b 66 92 87 bc e3 40 14 bc
       -0.00154966 0.0066282675 -0.0165493 -0.009048673
0001c0 48 b6 8c ba 67 c3 1e 3c 91 97 49 bc a9 b5 0f bb
       -0.0010735476 0.009690142 -0.012304203 -0.0021928346
0001d0 0e 92 40 3b 52 05 04 bb fb 6c 67 3b ff ba 41 3c
       0.002938393 -0.0020144773 0.003531276 0.0118243685
0001e0 9b 1f 11 3b ed 6f 82 bb 98 f9 0f bc e6 45 af 3b
       0.0022144082 -0.0039806277 -0.008787535 0.0053489087
0001f0 1e 83 90 3b 03 c8 0a bc 27 b0 3f 3b 5f 65 58 ba
       0.0044101616 -0.008470538 0.0029249282 -0.00082548516
000200 b0 12 56 3b 9b 67 41 39 ae c8 3c bc 87 03 0f 3c
       0.0032664947 0.0001844451 -0.011522455 0.008728868
000210 3d f3 94 3b c7 16 b9 bb bb 22 56 3c b3 d8 ac 3c
       0.004545598 -0.005648467 0.013069804 0.021099424
000220 48 b7 86 bb 25 3c 9b bb 5d 03 74 3c af 5c 38 3b
       -0.0041112043 -0.0047373944 0.01489338 0.0028131416
000230 b9 2a 9c bb 10 22 96 3b ae 0b 43 bb 63 22 13 3b
       -0.004765835 0.0045816973 -0.00297616 0.0022450916
000240 77 a8 7f bc 48 12 73 bc 51 16 80 bc 13 44 36 bb
       -0.01560413 -0.014835902 -0.015635641 -0.0027811571
000250 93 27 82 3b 23 81 c6 3a 28 b2 54 39 65 b2 dc 3b
       0.003972003 0.0015144687 0.00020284264 0.0067351335
000260 30 cd 59 ba 99 9e 12 bc 3d 00 ef 3b 57 f6 38 bc
       -0.00083084684 -0.008948945 0.0072937296 -0.011289201
000270 47 64 53 bc 0a 41 c9 ba 7f 01 c0 bb b0 e6 83 3a
       -0.012902326 -0.0015354466 -0.0058595533 0.0010063257
000280 22 1b d1 3b 42 7d 28 3c 1a 11 1e bb c2 0c 29 bc
       0.0063814083 0.01028377 -0.002411908 -0.010317983
000290 73 a0 5d 3c 9f 1c f4 3a 07 88 0c 3c 10 c8 3a 3c
       0.013527024 0.0018624252 0.008577353 0.011400238
0002a0 d7 67 12 3b b7 9c a1 ba 9d f0 d6 3b bf 63 57 ba
       0.0022339725 -0.001233003 0.006559445 -0.00082164624
0002b0 83 de a5 bc bb 19 1c 3c b7 b0 8e 3b 14 3a 1c 3c
       -0.020247703 0.009527619 0.004354562 0.009535331
0002c0 7b c3 da ba 83 6a 82 ba 52 e5 e7 3b 88 00 34 bc
       -0.0016690338 -0.0009949956 0.0070768977 -0.010986455
0002d0 c5 24 5c 3c 87 d4 24 3c 8e 8f 3d 39 f7 b5 15 3c
       0.013436501 0.010060436 0.00018077923 0.009137622
0002e0 17 29 9e 3c 4d 79 4a bc 2f 05 7c bc a9 b7 4c 3c
       0.019306703 -0.012358022 -0.015382095 0.01249496
0002f0 f1 b3 25 bc 93 b4 85 3b 39 3a b8 bb 2e 3f 4a bc
       -0.010113702 0.004080364 -0.005622175 -0.012344165
000300 8f f7 84 3c c7 d7 f0 bb f7 eb 8d ba d0 fe 32 bb
       0.016231326 -0.0073499414 -0.0010827769 -0.0027312525
000310 4c d2 35 bc 02 d6 87 3b 57 86 ba 3b 82 3d 44 bc
       -0.011097502 0.0041453848 0.005692284 -0.011977555
000320 08 b6 7d bc e5 3c 3f 3c b6 67 aa bb 78 c7 03 3c
       -0.015485294 0.011672233 -0.0052003516 0.0080431625
000330 c6 1d 9c 3a 40 5d 18 3c 64 97 96 3b 5c 13 a8 3b
       0.0011910729 0.009299576 0.004595684 0.005129261
000340 45 5a 93 3b 17 6a a0 bb b2 b0 da bb 95 d8 b1 bb
       0.004496845 -0.0048954594 -0.0066738958 -0.00542743
000350 45 98 c8 3a 0f d4 04 bc 60 30 aa 3b cd 5c d8 bb
       0.0015304169 -0.008107199 0.005193755 -0.0066028596
000360 8a d3 48 ba 35 ba f7 bb 35 d9 a9 bc c3 af af 3c
       -0.00076609163 -0.0075600394 -0.020733455 0.021446114
000370 d5 f7 d6 3a 8c 19 80 3b db a8 1d 3b ea b6 63 3c
       0.0016400764 0.0039092954 0.0024056945 0.013898591
000380 5f 30 0f bc 2b 4f 5a bb 0f 0f 5f 3c bf 3e 2f 3c
       -0.00873956 -0.0033311348 0.01361443 0.010696112
000390 f9 dd 23 3c ef f8 ab ba 60 f7 59 3c 97 65 ad 3b
       0.010001653 -0.0013120453 0.013303608 0.0052916515
0003a0 76 45 41 3c f6 1e 9a 3a 0d cf 24 3b ee 2f 41 3c
       0.011796346 0.0011758495 0.0025147826 0.0117912125
0003b0 bc ab 90 bb 38 71 1d 3a 1f d7 ec 3a 83 0f 9d bc
       -0.0044150036 0.00060059456 0.0018069482 -0.019172436
0003c0 fa 38 85 3c d3 74 26 bb 00 8c 74 bc 31 7e 88 bc
       0.01626252 -0.0025399223 -0.014925957 -0.016661735
0003d0 63 b3 5a ba bf 8b df 3b 6b 9b b5 3b 17 c3 ba bb
       -0.0008342771 0.006822079 0.005542209 -0.005699526
0003e0 00 d4 8e 3c df d6 34 bb da f9 bc 3c 0a ca 70 bc
       0.017435074 -0.0027593893 0.023068357 -0.014696607
0003f0 6b 46 ba bb 0a 03 55 bc 1c 55 10 bc 00 ec a7 3b
       -0.005684664 -0.013001213 -0.008809354 0.005124569

action_model._discrete_distribution.branches.0.bias f4 [5]
000000 00 00 00 00 00 00 00 00 00 00 00 00 00 00 00 00
       0.0 0.0 0.0 0.0
000010 00 00 00 00
       0.0

network_body._body_endoder.seq_layers.0.weight f4 [128, 1]
000000 54 77 fd 3d 65 4f 0e bf e0 a2 ba bf b4 92 1f 3d
       0.12376276 -0.55589896 -1.4580956 0.038958266
000010 29 dd d8 3f 67 14 c2 bf 35 13 49 bf 70 d1 46 3f
       1.6942493 -1.5162476 -0.7854493 0.77663326
000020 31 9c 36 40 be 02 13 bf e3 c2 0a bf 71 39 8d bd
       2.8532832 -0.5742606 -0.54203624 -0.06895722
000030 86 9f aa bf 24 eb 48 3f 43 97 13 bf 50 98 2d c0
       -1.3329933 0.78483796 -0.5765268 -2.7124214
000040 2f 94 6f 3f 00 00 78 3f 3e 9e 08 40 f6 a6 01 bf
       0.93585485 0.96875 2.1346583 -0.5064539
000050 98 ab 38 bf 30 25 1b bf 1d 75 a0 3f 4b 9f 2b 3f
       -0.7213683 -0.6060362 1.253574 0.67039937
000060 a9 ff 4e 3f ef 6d 88 3f 7b 0b 4b 3e 6b 7d c3 3c
       0.80858856 1.0658549 0.19828598 0.023863515
000070 90 b0 0a 3f af 22 f4 bf af 05 9a bd 8e 25 99 bf
       0.54175663 -1.9073085 -0.07520615 -1.1964586
000080 41 f0 8c be 52 9d 10 40 cd 3a 63 bf 7f de bc be
       -0.2752705 2.259602 -0.887616 -0.368885
000090 b3 c5 40 3f 92 bc e5 3e ac ee c8 3d 62 be 6d be
       0.75301665 0.4487043 0.09811148 -0.23217157
0000a0 f6 7f b8 be 89 f8 38 bf 61 bb d0 3e 47 84 16 3f
       -0.36035126 -0.72254235 0.4076796 0.5879559
0000b0 89 8c 24 3f 5a d9 38 3f c2 a9 6e 3f 8e ab 51 3b
       0.6427694 0.7220665 0.9322778 0.0031993124
0000c0 53 85 4f bf d4 4e ef be 0e 38 3b bf 65 1c 0c 3f
       -0.8106281 -0.4673983 -0.7313241 0.54730827
0000d0 12 a2 51 3d 64 bb 1c be de 8f 5d 3c 6c 59 57 3f
       0.051179953 -0.15305859 0.01352307 0.8412082
0000e0 56 39 ae bf 97 54 94 3f 39 c8 bb 3f a2 a7 d5 3e
       -1.3611248 1.1588315 1.4670478 0.41729456
0000f0 34 44 d6 be 56 26 22 be 3f c9 46 3e c5 86 ce be
       -0.4184891 -0.15834936 0.19412707 -0.40337196
000100 4d c7 38 3f 2f fa 9c bf e6 6f b5 bf d7 38 aa bf
       0.7217911 -1.226385 -1.4174774 -1.3298596
000110 7c 10 32 bf ec 1f 9e bf d7 2c e2 be e2 1d 10 3f
       -0.69556403 -1.2353492 -0.44174835 0.562956
000120 92 03 54 3e 41 26 e7 bf 6f 6c ec be db 13 15 be
       0.20704487 -1.8058549 -0.46176478 -0.14558356
000130 10 49 68 bf b6 48 a8 be ea 0d c0 3f ec 0c 0d 3f
       -0.90736485 -0.32867974 1.5004246 0.5509784
000140 6b 13 90 3e 30 7a 02 3f 6f 63 74 bf e6 ae 22 bf
       0.28139815 0.50967693 -0.95464224 -0.63548124
000150 03 d8 c3 bf 46 77 ea 3f 92 26 a9 bf df 54 bf bf
       -1.5300297 1.8317649 -1.3214896 -1.4947776
000160 d9 fd db 3f aa 3a 77 be 83 13 bb be b1 27 07 c0
       1.7186843 -0.24143472 -0.36538324 -2.1117976
000170 2a 40 04 3f 1d 49 f7 3f 96 09 4c bd cf e1 b5 3d
       0.51660407 1.9319187 -0.04981383 0.0888096
000180 8c dd 84 3f 09 e9 70 3f 73 4d 22 3f 42 29 b7 3f
       1.0380111 0.94105583 0.6339943 1.4309466
000190 13 81 bd 3e 01 29 1d bf 11 7a b1 3f 99 9d 89 3f
       0.37012538 -0.6139069 1.3865377 1.075122
0001a0 a5 95 8c 3e 60 f0 ff 3e 11 41 2b 3f 47 ab 1c 3f
       0.2745792 0.4998808 0.6689616 0.6119885
0001b0 01 58 3e 3f 22 44 12 40 8d 7a 1e 3f 20 e5 a0 bf
       0.74353033 2.2854085 0.6190575 -1.2569923
0001c0 50 b5 76 3f 3a 61 e1 3f 3e 14 b9 be 0a 6f 86 bf
       0.9637041 1.7607796 -0.36148256 -1.0502636
0001d0 e2 06 0e 40 b0 e9 22 3f 36 9d 82 3c 19 be 88 3d
       2.21917 0.6363783 0.015944105 0.06676883
0001e0 11 4a b5 3e 14 c7 a0 3f 89 d6 c0 3f d9 7e 29 40
       0.3540807 1.2560754 1.5065471 2.6483672
0001f0 91 33 5b 3f 64 47 df 3f 95 c7 b4 bf b2 c9 5f 3f
       0.8562556 1.7443662 -1.4123408 0.8741714

network_body._body_endoder.seq_layers.0.bias f4 [128]
000000 00 00 00 00 00 00 00 00 00 00 00 00 00 00 00 00
       0.0 0.0 0.0 0.0
000010 00 00 00 00 00 00 00 00 00 00 00 00 00 00 00 00
       0.0 0.0 0.0 0.0
000020 00 00 00 00 00 00 00 00 00 00 00 00 00 00 00 00
       0.0 0.0 0.0 0.0
000030 00 00 00 00 00 00 00 00 00 00 00 00 00 00 00 00
       0.0 0.0 0.0 0.0
000040 00 00 00 00 00 00 00 00 00 00 00 00 00 00 00 00
       0.0 0.0 0.0 0.0
000050 00 00 00 00 00 00 00 00 00 00 00 00 00 00 00 00
       0.0 0.0 0.0 0.0
000060 00 00 00 00 00 00 00 00 00 00 00 00 00 00 00 00
       0.0 0.0 0.0 0.0
000070 00 00 00 00 00 00 00 00 00 00 00 00 00 00 00 00
       0.0 0.0 0.0 0.0
000080 00 00 00 00 00 00 00 00 00 00 00 00 00 00 00 00
       0.0 0.0 0.0 0.0
000090 00 00 00 00 00 00 00 00 00 00 00 00 00 00 00 00
       0.0 0.0 0.0 0.0
0000a0 00 00 00 00 00 00 00 00 00 00 00 00 00 00 00 00
       0.0 0.0 0.0 0.0
0000b0 00 00 00 00 00 00 00 00 00 00 00 00 00 00 00 00
       0.0 0.0 0.0 0.0
0000c0 00 00 00 00 00 00 00 00 00 00 00 00 00 00 00 00
       0.0 0.0 0.0 0.0
0000d0 00 00 00 00 00 00 00 00 00 00 00 00 00 00 00 00
       0.0 0.0 0.0 0.0
0000e0 00 00 00 00 00 00 00 00 00 00 00 00 00 00 00 00
       0.0 0.0 0.0 0.0
0000f0 00 00 00 00 00 00 00 00 00 00 00 00 00 00 00 00
       0.0 0.0 0.0 0.0
000100 00 00 00 00 00 00 00 00 00 00 00 00 00 00 00 00
       0.0 0.0 0.0 0.0
000110 00 00 00 00 00 00 00 00 00 00 00 00 00 00 00 00
       0.0 0.0 0.0 0.0
000120 00 00 00 00 00 00 00 00 00 00 00 00 00 00 00 00
       0.0 0.0 0.0 0.0
000130 00 00 00 00 00 00 00 00 00 00 00 00 00 00 00 00
       0.0 0.0 0.0 0.0
000140 00 00 00 00 00 00 00 00 00 00 00 00 00 00 00 00
       0.0 0.0 0.0 0.0
000150 00 00 00 00 00 00 00 00 00 00 00 00 00 00 00 00
       0.0 0.0 0.0 0.0
000160 00 00 00 00 00 00 00 00 00 00 00 00 00 00 00 00
       0.0 0.0 0.0 0.0
000170 00 00 00 00 00 00 00 00 00 00 00 00 00 00 00 00
       0.0 0.0 0.0 0.0
000180 00 00 00 00 00 00 00 00 00 00 00 00 00 00 00 00
       0.0 0.0 0.0 0.0
000190 00 00 00 00 00 00 00 00 00 00 00 00 00 00 00 00
       0.0 0.0 0.0 0.0
0001a0 00 00 00 00 00 00 00 00 00 00 00 00 00 00 00 00
       0.0 0.0 0.0 0.0
0001b0 00 00 00 00 00 00 00 00 00 00 00 00 00 00 00 00
       0.0 0.0 0.0 0.0
0001c0 00 00 00 00 00 00 00 00 00 00 00 00 00 00 00 00
       0.0 0.0 0.0 0.0
0001d0 00 00 00 00 00 00 00 00 00 00 00 00 00 00 00 00
       0.0 0.0 0.0 0.0
0001e0 00 00 00 00 00 00 00 00 00 00 00 00 00 00 00 00
       0.0 0.0 0.0 0.0
0001f0 00 00 00 00 00 00 00 00 00 00 00 00 00 00 00 00
       0.0 0.0 0.0 0.0

network_body._body_endoder.seq_layers.2.weight f4 [128, 128]
000000 b8 89 ca 3d 6f 99 6a bc 84 4e 82 3d 41 aa 55 3e
       0.09889549 -0.014318808 0.06362632 0.20865728
000010 d2 56 50 3d 2c 98 b6 bd 06 bb 5e bd 05 c6 0a 3e
       0.05086405 -0.08915743 -0.05437758 0.13552101
000020 13 d7 72 bd 04 03 25 3d ee ae 0a be b3 ec 18 bd
       -0.059287142 0.04028608 -0.13543293 -0.03733511
000030 b3 1e 12 3e a6 61 6b 3c f8 50 49 be 72 6c d8 3d
       0.14269523 0.014366543 -0.19659793 0.10567559
000040 3b b9 2d 3e 20 f8 08 3d 9b a1 8b 3d 36 b7 5b bd
       0.16965191 0.033439755 0.06817933 -0.05364152
000050 28 4c 13 bc aa 67 67 bc df 0d a7 bc 5c 89 9a 3c
       -0.008990325 -0.0141238365 -0.020392356 0.018864326
000060 03 e2 c3 bd c6 2e cb 3d fc 12 6e bd 16 25 f7 bd
       -0.09564593 0.09921031 -0.058123574 -0.120676205
000070 99 87 05 be 01 f1 0e 3d fc 45 ee 3d a8 99 a3 bd
       -0.13040008 0.034897808 0.11634442 -0.07988292
000080 c9 c8 2d 3c 92 c1 4e 3c ed 12 87 bd c6 b0 ce bd
       0.010606953 0.012619393 -0.06595407 -0.100923106
000090 38 51 67 3b 2b 7e a5 bb 19 33 8b 3d 86 7a 3e 3c
       0.0035296213 -0.005050441 0.067968555 0.011625892
0000a0 08 9f c3 3c eb 16 79 bd c2 f9 29 3e 58 c9 9f bc
       0.023879543 -0.060812872 0.16599181 -0.019505188
0000b0 a4 f0 1f 3d 65 6b 02 3d 61 c0 92 bd 98 73 58 be
       0.039047852 0.0318407 -0.071655996 -0.21137846
0000c0 f2 3e 12 3e 72 bd 54 be 93 2d e3 3c 9a 18 96 3d
       0.14281824 -0.20775393 0.027731692 0.07328911
0000d0 79 4a 5f bd eb c6 a2 bc 95 bc 1d bc c9 e3 c1 bd
       -0.054514382 -0.019870242 -0.009627481 -0.09467275
0000e0 ad 6f e8 3c db ae a1 bb 82 87 58 bd 9d c8 11 be
       0.028373564 -0.0049341745 -0.052863605 -0.14236684
0000f0 5c 8a ac 3d 49 61 81 3d 0f 06 8c 3c a8 92 55 3d
       0.084248275 0.06317384 0.017092733 0.052141815
000100 71 86 07 3d 20 8c 3b bd b9 2d 74 3d 94 f3 88 bd
       0.033087198 -0.04578793 0.059613917 -0.06687084
000110 62 12 d6 bd 23 f7 8f 3c ae 8e 56 3d 23 88 c4 bd
       -0.10452725 0.017573899 0.052382164 -0.095962785
000120 25 c1 c9 3a 27 18 df bd e5 bc 0c 3c 9d a6 a8 3d
       0.0015392645 -0.108932786 0.008589958 0.08234904
000130 a2 58 98 3c 1e 2b 3a 3c a2 ee 9f 3c a8 36 60 3c
       0.01859695 0.011362819 0.019522969 0.013684906
000140 43 64 d8 bc f0 56 8c 3c af 43 9e 3c 6c 39 1e bd
       -0.026414996 0.017131299 0.019319383 -0.03862898
000150 78 54 15 3d 59 43 93 3d d4 b4 12 3e b4 fe 11 bd
       0.03645751 0.0719058 0.14326793 -0.035643294
000160 23 41 cf bd 3a 31 2d 3e 57 68 bf bd f0 59 54 bd
       -0.10119846 0.1691331 -0.09346073 -0.051843584
000170 d2 70 67 3d 31 e9 e1 3d 2b db 0a 3d ef 5e dd bd
       0.05650408 0.11030806 0.03390042 -0.10809123
000180 31 e2 34 3c d2 52 75 3d ae 50 2c 3d 8d 24 94 3b
       0.011040256 0.059893437 0.04206913 0.0045209588
000190 ce 4a e8 3c 7b 1b 4f bd 75 b7 67 bc 85 4a 70 3d
       0.028355982 -0.050563317 -0.014142861 0.058664817
0001a0 f7 c2 76 38 17 7f 2a bd 18 01 b0 bd bf 51 49 bb
       5.8832546e-05 -0.04162511 -0.085939586 -0.003071889
0001b0 c9 bd 72 3d 4d 30 91 3d 22 2d ba bd ff 60 b5 3d
       0.059263024 0.07089291 -0.0909064 0.08856391
0001c0 28 31 d6 3d b0 e1 27 be be f4 30 bd 55 de ac 3d
       0.104585946 -0.16394687 -0.043202154 0.08440844
0001d0 52 75 2e be 61 83 14 bd f9 9b b4 bd 96 a7 60 3d
       -0.17036942 -0.036258105 -0.08818812 0.054847322
0001e0 ba 70 30 39 4f 8f c8 bc eb d0 8f 3d c6 20 98 bd
       0.00016826662 -0.024482397 0.0702227 -0.07428126
0001f0 5c 8b db 3c f3 90 c6 3c 85 37 b6 3d 87 91 b9 bd
       0.02679985 0.024239039 0.08897308 -0.0906096
000200 25 64 d4 3d 7d c9 f4 bd 9d 80 8a 3c 1b f1 26 bb
       0.103706636 -0.11952493 0.01690703 -0.00254733
000210 fc 63 37 3d ee 63 1f 3e cb f3 ea 3d 44 44 bd 3d
       0.044773087 0.15565464 0.11472281 0.09241536
000220 9b dc 2f 3d 8c 71 18 be e0 6f a4 bd e4 10 8b 3d
       0.042934995 -0.14887065 -0.08029151 0.06790331
000230 39 17 cb bd 3d 5c 58 bd d6 f6 4d 3c 3b d9 0c bd
       -0.09916539 -0.05282234 0.012571057 -0.034386855
000240 5a 19 03 bd f5 ff 0c 3e c6 00 c5 3c 7d 79 92 bd
       -0.0320066 0.13769515 0.02404822 -0.07152078
000250 bb 0c 70 3d df 35 49 3d 32 53 c9 bd 23 1d 96 bd
       0.05860589 0.04912364 -0.09830321 -0.07329776
000260 5e 08 3f 3d d2 85 ca 3c 45 54 39 bd b5 19 3b be
       0.04663884 0.024722014 -0.04524638 -0.18271525
000270 ea 1a 6d bd fb 8c 99 3d b2 da 0f 3e 6d 11 a5 bd
       -0.057886995 0.07497593 0.1404827 -0.08059964
000280 85 9a 4f bd 4e 24 f2 bd fd dd fc bc f2 7b 1b 3e
       -0.05068447 -0.11823331 -0.030867571 0.15184
000290 e7 3d 05 be ca 32 ed 3c e8 98 30 bc ed fb 0e 3d
       -0.13011895 0.028954882 -0.010778643 0.034908224
0002a0 24 cd 93 bc 9b c2 af 3d 72 ab 87 3d 35 42 a4 3d
       -0.018042155 0.0858204 0.066244975 0.080204405
0002b0 51 64 79 bd 91 bd b2 3d e1 f2 47 bc 12 a9 51 bd
       -0.060886685 0.08727563 -0.012203903 -0.05118663
0002c0 eb 6e c3 3d d2 73 a7 bd 62 55 20 3c ac 15 f2 3d
       0.0954264 -0.08176388 0.009785982 0.1182054
0002d0 fa 59 20 3e dd 22 9d bd c0 ba ea 3d b0 fc a6 b9
       0.15659323 -0.07672665 0.11461401 -0.00031850254
0002e0 84 c4 8a 3c 01 94 95 bc bc ee 1f 3c cb 0b 4a bd
       0.01693941 -0.01825905 0.009761509 -0.049327653
0002f0 49 ac 5e 3c e2 16 1c bc e5 63 0f 3b cf c0 93 3d
       0.013590881 -0.00952694 0.002187961 0.0721451
000300 d2 1a 16 3d f1 da 01 3c 92 97 07 3c 35 5a 9f 3d
       0.03664667 0.007925735 0.008275883 0.077808775
000310 4a 6d 4f 3e 57 b5 f0 bd b4 61 74 3d 23 a5 ce bc
       0.20256534 -0.11753338 0.05966349 -0.025225228
000320 b7 fc 91 bd 63 45 24 bd 2c f6 b2 3d b9 5c 23 bd
       -0.0712828 -0.040105235 0.0873836 -0.03988335
000330 a0 16 e8 3d 58 80 ca bd 96 02 96 3d d8 e8 41 be
       0.113324404 -0.09887761 0.07324712 -0.18936479
000340 68 7b 80 bd 77 86 db 3d 31 6c b5 3d 6f b3 02 bd
       -0.06273538 0.107190065 0.088585265 -0.031909402
000350 d9 4b a7 bd 23 bd 06 3e a9 6d 2b 3e b7 02 96 3c
       -0.08168764 0.13158087 0.16741051 0.018311841
000360 14 6e 7c bd 25 5c 0e bd 3e 92 52 3d 56 26 a3 bd
       -0.061628416 -0.034755845 0.051409 -0.079662964
000370 b9 e6 4e 3e 2d cb 19 3c bb 82 ee 3c 36 47 11 be
       0.20205201 0.00938682 0.029115072 -0.14187321
000380 cd 02 6f bd 17 33 37 bc f2 d6 09 3d 0c d4 ab 3d
       -0.05835228 -0.011181614 0.033652253 0.08390054
000390 cf 2c 17 bd 30 a0 88 bd f3 80 bc bc 4c e7 69 bd
       -0.036907967 -0.06671178 -0.023010707 -0.057105348
0003a0 34 17 07 3d 52 80 f8 bd 64 41 0a bd 1b c4 39 be
       0.032981113 -0.1213385 -0.033753768 -0.18141215
0003b0 37 39 35 bd f1 10 fc 3c c7 fa 9d 3d dd 01 9a 3d
       -0.044244017 0.030769797 0.077138476 0.07519887
0003c0 ee f1 86 3d 38 ca c4 3d 63 32 0d 3e eb 66 82 3d
       0.06589113 0.09608883 0.13788752 0.06367286
0003d0 73 48 d5 3d e8 09 30 be b0 b1 b1 3d 6d f3 8b 3d
       0.10414209 -0.17191279 0.08676469 0.06833539
0003e0 dd f9 0c 3e 8d cc 21 bd 97 74 ca 3a 7e 97 01 bd
       0.1376719 -0.039501715 0.0015446123 -0.031638615
0003f0 38 c5 e1 bd 4f d5 48 3d 88 67 64 3e 66 25 f6 3b
       -0.110239446 0.049031552 0.22305119 0.0075117825

network_body._body_endoder.seq_layers.2.bias f4 [128]
000000 00 00 00 00 00 00 00 00 00 00 00 00 00 00 00 00
       0.0 0.0 0.0 0.0
000010 00 00 00 00 00 00 00 00 00 00 00 00 00 00 00 00
       0.0 0.0 0.0 0.0
000020 00 00 00 00 00 00 00 00 00 00 00 00 00 00 00 00
       0.0 0.0 0.0 0.0
000030 00 00 00 00 00 00 00 00 00 00 00 00 00 00 00 00
       0.0 0.0 0.0 0.0
000040 00 00 00 00 00 00 00 00 00 00 00 00 00 00 00 00
       0.0 0.0 0.0 0.0
000050 00 00 00 00 00 00 00 00 00 00 00 00 00 00 00 00
       0.0 0.0 0.0 0.0
000060 00 00 00 00 00 00 00 00 00 00 00 00 00 00 00 00
       0.0 0.0 0.0 0.0
000070 00 00 00 00 00 00 00 00 00 00 00 00 00 00 00 00
       0.0 0.0 0.0 0.0
000080 00 00 00 00 00 00 00 00 00 00 00 00 00 00 00 00
       0.0 0.0 0.0 0.0
000090 00 00 00 00 00 00 00 00 00 00 00 00 00 00 00 00
       0.0 0.0 0.0 0.0
0000a0 00 00 00 00 00 00 00 00 00 00 00 00 00 00 00 00
       0.0 0.0 0.0 0.0
0000b0 00 00 00 00 00 00 00 00 00 00 00 00 00 00 00 00
       0.0 0.0 0.0 0.0
0000c0 00 00 00 00 00 00 00 00 00 00 00 00 00 00 00 00
       0.0 0.0 0.0 0.0
0000d0 00 00 00 00 00 00 00 00 00 00 00 00 00 00 00 00
       0.0 0.0 0.0 0.0
0000e0 00 00 00 00 00 00 00 00 00 00 00 00 00 00 00 00
       0.0 0.0 0.0 0.0
0000f0 00 00 00 00 00 00 00 00 00 00 00 00 00 00 00 00
       0.0 0.0 0.0 0.0
000100 00 00 00 00 00 00 00 00 00 00 00 00 00 00 00 00
       0.0 0.0 0.0 0.0
000110 00 00 00 00 00 00 00 00 00 00 00 00 00 00 00 00
       0.0 0.0 0.0 0.0
000120 00 00 00 00 00 00 00 00 00 00 00 00 00 00 00 00
       0.0 0.0 0.0 0.0
000130 00 00 00 00 00 00 00 00 00 00 00 00 00 00 00 00
       0.0 0.0 0.0 0.0
000140 00 00 00 00 00 00 00 00 00 00 00 00 00 00 00 00
       0.0 0.0 0.0 0.0
000150 00 00 00 00 00 00 00 00 00 00 00 00 00 00 00 00
       0.0 0.0 0.0 0.0
000160 00 00 00 00 00 00 00 00 00 00 00 00 00 00 00 00
       0.0 0.0 0.0 0.0
000170 00 00 00 00 00 00 00 00 00 00 00 00 00 00 00 00
       0.0 0.0 0.0 0.0
000180 00 00 00 00 00 00 00 00 00 00 00 00 00 00 00 00
       0.0 0.0 0.0 0.0
000190 00 00 00 00 00 00 00 00 00 00 00 00 00 00 00 00
       0.0 0.0 0.0 0.0
0001a0 00 00 00 00 00 00 00 00 00 00 00 00 00 00 00 00
       0.0 0.0 0.0 0.0
0001b0 00 00 00 00 00 00 00 00 00 00 00 00 00 00 00 00
       0.0 0.0 0.0 0.0
0001c0 00 00 00 00 00 00 00 00 00 00 00 00 00 00 00 00
       0.0 0.0 0.0 0.0
0001d0 00 00 00 00 00 00 00 00 00 00 00 00 00 00 00 00
       0.0 0.0 0.0 0.0
0001e0 00 00 00 00 00 00 00 00 00 00 00 00 00 00 00 00
       0.0 0.0 0.0 0.0
0001f0 00 00 00 00 00 00 00 00 00 00 00 00 00 00 00 00
       0.0 0.0 0.0 0.0

value_heads.value_heads.extrinsic.weight f4 [1, 128]
000000 07 4c e7 bd b8 53 a4 bd c1 1e 00 be e0 e4 42 be
       -0.11293798 -0.080237806 -0.12511732 -0.19032621
000010 48 ea df 3c 9c 3c 09 3e 6a ed 35 be 70 f8 86 3d
       0.027333394 0.13402027 -0.17766348 0.065903544
000020 80 f9 2e be 2c ff 25 3e 18 e7 30 3d 20 43 0c 3e
       -0.17087364 0.16210622 0.04318914 0.13697481
000030 72 57 3d 3e f0 e9 8d 3c 00 0c 41 b9 dc 81 26 be
       0.18490389 0.017323464 -0.00018410385 -0.16260475
000040 d8 f1 d4 3d c3 55 ef bd c0 d8 3b bc c2 2c 0b be
       0.103976905 -0.116862796 -0.011465251 -0.13591293
000050 48 c6 bd bc e0 2b be 3b 00 6a c3 bc 38 be 36 3d
       -0.023165837 0.00580357 -0.023854256 0.044615
000060 1f 4e 34 be 18 c3 e4 3d 68 52 c8 bc 50 3d 48 3e
       -0.17607926 0.11170024 -0.024453357 0.19554639
000070 88 85 9f 3d 68 07 07 bd 9f 51 2c be e2 64 4b be
       0.07789141 -0.032966048 -0.16828011 -0.19862702
000080 8a 2c 37 3e 10 07 38 3c 5c 15 ec bd ca 04 18 be
       0.17888084 0.011232153 -0.115275115 -0.14845577
000090 67 c0 17 be 04 ae 99 bd 80 da b1 bd d0 20 93 3c
       -0.1481949 -0.07503894 -0.08684254 0.017959982
0000a0 3a 68 38 3e 78 73 d3 3d e3 c2 39 be e2 c0 80 bd
       0.1800851 0.10324758 -0.1814075 -0.062867895
0000b0 b0 35 9d bd f5 e2 46 be 2a da 30 be 77 24 43 be
       -0.07676256 -0.19422515 -0.17270723 -0.19056879
0000c0 f8 af 45 3e e8 29 49 bd 44 c0 d9 3d 30 45 d3 3d
       0.19305408 -0.04911223 0.10632375 0.10315931
0000d0 38 6e 14 3d c8 78 1c 3d 26 01 8f bd d6 bc 14 3e
       0.036237925 0.038201123 -0.06982641 0.1452516
0000e0 e4 f9 0a bd c8 ef d5 bc 74 3b d5 3d 48 88 d0 3d
       -0.03392972 -0.026115313 0.104117304 0.101822436
0000f0 c1 04 20 be fc 6e 07 3d a0 13 ab bb 8e bb 08 3e
       -0.15626813 0.033064827 -0.0052208453 0.13352796
000100 c8 ce ee bc 04 6e 1c bd 54 ef 44 be 64 36 1b 3e
       -0.029151335 -0.038190857 -0.19231921 0.15157467
000110 90 59 61 bc 98 ba bc 3d f8 cc 34 3d d0 8c 56 be
       -0.0137542635 0.092152774 0.044140786 -0.20952153
000120 a0 0f f4 bb 6b 9d 4a be 84 37 1a bd 50 62 b7 3d
       -0.0074481517 -0.19786613 -0.0376506 0.089542985
000130 8c 51 ae 3d a8 2f b3 3d f8 d5 86 3c 7a a5 10 be
       0.085116476 0.08749324 0.01645945 -0.14125624
000140 67 cc 31 be a0 d6 35 bc 38 57 51 3d 40 61 74 bb
       -0.1736313 -0.011098534 0.05110857 -0.003728941
000150 44 a5 7a bd f8 0b 4b 3d 6a 00 3b be 2e a3 20 be
       -0.061192766 0.04957196 -0.18261877 -0.15687248
000160 0d 84 4a be d8 03 5d 3d d4 3f 4c 3e 7c 38 07 3e
       -0.19776936 0.053958744 0.19946223 0.13205141
000170 b2 e9 4e 3e 22 d1 32 3e c6 0e a2 bd 04 74 dd bd
       0.20206335 0.1746259 -0.07912974 -0.10813144
000180 c4 25 53 bd e2 3f 1d 3e 64 3d ac bd 02 c9 88 bd
       -0.051549688 0.153564 -0.08410147 -0.06678964
000190 80 95 81 bc 90 b1 23 3e 50 30 14 3d 0d ad f7 bd
       -0.015818357 0.15985703 0.036178887 -0.12093554
0001a0 2c dd 31 3e 20 cc a3 bc 04 da e0 3d 08 0e dc 3d
       0.17369527 -0.019994795 0.10979083 0.10744864
0001b0 58 6c 32 bd 68 69 8f bd 83 d2 de bd b0 4d 43 3e
       -0.043560356 -0.070025265 -0.10879996 0.19072604
0001c0 b3 9f 29 be 78 cc e6 3d 38 2f 87 bc 4e 82 49 be
       -0.16564827 0.11269468 -0.016502008 -0.19678614
0001d0 18 a5 3a 3d a8 3c 21 3d 30 d8 37 bd 70 fd c4 3c
       0.045567602 0.039364487 -0.044883907 0.02404663
0001e0 79 b3 eb bd 3e c8 31 be 54 bc 06 bd 2c 7e 9d 3d
       -0.11508841 -0.17361543 -0.032894447 0.07690081
0001f0 58 4e 94 3c fc 8a 26 3e c8 23 31 be d2 56 ba bd
       0.018103763 0.16263956 -0.17298806 -0.09098591
