ML Agent Practice/results/ppo/MoveToGoal/MoveToGoal-200191.pt (torch, 441819 bytes, 36 tensors)

network_body._body_endoder.seq_layers.0.weight f4 [128, 6]
0	0xbeb5fc6d	-0.35544148
1	0xbd0d2f6f	-0.034469064
2	0xbf13fb9f	-0.5780582
3	0x3f045ecb	0.5170714
4	0x3da7a28d	0.08185301
5	0xbd863eb0	-0.065549254
6	0xbe9a2344	-0.3010503
7	0x3ece4ff0	0.40295362
8	0x3e0e7295	0.13910897
9	0xbf2fa918	-0.6861739
10	0xbe94a94d	-0.29035416
11	0x3e861e92	0.26195198
12	0x3e870e2d	0.26378003
13	0xbe9e35bc	-0.3090037
14	0xbec82d02	-0.39096838
15	0x3d879935	0.06621019
16	0x3f63138d	0.8870171
17	0x3e2324a0	0.1593194
18	0x3f4d5df7	0.80221504
19	0x3e474d4f	0.19463085
20	0x3d1eb7d9	0.03874955
21	0xbead786d	-0.3388094
22	0x3e90238c	0.2815212
23	0x3f37aaa3	0.71744746
24	0x3f1bbb04	0.6083224
25	0xbc5f4b48	-0.013628788
26	0x3d83999a	0.064257815
27	0xbba56742	-0.0050477097
28	0x3e915371	0.28383973
29	0x3f0067c6	0.50158346
30	0xbe9d4b82	-0.3072167
31	0x3b9970a9	0.0046826196
32	0xbe696266	-0.22791442
33	0x3e18302b	0.14862125
34	0xbeead802	-0.45867926
35	0xbec9c79a	-0.39410096
36	0xbe585008	-0.2112428
37	0x3d6409aa	0.05567328
38	0x3e8a0d31	0.2696319
39	0x3edc9fbc	0.43090618
40	0x3d80b6de	0.06284879
41	0x3ec50985	0.38483825
42	0x3ca21db0	0.019789547
43	0xbe3beb38	-0.18351448
44	0xbd9a479e	-0.07533191
45	0x3ecaec80	0.3963356
46	0x3eee63cf	0.46560523
47	0xbe7f46e9	-0.24929394
48	0xbe1c140f	-0.15242027
49	0xbde2cf31	-0.11074675
50	0xbe6beb15	-0.23038895
51	0xbf276793	-0.65392417
52	0x3f0b4819	0.5440689
53	0xbf81de1d	-1.0145909
54	0xbe9897aa	-0.2980321
55	0x3e623470	0.22090316
56	0xbf9f8030	-1.2460995
57	0xbead214b	-0.33814463
58	0x3e299ddf	0.1656413
59	0x3dd4ec55	0.10396639
60	0xbb975b06	-0.004619005
61	0xbe78602f	-0.24255441
62	0x3ecc253f	0.39872167
63	0x3ee6205e	0.4494657
64	0x3f2101ed	0.62893564
65	0xbf0e8b82	-0.5568162
66	0xbe9d18ca	-0.30682975
67	0x3eb727e9	0.35772637
68	0x3c481864	0.012212846
69	0x3de563e7	0.112006955
70	0xbf003eb6	-0.5009569
71	0xbdaec0d5	-0.085328735
72	0xbe566dd8	-0.2094034
73	0x3d3c7dee	0.046018533
74	0x3de14b24	0.1100066
75	0xbd7f367c	-0.06230782
76	0xbda96868	-0.08271867
77	0x3ea94c69	0.3306611
78	0x3e954dc0	0.2916088
79	0x3e8d652b	0.27616248
80	0xbf05839e	-0.52153957
81	0x3ec07bdd	0.375945
82	0xbf644fad	-0.89184076
83	0xbe36779c	-0.17819065
84	0xbdf76fd8	-0.120818794
85	0x3d886f41	0.06661845
86	0x3cfc1914	0.030773677
87	0xbe49fa7f	-0.19724463
88	0xbef13aac	-0.47115076
89	0xbeb1a916	-0.34699315
90	0x3d1a5c29	0.037685547
91	0xbda2e8df	-0.07954573
92	0xbe686075	-0.22693045
93	0x3f7af987	0.98037
94	0x3ec834d5	0.39102808
95	0xbddc6fa8	-0.10763484
96	0x3ee92d5b	0.45542416
97	0x3f0d9e93	0.5532009
98	0x3c4fd9a8	0.012686171
99	0x3e74fa8f	0.23923706
100	0xbf02ed04	-0.5114291
101	0x3f1b1773	0.60582656
102	0xbd14bddb	-0.036313873
103	0x3f3b9bff	0.73284906
104	0x3e3c2d4e	0.18376657
105	0xbf719d33	-0.9438049
106	0x3f08b366	0.5339874
107	0xbedce567	-0.4314377
108	0x3e00a1ae	0.12561676
109	0xbf13a3a0	-0.57671547
110	0x3eeafc39	0.45895556
111	0x3f0cc820	0.54992867
112	0x3e96a274	0.29420817
113	0xbf14f6ac	-0.5818889
114	0x3dba1762	0.09086491
115	0x3e5af194	0.21381217
116	0xbf2393a9	-0.63897187
117	0xbe6251b8	-0.22101486
118	0x3f223cef	0.6337423
119	0xbefe3559	-0.49650076
120	0xbe3ccc4e	-0.18437311
121	0x3ee6c65c	0.4507321
122	0x3ed3c46d	0.41360798
123	0xbf0ff29a	-0.56229556
124	0x3e278364	0.16358715
125	0xbf596f4c	-0.8493545
126	0x3f2227d6	0.63342035
127	0x3e1a8ef0	0.15093589
128	0xbdf3382f	-0.118759505
129	0xbefb3c88	-0.4906962
130	0x3c15e6de	0.009149281
131	0x3ebdf977	0.3710439
132	0x3f8a061d	1.0783116
133	0xbeb95917	-0.36200783
134	0xbe27d2f2	-0.16389063
135	0x3f024b76	0.50896394
136	0x3f1ec455	0.6201833
137	0xbe953470	-0.2914157
138	0x3e37dcdc	0.17955345
139	0xbe775ce0	-0.24156523
140	0xbe8e3bdc	-0.27780044
141	0xbea0b83c	-0.3139056
142	0xbe2724e5	-0.16322668
143	0x3e8ce86c	0.27521074
144	0xbef99421	-0.48745826
145	0x3d891f16	0.06695382
146	0x3dc6d23c	0.09708068
147	0x3f1de4e6	0.61677396
148	0xbdca13d5	-0.09867064
149	0x3e244761	0.16042854
150	0x3e8370b7	0.25671932
151	0x3ed6ee53	0.41978702
152	0x3f0b07e3	0.5430891
153	0xbed46967	-0.41486666
154	0xbefb8c40	-0.4913044
155	0xbea7a278	-0.3274114
156	0xbeebfc78	-0.46091056
157	0x3f1c761e	0.6111773
158	0xbe68238b	-0.22669809
159	0xbe5c107d	-0.21490665
160	0x3ee63237	0.44960186
161	0xbc904b33	-0.017613983
162	0xbf097183	-0.5368883
163	0xbe88b785	-0.26702514
164	0x3f083226	0.5320152
165	0x3ed26f14	0.4110037
166	0x3dcb4462	0.09925152
167	0x3f1681f5	0.5879205
168	0x3eedb1cf	0.4642472
169	0x3e97217b	0.2951773
170	0x3e646143	0.22302727
171	0x3e248de7	0.16069756
172	0x3dd7b4d2	0.105325356
173	0x3f272b8b	0.65300816
174	0xbf289a4a	-0.65860426
175	0xbddf686b	-0.10908588
176	0xbe982f4a	-0.2972358
177	0xbe8ac75f	-0.27105233
178	0xbf445598	-0.76693106
179	0x3f29ef41	0.663807
180	0xbf1f3ab9	-0.6219898
181	0xbdbd7eb6	-0.09252684
182	0x3e60c318	0.21949422
183	0x3e1fdf03	0.15612416
184	0xbe2fbe14	-0.17162353
185	0xbe4a0d79	-0.19731702
186	0x3f0d1b34	0.55119634
187	0x3e8ffdae	0.2812323
188	0x3ec0cf87	0.3765833
189	0x3dedfad8	0.1162011
190	0x3e6e560b	0.2327501
191	0x3f2df535	0.6795228
192	0xbdaa00fc	-0.08300969
193	0xbe5b25eb	-0.21401183
194	0x3f2bb5ea	0.67074454
195	0x3f7bdad5	0.98380786
196	0xbe1837eb	-0.14865081
197	0x3ec43076	0.38318223
198	0xbe51dcb4	-0.20494348
199	0xbd6c2c3e	-0.05765938
200	0xbdfa9e10	-0.12237179
201	0xbd849f18	-0.06475657
202	0x3e00edbf	0.12590693
203	0x3ed0adac	0.407575
204	0xbd480b71	-0.048839036
205	0x3f44e509	0.7691198
206	0xbeba15b9	-0.36344698
207	0xbefdd62b	-0.4957746
208	0xbec387b5	-0.38189474
209	0x3e8b8d5d	0.2725629
210	0xbe536f75	-0.20647986
211	0x3e406c55	0.18791325
212	0xbf01ff5a	-0.5078026
213	0xbe21aa35	-0.15787585
214	0xbce9d229	-0.028542595
215	0x3ebd2721	0.36943915
216	0xbec2e7b2	-0.38067394
217	0x3df1b334	0.118017584
218	0xbd55aa90	-0.052164614
219	0x3c17b048	0.009258337
220	0x3bc4bc51	0.0060038944
221	0xbe50770b	-0.20357911
222	0x3f4394e8	0.7639909
223	0xbca76cb6	-0.02043758
224	0x3e93e112	0.28882653
225	0xbe39b7e2	-0.18136552
226	0xbe041c99	-0.12901534
227	0x3e49a68e	0.19692442
228	0xbe0c862d	-0.13723059
229	0x3f28914c	0.65846705
230	0xbdac3773	-0.084090136
231	0x3e67b74c	0.22628516
232	0xbd2632ab	-0.040575664
233	0xbf349dac	-0.7055309
234	0x3f013857	0.5047659
235	0x3da40c68	0.08010179
236	0x3ca87099	0.020561503
237	0xbeb002af	-0.34377047
238	0xbf0a5627	-0.5403771
239	0x3dc456b5	0.095868506
240	0xbf49d411	-0.7883921
241	0xbe77b74e	-0.24191019
242	0xbe0b588b	-0.13607995
243	0x3d14b721	0.036307458
244	0x3c16db41	0.009207548
245	0xbe4eef6c	-0.2020852
246	0x3f492c72	0.78583443
247	0xbd50679c	-0.05088006
248	0xbdcec468	-0.10096055
249	0x3f2cb648	0.6746564
250	0xbedb6c20	-0.4285593
251	0x3e04ba01	0.1296158
252	0xbdffa176	-0.12481968
253	0xbedb4fc7	-0.42834303
254	0x3d704351	0.058657948
255	0xbf3c13c7	-0.7346768

network_body._body_endoder.seq_layers.0.bias f4 [128]
0	0x3cb56a9c	0.022145562
1	0xbb43a853	-0.0029854968
2	0x3cde8203	0.027161604
3	0xbbbf9426	-0.005846518
4	0x3cfca08d	0.030838275
5	0x3c5dcc87	0.013537533
6	0xb9c414d1	-0.00037399543
7	0x3b59fe74	0.0033263238
8	0xbc32039e	-0.01086512
9	0x3cdf6cc2	0.02727354
10	0x3c90a48c	0.017656587
11	0xbb90af8a	-0.004415457
12	0x3a9f0ba9	0.0012134212
13	0x3c44f5b7	0.012021474
14	0xba70c39b	-0.0009184421
15	0xb7fab671	-2.9887278e-05
16	0xbb3ccc6e	-0.0028808373
17	0xbb3e5837	-0.002904428
18	0xbafc1a8b	-0.0019233985
19	0xbbdf2b63	-0.006810592
20	0xbbcc30dd	-0.006231411
21	0x3b5910ac	0.003312151
22	0x3d797758	0.06090483
23	0x3c10259c	0.008798029
24	0x3ae66bce	0.0017579736
25	0xbb30900f	-0.0026941334
26	0x3b2f61f8	0.0026761275
27	0xb92c1d2c	-0.00016414066
28	0xb9665df6	-0.00021969512
29	0x3beba8f7	0.007191773
30	0x3bf6de8a	0.007533853
31	0xbb86bc42	-0.0041117975
32	0xbb8192e3	-0.003954278
33	0xbaf3a005	-0.0018587118
34	0x3b1f654a	0.0024321848
35	0x3c09a2e4	0.008400653
36	0xbbcd8acc	-0.0062726494
37	0x3d408110	0.046998084
38	0x3c015b4d	0.007895303
39	0x3b9a2a8f	0.0047047804
40	0xbbaa8c79	-0.005204734
41	0xb9b22186	-0.00033975783
42	0x3afdfe48	0.001937815
43	0xba453878	-0.0007523368
44	0x3b76f02c	0.0037679775
45	0x3d016715	0.031592447
46	0xbc17f42a	-0.009274522
47	0x3c9a0782	0.018802408
48	0x3caef6ac	0.021357857
49	0xbbbb3d97	-0.005714129
50	0x39e7283a	0.00044089725
51	0xbac63670	-0.0015122425
52	0x3c254f10	0.010089651
53	0xbb984f5c	-0.0046481322
54	0x3bae543c	0.0053201
55	0xba9ee710	-0.0012123305
56	0x3ccd558b	0.025065204
57	0x3ccffafc	0.025388233
58	0x3be2d9c9	0.0069229347
59	0x3ad65c62	0.0016354437
60	0x3bff3edc	0.007789476
61	0x39b593e6	0.00034633203
62	0x3b4d395b	0.0031314704
63	0xbba41821	-0.005007759
64	0xbb20eb7d	-0.0024554424
65	0xbbdcadf0	-0.006734602
66	0x3c5abf99	0.0133513445
67	0x3a20c825	0.00061333395
68	0x3b0c46c6	0.002140449
69	0xbb8e93d5	-0.004351119
70	0xbb8914b6	-0.004183377
71	0x3b37ec12	0.0028064293
72	0x3c880283	0.01660276
73	0x3ca5015c	0.02014225
74	0x3baf411d	0.0053483383
75	0xbb1bd61e	-0.0023778747
76	0xbc6d1e40	-0.014472544
77	0xbbc8958f	-0.0061213444
78	0x3a9af869	0.00118233
79	0xbb084f65	-0.0020799276
80	0xbbb7fb16	-0.0056146486
81	0x3a0aa97a	0.0005289536
82	0x3b3459a1	0.0027519243
83	0x3bb13642	0.0054080794
84	0xbbfeeeda	-0.007779938
85	0x3badd405	0.0053048157
86	0x3bcf5420	0.006327167
87	0xbb4dd496	-0.0031407229
88	0x3b94495a	0.0045253458
89	0x3b907059	0.004407924
90	0xbc330630	-0.010926768
91	0xbb508063	-0.0031814806
92	0x3b1ac067	0.0023613216
93	0xbb0cc779	-0.00214812
94	0xbb91a09d	-0.0044441954
95	0xba99fa94	-0.0011747652
96	0xb9c5c6ff	-0.00037723032
97	0x3cb45938	0.022015199
98	0xbb3b06ef	-0.0028538068
99	0x3d395de6	0.045255564
100	0xba749493	-0.00093300006
101	0x3d80b80a	0.06285103
102	0xbb99eeef	-0.0046976726
103	0x3c1f47dd	0.009721723
104	0xbc7482fb	-0.014923806
105	0xbc033451	-0.008008079
106	0xbbba50ab	-0.005685886
107	0x3bc3e743	0.0059784963
108	0xbcb488f4	-0.02203796
109	0xbc1b35da	-0.009473288
110	0xbb3a4961	-0.0028425085
111	0xbb690a51	-0.0035559128
112	0x3beadaf0	0.0071672127
113	0x3c72897a	0.014803285
114	0xbb47e0eb	-0.0030499052
115	0x3cc54f41	0.024085643
116	0xba5582f1	-0.0008144817
117	0xbb3e9bd4	-0.002908458
118	0xbb9cc5ff	-0.004784345
119	0xbbc80536	-0.006104137
120	0xbb7d06d6	-0.003860881
121	0xbbbd4fd8	-0.0057773404
122	0x3be92fdc	0.007116301
123	0xbc875d16	-0.016523879
124	0x3b2238d1	0.0024753103
125	0xba3ba80e	-0.0007158526
126	0x3b9bec3f	0.0047583873
127	0xbb3a75f1	-0.0028451646

network_body._body_endoder.seq_layers.2.weight f4 [128, 128]
0	0xbd8ef1fb	-0.06979748
1	0x3c9d4ca3	0.019201582
2	0x3d85b588	0.06528765
3	0x3d2362bc	0.039889082
4	0xbe0985fd	-0.13430019
5	0x3d81853c	0.063242406
6	0x3df8868f	0.1213504
7	0x3d37000f	0.04467779
8	0x3d740da6	0.05958333
9	0x3c127bea	0.008940676
10	0xbe457e04	-0.19286352
11	0xbe0e0025	-0.13867243
12	0x3dde37d8	0.10850495
13	0xbca1ce03	-0.019751554
14	0x3c6cebf5	0.014460553
15	0xbd6d2567	-0.057896998
16	0xbc6fcccd	-0.014636231
17	0x3c65bb82	0.014021756
18	0xbae133ab	-0.0017181536
19	0x3e2199f5	0.15781386
20	0x3c994ad3	0.018712437
21	0xbe69cf41	-0.22832967
22	0x3d7f06c9	0.06226233
23	0x3c7a2461	0.0152674625
24	0x3dbfb818	0.09361285
25	0x3e08088e	0.13284513
26	0x3d278bb1	0.040904704
27	0xbc8a0dc3	-0.016852265
28	0xbb4171c2	-0.0029517268
29	0x3cb5cd30	0.022192568
30	0xbe325eeb	-0.17419021
31	0xbc9a0a44	-0.018803723
32	0xbdb88df7	-0.09011453
33	0xbc1ea94e	-0.00968392
34	0xbdf5ed29	-0.12008125
35	0x3cb400c0	0.021973014
36	0xbd097d53	-0.033566784
37	0x3dde3963	0.108507894
38	0xbd8cac87	-0.068688445
39	0x3e4eb67c	0.201868
40	0xbdfe2742	-0.124098316
41	0xbcd138e2	-0.02553982
42	0x3d327cdc	0.043576106
43	0xbca50c5f	-0.0201475
44	0xbbf994c7	-0.0076166126
45	0x3c5bae46	0.013408249
46	0x3d71646c	0.05893366
47	0x3ce97d99	0.028502272
48	0xbd194f09	-0.03742889
49	0xbe06e9de	-0.13175151
50	0x3d8c81bc	0.06860682
51	0xbdf28cf1	-0.11843289
52	0xbe07fa80	-0.13279152
53	0xbe3643ad	-0.17799254
54	0x3d8a0604	0.06739429
55	0xbda2cab1	-0.079488166
56	0x3da104b5	0.07862226
57	0xbdc723f8	-0.09723657
58	0xbdfdcf5e	-0.12393068
59	0x3d5febce	0.05466824
60	0xbd8bc1ff	-0.06824111
61	0xbdf08068	-0.117432415
62	0x3db629f3	0.0889472
63	0xbd3438c1	-0.043999437
64	0xbd9df0e7	-0.07711964
65	0xbd5e3562	-0.05425013
66	0xbdf8f762	-0.121565595
67	0x3d9141b5	0.07092611
68	0x3e429fed	0.1900632
69	0x3d41ded6	0.047331654
70	0xbd37c30c	-0.044863746
71	0x3daffc4d	0.085930444
72	0xbd6479bd	-0.05578016
73	0xbd13529d	-0.035967458
74	0xbe59c1d3	-0.21265344
75	0xbce53834	-0.027980901
76	0x3d768847	0.060188558
77	0x3cbb28b3	0.022846555
78	0x3b451e69	0.003007794
79	0x3d100560	0.035161376
80	0x3d872ede	0.06600736
81	0xbdef57be	-0.11686657
82	0x3c6fc7c6	0.014635032
83	0xba60e30f	-0.0008578756
84	0x3c893303	0.016747957
85	0xbe25e336	-0.16199955
86	0xbdc9c9a2	-0.098529115
87	0x3d3c3842	0.04595209
88	0xbd6a00ce	-0.057129674
89	0x3cfd0bd3	0.030889427
90	0xbd80fc52	-0.06298126
91	0x3d717ea0	0.05895865
92	0x3dbd18da	0.09233256
93	0xbce88928	-0.028385714
94	0xbe18194c	-0.148534
95	0xbda9f575	-0.0829877
96	0x3d9bcdc9	0.0760761
97	0xbe1d30fa	-0.15350714
98	0x3e07aeba	0.13250247
99	0xbdd9986a	-0.10624774
100	0x3df2a84d	0.11848507
101	0x3d1d96f6	0.038474046
102	0x3d170529	0.036870155
103	0x3d81eb42	0.063437
104	0x3c92ccbb	0.017919889
105	0xbe18eaea	-0.14933363
106	0x3d5b4494	0.053532198
107	0xbd3e957f	-0.04652929
108	0xbe409404	-0.18806463
109	0x3d6bb887	0.057549026
110	0x3cc84251	0.024445685
111	0x3dba56b5	0.09098569
112	0x3c9760c7	0.018478764
113	0xbe313404	-0.17304999
114	0xbcea1880	-0.028576136
115	0xbce4f8ce	-0.02795067
116	0x3d140425	0.036136765
117	0x3c2c43eb	0.01051424
118	0x3ca4610f	0.020065812
119	0x3d79857c	0.060918316
120	0xbe2c4212	-0.16822079
121	0x3d4e5dca	0.050382413
122	0xbdf5612a	-0.11981423
123	0xbd0601aa	-0.03271643
124	0x3c78ec2a	0.015193025
125	0xbd501288	-0.050798923
126	0xbcc45c4a	-0.023969788
127	0x3d1065ca	0.035253324
128	0x3b2c5790	0.0026297309
129	0xbcde41e5	-0.02713103
130	0xbe4bcf42	-0.19903281
131	0xbd63b994	-0.055596903
132	0x3ca97da5	0.020689795
133	0xbe429f4d	-0.19006081
134	0x3e015358	0.1262945
135	0xbd1f8334	-0.038943484
136	0xbe558206	-0.20850381
137	0x3e627b2d	0.221173
138	0xbd40aede	-0.047041766
139	0x3e71a681	0.23598672
140	0x3d51f532	0.051259227
141	0xbd4b5f8f	-0.04965168
142	0x3c0e2a8d	0.008677137
143	0x3daad709	0.08341796
144	0x3d050f53	0.032485317
145	0x3c0504de	0.008118836
146	0x3c344b46	0.011004275
147	0xbcdbb2ed	-0.026818717
148	0xbd126731	-0.035742942
149	0x3d3190f3	0.043351125
150	0x3d914544	0.070932895
151	0xbd2fe142	-0.042939432
152	0x3ccfefc5	0.025382886
153	0xbdba3cb7	-0.09093612
154	0x3db07b12	0.08617224
155	0xbdcc7cef	-0.09984767
156	0x3db11315	0.08646218
157	0xba8d467c	-0.0010778452
158	0xbdcf01e7	-0.10107785
159	0xbd499f2f	-0.049224075
160	0x3d0f8fbe	0.035049193
161	0xbd0cefc8	-0.03440836
162	0xbd8dd322	-0.06925036
163	0x3ddf88f2	0.10914792
164	0x3dbd48a5	0.092423715
165	0xbe065fd3	-0.13122492
166	0xbcacf069	-0.02111073
167	0x3d20c6f3	0.039252233
168	0x3c4fcb64	0.012682769
169	0x3d887c10	0.06664288
170	0xbe4c5771	-0.19955231
171	0xbb0a92ce	-0.0021144631
172	0xbe02d523	-0.12776618
173	0x3d6f2689	0.05838636
174	0x3d2d8c89	0.042370353
175	0x3d047610	0.032339156
176	0x3e0bf531	0.13667752
177	0x3eb41e1c	0.35179222
178	0x3d910400	0.07080841
179	0x3bec38be	0.0072089126
180	0xbd4dbcdc	-0.05022894
181	0xbcc4eb06	-0.02403785
182	0x3d663612	0.05620391
183	0xbd89b1fe	-0.067234024
184	0xbe0e8d56	-0.13921103
185	0xbdd0b7de	-0.1019132
186	0xbe05458b	-0.1301481
187	0xbd2c2f2b	-0.04203717
188	0x3d9f315b	0.07773086
189	0xb9e0a894	-0.0004285021
190	0x3dc53e8f	0.09631073
191	0x3ce262fd	0.027635092
192	0x3ce052db	0.027383259
193	0x3d5e2f8f	0.054244574
194	0x3daf5fa4	0.08563164
195	0xbd7737b1	-0.060355846
196	0xbbf932b1	-0.00760492
197	0x3c8fbdf0	0.017546624
198	0xbdfa15f6	-0.1221122
199	0x3c9e70dd	0.019340927
200	0x3df4b9e8	0.11949521
201	0x3e539ee8	0.20666087
202	0xbde340fd	-0.1109638
203	0x3e296c6d	0.16545267
204	0xbe0245d7	-0.12721954
205	0xbc385fac	-0.011253279
206	0x3d1eec73	0.038799714
207	0xbdc84360	-0.09778476
208	0xbd061bf2	-0.032741494
209	0xbd81920c	-0.06326684
210	0x3caa7b55	0.020810762
211	0xbe63ffc6	-0.22265539
212	0xbc252631	-0.010079906
213	0xbe0e9a8d	-0.13926144
214	0xbcc412d0	-0.023934752
215	0xbc55152c	-0.013005536
216	0xbcaabf87	-0.02084328
217	0xbd889eca	-0.066709116
218	0x3d9e875d	0.07740662
219	0x3d837932	0.064196005
220	0xbd9ec2c9	-0.07751996
221	0x3d1e7cea	0.038693346
222	0xbc88202b	-0.016616901
223	0x3de98311	0.11401952
224	0xbd8a76a7	-0.067609124
225	0xbd5aa1f4	-0.053377107
226	0x3d4ffcac	0.050778076
227	0x3e36caa7	0.17850743
228	0xbd70b3d6	-0.058765255
229	0x3e0f11ad	0.13971587
230	0x3d773c5e	0.060360305
231	0xbb151ac1	-0.0022751542
232	0xba89babe	-0.0010507924
233	0x3dbf92d5	0.09354178
234	0x3c9a898c	0.018864416
235	0x3db6b0db	0.08920451
236	0xbd8711bc	-0.065951794
237	0x3cb19558	0.021677658
238	0x3d3d4f35	0.046218116
239	0x3d6d38fe	0.05791568
240	0xbd938870	-0.07203758
241	0xbde39ef5	-0.11114303
242	0xbdfa4ec5	-0.12222055
243	0x3dff2952	0.12459053
244	0x3d22f6e7	0.039786246
245	0x3e271068	0.16314852
246	0xbc994981	-0.018711807
247	0x3e228c78	0.15873897
248	0x3cfc48cd	0.030796433
249	0x3dbf98c7	0.09355312
250	0x3d0fb885	0.03508808
251	0xbd108bf1	-0.03528971
252	0x3cf6277a	0.03004812
253	0x3d801fbc	0.06256053
254	0xbdf33e01	-0.11877061
255	0xbd85aea5	-0.065274514

network_body._body_endoder.seq_layers.2.bias f4 [128]
0	0x3ccf0c0c	0.0252743
1	0xba8e8d9e	-0.0010875945
2	0x3b27d379	0.0025608225
3	0x3beb9245	0.0071890675
4	0xbbb36e51	-0.005475797
5	0x38d5cf2e	0.00010195222
6	0x3b345adc	0.0027519977
7	0xb9c80794	-0.0003815262
8	0xba6e823b	-0.00090983853
9	0xbbff1015	-0.0077838995
10	0xbaab4d07	-0.0013069221
11	0xbbf31cd2	-0.007419207
12	0xbbdbefe7	-0.006711948
13	0x3b8fd4f4	0.0043893997
14	0xbb1fd1ef	-0.0024386605
15	0xbafa3f3d	-0.0019092333
16	0x3b96cca4	0.004602032
17	0xbbf57df9	-0.0074918238
18	0x3c9d0f72	0.019172404
19	0xba8f83fb	-0.0010949367
20	0x3aaa858a	0.0013009768
21	0x3cd50e7b	0.026007881
22	0xbad4ccb9	-0.0016235329
23	0xbacfc949	-0.0015852834
24	0xbb120eec	-0.0022286726
25	0xbb21e222	-0.0024701436
26	0xbb0167b6	-0.0019745654
27	0xbb1680fe	-0.002296507
28	0x3c468376	0.012116304
29	0xbb27272a	-0.0025505521
30	0xbbfe530e	-0.0077613657
31	0xbb63d96c	-0.0034767045
32	0xbaae5d25	-0.0013302906
33	0xbac32701	-0.0014888943
34	0xbb1d22e1	-0.0023977088
35	0xbc123e0f	-0.008925929
36	0x3b7c3e91	0.003848944
37	0xbb859a56	-0.004077236
38	0xbb0c705c	-0.0021429276
39	0x3b6eb7a2	0.0036425372
40	0x39a3b2b8	0.0003122294
41	0x39d3c2ff	0.0004039034
42	0xbba89639	-0.005144861
43	0xbc16da4a	-0.009207318
44	0x3aca4a32	0.0015433489
45	0x3bae5f5c	0.0053214263
46	0x3aa94202	0.0012913349
47	0xbb028fa9	-0.0019922054
48	0x3b4df8bd	0.0031428777
49	0x3b9c6758	0.0047730617
50	0x3ac0db82	0.0014713856
51	0xbb3c0658	-0.0028690305
52	0xbb730699	-0.003708279
53	0x3abf4b92	0.0014594665
54	0xba58affa	-0.00082659686
55	0x3a510d35	0.0007974685
56	0x3b44b7d2	0.0030016792
57	0xbb32baa2	-0.0027271886
58	0x3b3ece3b	0.0029114622
59	0xba5e719e	-0.0008485558
60	0xbb11812f	-0.0022202244
61	0xbb3b6d93	-0.0028599247
62	0x3b8b9d9c	0.004260732
63	0x39b3622e	0.0003421469
64	0xbafc3e0f	-0.0019244569
65	0x3b7b184d	0.0038314045
66	0x3a47f76f	0.0007628118
67	0xbada2374	-0.0016642646
68	0xba7cb482	-0.0009639935
69	0xbc3e9ce2	-0.011634083
70	0x3b04482a	0.0020184615
71	0xbb05ca4c	-0.0020414768
72	0x3b05c722	0.0020412882
73	0xbaf1a886	-0.0018437065
74	0xba681875	-0.0008853742
75	0xbb8307f0	-0.003998749
76	0xbb7317f0	-0.0037093125
77	0xbad8275b	-0.0016491221
78	0x3c6ee31b	0.014580513
79	0xbba6d660	-0.0050914735
80	0xbb9daa22	-0.004811541
81	0xb92bd2b2	-0.00016386321
82	0x3c8ee1c5	0.01744164
83	0x3a84670b	0.001010151
84	0xbbb98d5b	-0.005662603
85	0xba72d798	-0.00092636934
86	0x3ae9c915	0.0017836416
87	0x3a4da99d	0.0007845404
88	0x3b8d2b6e	0.0043081557
89	0xbbc9d12f	-0.00615897
90	0x3b3e988a	0.002908262
91	0xbb3d721a	-0.002890712
92	0x3c76853d	0.015046415
93	0xbb4dc176	-0.003139583
94	0x37579d6b	1.285165e-05
95	0xbb1d71c9	-0.002402412
96	0xbb3d867f	-0.0028919277
97	0x3ab6a155	0.0013933579
98	0xbaac84ad	-0.0013162099
99	0x3b9f80d7	0.004867654
100	0x38b84b12	8.787787e-05
101	0xba254dea	-0.00063058606
102	0x3a9ee5c2	0.0012122917
103	0x3abfdc31	0.0014637766
104	0x3b88968b	0.0041683367
105	0xba30c05a	-0.000674253
106	0xbbaf4a02	-0.0053493986
107	0xb9fbf41d	-0.0004805633
108	0x3ad8e905	0.0016548937
109	0xbb9a153d	-0.004702239
110	0xb9809d9f	-0.000245315
111	0xbaad1df0	-0.0013207775
112	0x3a88c1d6	0.0010433744
113	0x3b33eb67	0.0027453543
114	0xbb2fa515	-0.0026801277
115	0x3be6f8aa	0.007048686
116	0xbb480272	-0.0030519036
117	0xbaa269d2	-0.0012391156
118	0xbbb985fd	-0.0056617246
119	0xbb4c31c8	-0.0031157602
120	0xbc3fa38f	-0.01169671
121	0x3b2fec6c	0.00268438
122	0xb90c2301	-0.0001336448
123	0x3a2aaa9e	0.00065104093
124	0xbb08e86d	-0.002089049
125	0xbb0aae5a	-0.002116105
126	0x3b495ebb	0.003072663
127	0xbbe66ec8	-0.007032249

action_model._continuous_distribution.log_sigma f4 [1, 2]
0	0xbce47894	-0.027889527
1	0xbc79b68e	-0.015241278

action_model._continuous_distribution.mu.weight f4 [2, 128]
0	0x3c8372ff	0.016046045
1	0x3bf3c01c	0.0074386727
2	0xbc2d360a	-0.010571966
3	0xbc58ab82	-0.013224484
4	0x3c268a63	0.01016483
5	0xbcb8d68e	-0.022563245
6	0xbcd207c6	-0.025638472
7	0x3d070518	0.032963842
8	0xbcdb70c6	-0.026787173
9	0xbc393658	-0.0113044605
10	0xbcc0dbad	-0.02354225
11	0x3c95ba1e	0.018277224
12	0xbc03aeed	-0.008037311
13	0x3beafff9	0.0071716276
14	0x3c3ff078	0.011715047
15	0x3ad1588b	0.0015971822
16	0x3b073896	0.0020633093
17	0x3c5e3e4f	0.01356466
18	0xbd0a0ce6	-0.033703707
19	0x3cd1e123	0.025620049
20	0x3d07bbc6	0.03313806
21	0x3b06642a	0.002050648
22	0x3c66349b	0.014050628
23	0xbb408a52	-0.002937932
24	0xbc3b3220	-0.011425525
25	0xbc386306	-0.011254078
26	0xbcdfa3e9	-0.027299838
27	0x3c50556a	0.012715677
28	0x3cc6a0b5	0.024246553
29	0x3c714ae3	0.014727327
30	0xbd044128	-0.0322887
31	0x3c25b0f8	0.010112993
32	0xbcdaf395	-0.026727477
33	0xbc76f516	-0.0150730815
34	0x3ccd1354	0.02503363
35	0xbd2768ec	-0.040871546
36	0xb9b57ef5	-0.000346176
37	0x3bf4110f	0.0074483226
38	0xbbc0a6fa	-0.00587928
39	0xbbc78bb6	-0.006089653
40	0xbce61043	-0.028083926
41	0x3b6f84c9	0.0036547652
42	0xba913e57	-0.0011081201
43	0xbb278704	-0.0025562653
44	0x3cfd012e	0.030884352
45	0xbc42aafb	-0.011881585
46	0x3ca8314a	0.020531315
47	0x3d2f152b	0.042744797
48	0xbbe6caa4	-0.0070431996
49	0xbd0a2bb9	-0.033733103
50	0x3b330b8a	0.002732011
51	0xbc0dff6f	-0.008666857
52	0x3a0627d2	0.0005117628
53	0x3c5804cf	0.01318474
54	0x3ca608b9	0.020267831
55	0x3b2e2326	0.0026571243
56	0xbbd5c45a	-0.006523651
57	0x3cadeab3	0.021230077
58	0x3b37074a	0.0027927929
59	0x3c2af47c	0.010434266
60	0xbc38e5e9	-0.011285284
61	0xbb2059f6	-0.0024467683
62	0x3c676fec	0.014125805
63	0xbc83d1a6	-0.01609118
64	0xbcdfba20	-0.027310431
65	0xbc132bac	-0.00898258
66	0x3b849d16	0.0040470464
67	0x3c76d9f8	0.015066616
68	0xbcafd3d7	-0.021463318
69	0xbbe4c76a	-0.00698178
70	0x3bdb73de	0.006697162
71	0xbca9f877	-0.02074836
72	0x3cdff170	0.027336806
73	0x3c03dd44	0.008048359
74	0xbb7ed35a	-0.00388833
75	0x3b21ed8f	0.0024708246
76	0x3c0cfcec	0.008605223
77	0xbc60082a	-0.013673821
78	0x3cd0cfb3	0.025489664
79	0x39a62164	0.00031686865
80	0xbb86c131	-0.0041123857
81	0x3a7b44fc	0.00095851696
82	0x3b52aa06	0.00321448
83	0xbc269dd8	-0.010169469
84	0x3c6188f3	0.013765561
85	0xbd190888	-0.03736165
86	0xbc5f5280	-0.013630509
87	0xbc71b360	-0.014752239
88	0x3bc886d2	0.0061195875
89	0x3c05cddb	0.008166756
90	0x3c882119	0.016617345
91	0xbc598f26	-0.013278758
92	0x3b11b231	0.0022231454
93	0x3c9a87bb	0.01886355
94	0x3c172c59	0.009226882
95	0x3c4b49ce	0.012407733
96	0x3b1f9bde	0.0024354379
97	0xbc4d07e8	-0.012514092
98	0xbc7a1d17	-0.015265725
99	0xbd001164	-0.031266585
100	0xbc48af1c	-0.012248781
101	0x3d0b18e7	0.033959296
102	0xbcdbf5e6	-0.026850652
103	0x3bb63c62	0.0055613974
104	0x3b8534da	0.0040651383
105	0xbc802a4e	-0.015645172
106	0x3c1cd23d	0.009571609
107	0xbc482962	-0.012216898
108	0x3d6cb0a9	0.057785664
109	0xbc4dfdad	-0.012572688
110	0x3c83fbb4	0.016111232
111	0xbd04175a	-0.032248832
112	0x3c1ba088	0.009498723
113	0xbc9cf4fb	-0.019159785
114	0xbafbc312	-0.0019207916
115	0x3cc677f5	0.024227122
116	0xbbc17608	-0.005903963
117	0x3bdc434b	0.006721889
118	0x3a7cd5a9	0.0009644875
119	0x39dba105	0.00041890904
120	0xbb705d5c	-0.003667674
121	0x3c04647f	0.008080601
122	0xbc1c2195	-0.009529491
123	0xbb2b2abb	-0.0026117999
124	0x3d217694	0.039419726
125	0xbc0abae5	-0.008467411
126	0x3c2e23fc	0.0106286965
127	0xbc6e68a6	-0.014551317
128	0x3d82ce3b	0.063869916
129	0xbb683b6b	-0.0035435806
130	0x3ae1ed00	0.0017236769
131	0x3d0518a9	0.03249422
132	0xbc9cb500	-0.019129276
133	0xbc986a29	-0.018605309
134	0xbc9de162	-0.01927251
135	0x3cafc6e4	0.021457143
136	0xbb096591	-0.002096508
137	0x3cc03b5b	0.023465803
138	0xba770dde	-0.00094243686
139	0x3c32a792	0.01090421
140	0xbb41bf4b	-0.0029563482
141	0x3d5e9a96	0.054346643
142	0x3c7a7f3c	0.015289124
143	0x3d3aa6b0	0.04556912
144	0x3c949fcb	0.018142601
145	0x3beb437b	0.007179675
146	0x3d322bf4	0.04349895
147	0x3ba82d8a	0.005132382
148	0xbd0ce643	-0.034399282
149	0x3d731a08	0.059350997
150	0x3cdfb712	0.027308974
151	0xbcb7ec6d	-0.022451604
152	0x3baffdff	0.005370855
153	0x3ba3dc84	0.0050006527
154	0x3caa889e	0.020817097
155	0xbbab40d7	-0.0052262354
156	0x3d2f6b2d	0.04282682
157	0x3bb9a103	0.005664946
158	0xbc2b57bd	-0.01045793
159	0x3af77b8f	0.0018881428
160	0xbba85b57	-0.0051378417
161	0xbcfa9671	-0.030589314
162	0xbc851ffb	-0.016250601
163	0xbc1b02b5	-0.009461095
164	0xbca3353b	-0.019922843
165	0xbcd8ae83	-0.026450401
166	0x3c06610d	0.00820185
167	0x3ca93e9c	0.020659737
168	0xbce5d16a	-0.028053958
169	0xbc41f932	-0.011839198
170	0x3c62efdf	0.013851135
171	0x3c21787d	0.009855387
172	0x3c20e3f0	0.00981997
173	0xbccad256	-0.0247585
174	0x3cfc3743	0.03078807
175	0x3c672d9f	0.014109998
176	0xbd394886	-0.04523518
177	0x3c3ba93d	0.011453924
178	0x3cfc8ec0	0.030829787
179	0x3c559e48	0.0130382255
180	0x3c002ddd	0.007823435
181	0x39fc70f0	0.0004814933
182	0x3a257863	0.00063121895
183	0xbc54e74c	-0.012994599
184	0xbcdff160	-0.027336776
185	0xbcb4cc28	-0.022070006
186	0x3d02f2af	0.031969722
187	0x3cb1eebe	0.021720286
188	0x3c57d37b	0.0131729795
189	0xba959a4e	-0.0011413784
190	0x3cd82b89	0.026387947
191	0x3a3c2957	0.0007177791
192	0x3c242156	0.0100177135
193	0xbcbead43	-0.023275977
194	0xbcd8a93c	-0.026447885
195	0xbce1aac5	-0.02754725
196	0x3b1aa847	0.0023598836
197	0x3a2ac8df	0.00065149175
198	0x3c364281	0.011124254
199	0x3b650fb7	0.0034951994
200	0x3c412a09	0.011789807
201	0x3c9ad465	0.018900106
202	0xbc9e2f30	-0.01930961
203	0x3c1d61da	0.009605849
204	0x3cc63185	0.024193535
205	0x3b3a5fb6	0.0028438396
206	0x3c713840	0.014722884
207	0x3b2328ac	0.0024896068
208	0xbaa12891	-0.0012295415
209	0xbc68a65d	-0.01419982
210	0xbcebdc85	-0.028791675
211	0xbb339923	-0.002740451
212	0x3c2724a5	0.010201608
213	0x3ba303b1	0.0049748053
214	0xbc1e101e	-0.009647397
215	0xbc5b7ac7	-0.013395972
216	0x3c9d5085	0.019203434
217	0x3d138fd2	0.03602583
218	0x3cecd2b2	0.028909061
219	0x3a884d43	0.0010399002
220	0x3d4faf22	0.05070413
221	0x3cb3a2cc	0.021928214
222	0x3ca049fb	0.019566527
223	0x3bcddaa0	0.0062821656
224	0x3c83d387	0.016092075
225	0xba4d6ddc	-0.00078365
226	0x3afa8009	0.0019111644
227	0x3bcc7048	0.006238971
228	0xbc114b63	-0.008868071
229	0x3bcb5d34	0.006206179
230	0xbc44e4d5	-0.012017448
231	0xbc9cbe51	-0.019133719
232	0x3d4d41a3	0.050111424
233	0xbbdc268a	-0.0067184614
234	0xbcd01cf9	-0.02540444
235	0x3bc5582d	0.0060224743
236	0x3c1c74ab	0.0095493
237	0xbc6698ac	-0.014074486
238	0xbb1cb315	-0.0023910452
239	0x3c3e75ad	0.011624736
240	0xbca1844c	-0.019716404
241	0xbc85f160	-0.016350448
242	0x3c25ceff	0.0101201525
243	0x3c58f7ec	0.013242703
244	0x3bcd9b0a	0.0062745856
245	0x3c35850f	0.011079087
246	0x3b76fe3a	0.0037688152
247	0xbbd51e05	-0.0065038227
248	0x3c8f8e37	0.017523868
249	0xbd1520bd	-0.036408175
250	0xbc78399d	-0.015150455
251	0xbca86284	-0.020554788
252	0x3b8a9f26	0.0042303978
253	0xbc01fe64	-0.007934187
254	0x3c43a1ed	0.011940462
255	0x3b82164e	0.003969944

action_model._continuous_distribution.mu.bias f4 [2]
0	0x39b4722c	0.0003441734
1	0xbac2929f	-0.0014844722

exp_avg f4 [128, 6]
0	0x393e3658	0.00018140057
1	0x399ff747	0.0003051108
2	0xb9781365	-0.00023658348
3	0xb8c0c096	-9.191145e-05
4	0x39a38159	0.00031186154
5	0xb9a49e91	-0.0003139866
6	0xba201445	-0.0006106536
7	0xba45a080	-0.000753887
8	0x3a56abf4	0.0008189075
9	0x396e21e9	0.00022710081
10	0xba49ffe0	-0.000770567
11	0x3a4b602e	0.00077581673
12	0x3637eedc	2.740816e-06
13	0x3664f9e2	3.4120098e-06
14	0xb70c98d2	-8.3802315e-06
15	0xb589f482	-1.0278457e-06
16	0x366a0c03	3.487571e-06
17	0xb66ba3e8	-3.5113135e-06
18	0x3885b205	6.375093e-05
19	0x38c2ed92	9.294892e-05
20	0xb8a5286c	-7.875342e-05
21	0xb7eae149	-2.799988e-05
22	0x38c73da2	9.5005395e-05
23	0xb8c8992e	-9.565275e-05
24	0xb508a421	-5.0902787e-07
25	0x391e669b	0.00015106278
26	0xb98d65c2	-0.0002696943
27	0xb83eddce	-4.55061e-05
28	0x3921e7cb	0.00015440506
29	0xb9230241	-0.00015545731
30	0xba108501	-0.0005512983
31	0xba2b6df3	-0.0006539516
32	0x39d45ad7	0.00040503472
33	0x394e90b0	0.00019699591
34	0xba2f38ed	-0.0006684203
35	0x3a306a98	0.0006729751
36	0xba33f1b9	-0.00068643276
37	0xba7d7ebd	-0.00096700696
38	0x3a3038cf	0.00067223323
39	0x3998b9b8	0.0002913007
40	0xba818d42	-0.0009884017
41	0x3a826f43	0.0009951371
42	0xb841ff62	-4.625263e-05
43	0xb87d9fea	-6.0468832e-05
44	0x378705f4	1.6096026e-05
45	0x3798cda6	1.8215575e-05
46	0xb8819e3b	-6.180672e-05
47	0x38828054	6.222786e-05
48	0xb317f7b0	-3.5382698e-08
49	0xb399f394	-7.168924e-08
50	0x33014113	3.0094338e-08
51	0x32b98144	2.1595618e-08
52	0xb39d5b81	-7.327527e-08
53	0x339e6dfc	7.3774544e-08
54	0x37b02851	2.0999609e-05
55	0x37f07892	2.8666374e-05
56	0xb757c686	-1.2861221e-05
57	0xb710e0f0	-8.635441e-06
58	0x37f5ca98	2.9300616e-05
59	0xb7f77761	-2.9500285e-05
60	0xb8d2f519	-0.00010059233
61	0xb8c7477e	-9.502376e-05
62	0x3935c01c	0.00017333071
63	0x37f01f8f	2.8624925e-05
64	0xb8cbb03a	-9.712619e-05
65	0x38cd1389	9.7788004e-05
66	0x395fc3ad	0.00021339832
67	0x3833153b	4.2696698e-05
68	0xb9d2bf97	-0.00040197067
69	0xb757c9ff	-1.28620295e-05
70	0x38370bba	4.364152e-05
71	0xb8384afe	-4.393886e-05
72	0xb99c9f0f	-0.00029873147
73	0xb98b0dc3	-0.000265224
74	0x38d71a6f	0.000102569225
75	0x38a78de4	7.98961e-05
76	0xb98e217b	-0.00027109295
77	0x398f195e	0.00027293985
78	0x38e9270e	0.0001111758
79	0x392a7f59	0.00016259904
80	0xb9592e51	-0.00020711987
81	0xb84d7149	-4.8981314e-05
82	0x392e451a	0.00016619675
83	0xb92f7516	-0.00016732918
84	0xb9f095f4	-0.0004588809
85	0xba170006	-0.00057601964
86	0x3a241004	0.000625849
87	0x3935f2e2	0.00017351986
88	0xba1a5742	-0.0005887636
89	0x3a1b6485	0.00059277593
90	0xb77197dd	-1.4400078e-05
91	0xb7668fcb	-1.3742548e-05
92	0x37770c00	1.4725141e-05
93	0x368ae899	4.1397984e-06
94	0xb76ba9ae	-1.4046598e-05
95	0x376d44bf	1.4142307e-05
96	0x39d3bd53	0.00040386114
97	0x3a23865c	0.00062379777
98	0xb9f3798f	-0.0004643914
99	0xb9450a74	-0.00018791278
100	0x3a272489	0.00063759886
101	0xba28482b	-0.0006419445
102	0x33e6a432	1.07400766e-07
103	0x34c96db4	3.7518987e-07
104	0xb41aeeaf	-1.44292e-07
105	0xb3f2b695	-1.13022146e-07
106	0x34cde28f	3.834907e-07
107	0xb4cf49c8	-3.8610438e-07
108	0x3954caba	0.00020293417
109	0x39bfa039	0.00036549734
110	0xb9d6632c	-0.0004089115
111	0xb8e6e6cd	-0.000110102446
112	0x39c3dda6	0.0003735844
113	0xb9c53350	-0.00037613
114	0x34341f6f	1.6775242e-07
115	0x34681de0	2.1617552e-07
116	0xb3b45438	-8.3972225e-08
117	0xb38bd86e	-6.51206e-08
118	0x346d4094	2.2095838e-07
119	0xb46ede78	-2.2246411e-07
120	0x37a122a7	1.9208832e-05
121	0x37aec055	2.0831978e-05
122	0xb826bb15	-3.9751718e-05
123	0xb6d29163	-6.275413e-06
124	0x37b29e1d	2.129288e-05
125	0xb7b3d5b6	-2.143798e-05
126	0x3895fda7	7.15212e-05
127	0x38a05475	7.645126e-05
128	0xb8b51004	-8.633736e-05
129	0xb7c130de	-2.3030148e-05
130	0x38a3e09c	7.8142824e-05
131	0xb8a4fe76	-7.8675264e-05
132	0x365b1c74	3.2650105e-06
133	0x3728a69e	1.0052374e-05
134	0xb73d84da	-1.129621e-05
135	0xb64b37a0	-3.0281735e-06
136	0x372c61da	1.0274782e-05
137	0xb72d8e93	-1.0344799e-05
138	0x3a473508	0.000759915
139	0x3a70c59b	0.0009184719
140	0xba7c6080	-0.0009627417
141	0xb9910f61	-0.00027668013
142	0x3a76195b	0.00093879335
143	0xba77c6ac	-0.00094519067
144	0xba5ead6d	-0.00084944704
145	0xba87b729	-0.0010354269
146	0x3a863803	0.0010240081
147	0x39a3880b	0.00031191143
148	0xba8ab7d8	-0.0010583354
149	0x3a8ba9d8	0.0010655476
150	0xb96523f7	-0.0002185254
151	0xb9cb0782	-0.0003872477
152	0x3a0b2ce1	0.00053091167
153	0x38f4a44e	0.00011665431
154	0xb9cf8574	-0.00039581547
155	0x39d0ef7a	0.00039851276
156	0xb78a6e08	-1.650212e-05
157	0xb7b9778b	-2.2109385e-05
158	0x3747ffc5	1.1920875e-05
159	0x36df7ae1	6.660223e-06
160	0xb7bd920c	-2.2598564e-05
161	0x37bedcbc	2.2752552e-05
162	0xba02bc66	-0.000498718
163	0xba276203	-0.00063851493
164	0x39fbaf17	0.00048004903
165	0x3949b079	0.00019234595
166	0xba2b1618	-0.00065264245
167	0x3a2c4088	0.0006570895
168	0x3a8dee3c	0.0010828446
169	0x3ac12b04	0.0014737551
170	0xbab07a38	-0.0013464158
171	0xb9e8c26b	-0.0004439534
172	0x3ac57126	0.0015063628
173	0xbac6c99b	-0.0015166284
174	0xb867acce	-5.523563e-05
175	0xb91c198b	-0.00014886835
176	0xb920b408	-0.00015325856
177	0x383c17fa	4.4845023e-05
178	0xb91f8dbd	-0.00015216223
179	0x3920a3fd	0.0001531988
180	0xba13320f	-0.00056150643
181	0xba373b46	-0.00069897284
182	0x39ee2d6a	0.00045428734
183	0x395cc94f	0.00021055828
184	0xba3b491d	-0.00071443786
185	0x3a3c8fcf	0.000719306
186	0x39c07155	0.00036705533
187	0x3a0da7a5	0.0005403704
188	0xba483038	-0.00076365797
189	0xb92ab03b	-0.00016278114
190	0x3a10c9f0	0.0005523255
191	0xba11c691	-0.00055609
192	0x38bf2190	9.113841e-05
193	0x38c22b18	9.258668e-05
194	0xb72ecd39	-1.041899e-05
195	0xb7e9f6d3	-2.7890701e-05
196	0x38c676e3	9.46352e-05
197	0xb8c7d127	-9.528017e-05
198	0xba2fa265	-0.0006699919
199	0xba8b48c0	-0.001062654
200	0x39f7accb	0.00047240252
201	0x39a7d4e4	0.00032011338
202	0xba8e5da2	-0.0010861645
203	0x3a8f55fd	0.0010935661
204	0x383f2336	4.557074e-05
205	0x386e8298	5.6865247e-05
206	0xb83d0388	-4.50644e-05
207	0xb78fb281	-1.713005e-05
208	0x3873c977	5.8123343e-05
209	0xb87572bd	-5.851941e-05
210	0xb985fe2e	-0.00025557115
211	0xb96a8676	-0.0002236607
212	0x38307ecc	4.207976e-05
213	0x388d4bf6	6.737553e-05
214	0xb96fb6d6	-0.00022860928
215	0x39715906	0.00023016715
216	0xb7a189ea	-1.9256917e-05
217	0xb887b451	-6.470888e-05
218	0x38f1f364	0.000115371105
219	0x37a384bd	1.9492925e-05
220	0xb88ab507	-6.614072e-05
221	0x388ba6e5	6.659123e-05
222	0x39a65607	0.00031726083
223	0x3a20088f	0.0006104791
224	0xba5db920	-0.0008458067
225	0xb940d56c	-0.00018390053
226	0x3a2392f7	0.0006239856
227	0xba24b051	-0.00062823767
228	0xb65b5c93	-3.2687428e-06
229	0xb6842365	-3.938027e-06
230	0x36540eb8	3.159903e-06
231	0x359f389c	1.1862899e-06
232	0xb6870fd7	-4.0251575e-06
233	0x3687fb71	4.052585e-06
234	0x3a939bcc	0.0011261641
235	0x3aba47bd	0.0014212054
236	0xbab7d03b	-0.001402385
237	0xb9e075be	-0.00042812334
238	0x3abe66d4	0.0014526495
239	0xbabfb2f9	-0.0014625482
240	0xb9c1a5d6	-0.00036935386
241	0xba0596fa	-0.00050960446
242	0x39ad4974	0.00033051858
243	0x3920f852	0.00015351296
244	0xba088b98	-0.00052087894
245	0x3a0979d6	0.000524429
246	0x39aebf47	0.0003333038
247	0x39f1fa73	0.000461537
248	0xba368b2e	-0.00069634884
249	0xb911c980	-0.00013903342
250	0x39f75513	0.00047174896
251	0xb9f90485	-0.00047496348
252	0xba346048	-0.0006880802
253	0xba61c700	-0.0008612722
254	0x3a2f5c44	0.0006689469
255	0x398806b3	0.00025944933

exp_avg_sq f4 [128, 6]
0	0x354e91c7	7.6953114e-07
1	0x35494183	7.4973667e-07
2	0x34567339	1.9972221e-07
3	0x33921aa8	6.8035035e-08
4	0x35524283	7.8327884e-07
5	0x35552297	7.939902e-07
6	0x3680f04b	3.842671e-06
7	0x36a1959b	4.8155903e-06
8	0x368f800e	4.2766396e-06
9	0x34ea9bb3	4.3699183e-07
10	0x36a8d04a	5.031038e-06
11	0x36ab1f44	5.099837e-06
12	0x31c613ef	5.7648246e-09
13	0x3216267c	8.7398995e-09
14	0x3184de0d	3.86695e-09
15	0x305a01ce	7.93105e-10
16	0x321cde34	9.130918e-09
17	0x321f035f	9.255785e-09
18	0x3249473d	1.17159376e-08
19	0x32a03e3e	1.8654756e-08
20	0x330634b4	3.124724e-08
21	0x30e8a92b	1.6928302e-09
22	0x32a7698f	1.9489361e-08
23	0x32a9b3a3	1.9755879e-08
24	0x3285614c	1.5527483e-08
25	0x33a49fd9	7.665921e-08
26	0x33a762c3	7.794508e-08
27	0x31ef05b7	6.956465e-09
28	0x33abfd58	8.008891e-08
29	0x33ae5773	8.118413e-08
30	0x35805ae4	9.563196e-07
31	0x3580aa0d	9.586234e-07
32	0x3578bf6b	9.266575e-07
33	0x33bacf97	8.69906e-08
34	0x35866bae	1.0015117e-06
35	0x35884243	1.0152074e-06
36	0x36e4fcef	6.824375e-06
37	0x3701ff49	7.748437e-06
38	0x375f2500	1.33004505e-05
39	0x353cbf00	7.03134e-07
40	0x3707d02c	8.095096e-06
41	0x3709ab97	8.205788e-06
42	0x32d01555	2.4224088e-08
43	0x3305fcb3	3.1196304e-08
44	0x332b7d6b	3.9928107e-08
45	0x314289f1	2.8309126e-09
46	0x330bfb4a	3.2592006e-08
47	0x330de54f	3.3037676e-08
48	0x2af66b9e	4.3773053e-13
49	0x2b0b1284	4.9408416e-13
50	0x2abd006c	3.3573437e-13
51	0x2949ec1f	4.4835768e-14
52	0x2b114b5b	5.1618925e-13
53	0x2b1347f7	5.232476e-13
54	0x30f7ade6	1.802104e-09
55	0x30d9dffd	1.5852489e-09
56	0x2fcad842	3.6897246e-10
57	0x2f1e2b44	1.4385387e-10
58	0x30e39f60	1.6561721e-09
59	0x30e6bc3a	1.67882e-09
60	0x33d766a9	1.00303915e-07
61	0x3392cbc9	6.835723e-08
62	0x34983276	2.8348921e-07
63	0x31d52312	6.203103e-09
64	0x33995d1a	7.141553e-08
65	0x339b760a	7.239221e-08
66	0x35a5665a	1.2323246e-06
67	0x35a62062	1.2377388e-06
68	0x364f1801	3.0859376e-06
69	0x33f13401	1.12318965e-07
70	0x35ad8f16	1.2931148e-06
71	0x35afeeaf	1.3107982e-06
72	0x362f6316	2.6134708e-06
73	0x3650b893	3.1101852e-06
74	0x36ad1227	5.157915e-06
75	0x34978606	2.8223457e-07
76	0x365a0f17	3.2493315e-06
77	0x365d0a83	3.2937685e-06
78	0x3507c30e	5.057526e-07
79	0x354c203b	7.6042824e-07
80	0x3493812b	2.7474866e-07
81	0x33943011	6.90053e-08
82	0x35554224	7.944493e-07
83	0x35582cb2	8.053131e-07
84	0x3609ebf0	2.0551925e-06
85	0x36255974	2.4638985e-06
86	0x364ba594	3.0345736e-06
87	0x3470132b	2.2358715e-07
88	0x362cbf37	2.57413e-06
89	0x362f1bfc	2.6093321e-06
90	0x30a5283a	1.2016763e-09
91	0x30c2c1c8	1.4170434e-09
92	0x3106e64c	1.9630475e-09
93	0x2f0d62e3	1.2859007e-10
94	0x30cb7863	1.480441e-09
95	0x30ce40bc	1.5006871e-09
96	0x36b1c474	5.297881e-06
97	0x36db67a5	6.5387744e-06
98	0x3712cece	8.750429e-06
99	0x351f4794	5.9336276e-07
100	0x36e5388e	6.8313157e-06
101	0x36e85aff	6.924732e-06
102	0x2ca8f628	4.802176e-12
103	0x2c8ef6d5	4.0632866e-12
104	0x2d5901e2	1.233544e-11
105	0x2acf92a9	3.6872353e-13
106	0x2c955c36	4.245072e-12
107	0x2c97670f	4.30312e-12
108	0x353250da	6.642782e-07
109	0x35371991	6.8210016e-07
110	0x35d70054	1.6018844e-06
111	0x3384ec75	6.18974e-08
112	0x353f4aa9	7.126169e-07
113	0x3541e85b	7.2236224e-07
114	0x291162a4	3.2282025e-14
115	0x293a9fe8	4.1438993e-14
116	0x2853600e	1.17336814e-14
117	0x27877b83	3.760394e-15
118	0x2942f964	4.3292965e-14
119	0x2945a3ec	4.3884967e-14
120	0x30cccdb0	1.4901413e-09
121	0x3097527c	1.101014e-09
122	0x3197275f	4.3991544e-09
123	0x2edbb54a	9.9911704e-11
124	0x309e179a	1.1502721e-09
125	0x30a04107	1.1660014e-09
126	0x32e8d932	2.7107124e-08
127	0x331ff120	3.7239374e-08
128	0x32ffd59c	2.9783045e-08
129	0x3168393d	3.379298e-09
130	0x33271903	3.8905466e-08
131	0x332961fb	3.943749e-08
132	0x2eab4987	7.789241e-11
133	0x2fc21d0c	3.5309033e-10
134	0x2fc16faf	3.5185851e-10
135	0x2e0ceb45	3.2041276e-11
136	0x2fcacc4d	3.688875e-10
137	0x2fcd9244	3.739321e-10
138	0x368565ff	3.975583e-06
139	0x36b5b54d	5.4153265e-06
140	0x3695c625	4.463613e-06
141	0x3503e9cf	4.914154e-07
142	0x36bdd66e	5.657602e-06
143	0x36c06f0f	5.734975e-06
144	0x3682f0e8	3.902347e-06
145	0x36920b8b	4.352483e-06
146	0x36f9b245	7.4415316e-06
147	0x34d40bea	3.9496746e-07
148	0x36989450	4.547219e-06
149	0x369aaa6f	4.6093987e-06
150	0x36f62cc1	7.3365813e-06
151	0x36f833b2	7.396994e-06
152	0x37af9ea6	2.0935502e-05
153	0x35342f64	6.712419e-07
154	0x3701a738	7.727933e-06
155	0x37036d29	7.833624e-06
156	0x318df553	4.1315302e-09
157	0x3163e321	3.3161955e-09
158	0x318a48d2	4.0246073e-09
159	0x2fa57004	3.0092917e-10
160	0x316e1534	3.464561e-09
161	0x317156b3	3.5119399e-09
162	0x36423a3d	2.8942152e-06
163	0x36522255	3.1312422e-06
164	0x36aec76b	5.2088194e-06
165	0x34988c9f	2.8414522e-07
166	0x365b8913	3.271333e-06
167	0x365e899e	3.3160682e-06
168	0x372e0731	1.0372883e-05
169	0x375b7464	1.30805165e-05
170	0x37e5ab21	2.7378615e-05
171	0x359f50d7	1.1869951e-06
172	0x376545e1	1.3665734e-05
173	0x3768687b	1.3852604e-05
174	0x348359a4	2.4465874e-07
175	0x34946e55	2.7647425e-07
176	0x3517002b	5.625213e-07
177	0x32d782b0	2.5088724e-08
178	0x349b1258	2.8884347e-07
179	0x349d3138	2.927934e-07
180	0x36508f67	3.1077886e-06
181	0x3658e987	3.232244e-06
182	0x369ca41a	4.6682662e-06
183	0x349d7850	2.9331068e-07
184	0x36629ddb	3.3768508e-06
185	0x3665b72d	3.4230281e-06
186	0x36911d75	4.324766e-06
187	0x369e8083	4.7237277e-06
188	0x37429cac	1.1599779e-05
189	0x34e621ff	4.2865574e-07
190	0x36a597de	4.935063e-06
191	0x36a7db9d	5.002554e-06
192	0x363e5dd4	2.8366821e-06
193	0x36598e79	3.241845e-06
194	0x36afb2af	5.236208e-06
195	0x349df00a	2.941818e-07
196	0x36634a2a	3.3868805e-06
197	0x366665e7	3.4331986e-06
198	0x36cc7272	6.092997e-06
199	0x36d68ec1	6.3943157e-06
200	0x374eca42	1.2325649e-05
201	0x351bc2c0	5.80254e-07
202	0x36e0281a	6.6803887e-06
203	0x36e338e5	6.7717506e-06
204	0x328b9e14	1.6253615e-08
205	0x3299e8e4	1.791745e-08
206	0x32c3f867	2.2813948e-08
207	0x30df7710	1.6259225e-09
208	0x32a0cba7	1.8719062e-08
209	0x32a2fe8d	1.8975038e-08
210	0x3587c92d	1.0116834e-06
211	0x358d4e56	1.0528117e-06
212	0x34b75f40	3.415571e-07
213	0x33cd2a5d	9.553762e-08
214	0x3593a0bc	1.0999133e-06
215	0x3595a58f	1.1149549e-06
216	0x350156a4	4.8182324e-07
217	0x34bd5691	3.526698e-07
218	0x3571020a	8.9782463e-07
219	0x330973d2	3.2003136e-08
220	0x34c5cf25	3.6844827e-07
221	0x34c883aa	3.73487e-07
222	0x355fd894	8.3389136e-07
223	0x35d7ad69	1.6069217e-06
224	0x36687268	3.4637287e-06
225	0x341c92d9	1.4582055e-07
226	0x35e153a4	1.6788149e-06
227	0x35e46875	1.7017725e-06
228	0x2e66f8b3	5.2516835e-11
229	0x2e6ba41f	5.3578583e-11
230	0x2e9a99dd	7.030441e-11
231	0x2cab1107	4.8620027e-12
232	0x2e762ef7	5.5975637e-11
233	0x2e798cc7	5.674108e-11
234	0x36684666	3.4611671e-06
235	0x36e81829	6.9169514e-06
236	0x3710cd5b	8.630882e-06
237	0x35287ddd	6.276803e-07
238	0x36f27a5e	7.2264074e-06
239	0x36f5cb46	7.325233e-06
240	0x35de6435	1.6569453e-06
241	0x35e32793	1.6924336e-06
242	0x3669d61b	3.4844331e-06
243	0x3424e7ce	1.535802e-07
244	0x35ed5132	1.7681507e-06
245	0x35f09001	1.7923304e-06
246	0x35a54302	1.231296e-06
247	0x36317c8e	2.6447556e-06
248	0x36044991	1.9712354e-06
249	0x3480d931	2.3999885e-07
250	0x36396d5d	2.7630806e-06
251	0x363bf677	2.8008633e-06
252	0x36a2a40c	4.847074e-06
253	0x36b0dd19	5.270948e-06
254	0x370e7774	8.491672e-06
255	0x35006576	4.783136e-07

exp_avg f4 [128]
0	0xb85ed5c8	-5.3128024e-05
1	0x3909a613	0.00013127206
2	0xb51f7c48	-5.941297e-07
3	0xb787c4d2	-1.6184906e-05
4	0xb7dca7a2	-2.6304104e-05
5	0x38eecdc9	0.00011387055
6	0x39308fad	0.00016838191
7	0x3730a6c2	1.0529244e-05
8	0x325674ef	1.2483027e-08
9	0xb6a77d67	-4.9915866e-06
10	0x378accaf	1.6546195e-05
11	0xb6f9772c	-7.4346517e-06
12	0x3841b449	4.618269e-05
13	0xb7ed8178	-2.831289e-05
14	0x38d25869	0.00010030048
15	0x36209681	2.3929463e-06
16	0xb8e3caef	-0.00010862003
17	0xb38c4be9	-6.533066e-08
18	0xb8857813	-6.3643e-05
19	0xb321abca	-3.7641975e-08
20	0xb6736e62	-3.6274073e-06
21	0xb75f5793	-1.3312226e-05
22	0xb5eaeee8	-1.750389e-06
23	0xb927b311	-0.00015993069
24	0x393d0dbf	0.00018029565
25	0x388d6959	6.7430265e-05
26	0x36812ddf	3.8498397e-06
27	0x38e92aba	0.00011118264
28	0xb9868b06	-0.00025662052
29	0x37d972fe	2.5921963e-05
30	0x38ff3e8f	0.00012171
31	0xb8c553d2	-9.409305e-05
32	0xb7873d66	-1.6121845e-05
33	0x39420666	0.00018503665
34	0xb7261fc0	-9.901763e-06
35	0x38235944	3.8945363e-05
36	0x373d09cf	1.1267562e-05
37	0xb8deedd1	-0.00010630082
38	0x35381217	6.8571666e-07
39	0xb981bee1	-0.00024747013
40	0x38ba17a6	8.873576e-05
41	0xb8a88a32	-8.036605e-05
42	0x391d4172	0.00014997067
43	0xb96b24e9	-0.00022425097
44	0xb5a74393	-1.2462136e-06
45	0x342bc60f	1.599767e-07
46	0xb81a814e	-3.6836886e-05
47	0xb85ec2fb	-5.3110514e-05
48	0xb7a6fcdb	-1.9906487e-05
49	0xb871bfd0	-5.7637517e-05
50	0x37707cb7	1.4334152e-05
51	0xb85e4a50	-5.2998133e-05
52	0x37ff3e49	3.0427373e-05
53	0xb90182c3	-0.00012351111
54	0x38f6245f	0.00011736969
55	0xb8b5db18	-8.671562e-05
56	0xb57035aa	-8.948506e-07
57	0xb9ab4342	-0.00032665773
58	0x34f3f6ea	4.544193e-07
59	0x3860d732	5.3606178e-05
60	0xb9b410de	-0.00034344842
61	0x38d75485	0.00010267742
62	0x38158d09	3.5655718e-05
63	0xb681593e	-3.8548887e-06
64	0x388885b2	6.509888e-05
65	0x38287667	4.0164592e-05
66	0x36d3c711	6.3114644e-06
67	0x3363b859	5.302022e-08
68	0xb84e79c5	-4.9227634e-05
69	0x369dbebe	4.70117e-06
70	0xb897aa84	-7.232002e-05
71	0xb74ee2e4	-1.2331384e-05
72	0xb8648e76	-5.4492113e-05
73	0xb921317b	-0.0001537259
74	0xb6a74f1e	-4.9861983e-06
75	0x38cd1a44	9.780054e-05
76	0xb896b85a	-7.1868955e-05
77	0x390065d7	0.0001224497
78	0x39b4d3c7	0.00034490062
79	0xb91bb83c	-0.00014850585
80	0xb8b56f8f	-8.651532e-05
81	0xb715f14a	-8.937272e-06
82	0x38e06580	0.00010700058
83	0x38e67267	0.00010988564
84	0xb8d57018	-0.000101775106
85	0xb316f095	-3.5143405e-08
86	0xb6a3b9ae	-4.8793945e-06
87	0xb8253383	-3.938704e-05
88	0x394a088e	0.00019267408
89	0x37909e28	1.7239785e-05
90	0xb91134df	-0.00013847974
91	0xb92cd431	-0.00016482246
92	0x311f082f	2.3142197e-09
93	0x361e5d3f	2.359811e-06
94	0x35b280f1	1.329956e-06
95	0x36c78d7e	5.947134e-06
96	0xb5854e74	-9.932105e-07
97	0xb75ad3cd	-1.3043126e-05
98	0xb8d34f4c	-0.00010076034
99	0xb707f794	-8.104271e-06
100	0xb5a8c6bf	-1.2574818e-06
101	0xb5cbb03c	-1.517597e-06
102	0xb8f5cb66	-0.00011720396
103	0x393826a7	0.00017562007
104	0xb66f9f94	-3.5706662e-06
105	0xb7847a1f	-1.5792493e-05
106	0xb86259c5	-5.3966203e-05
107	0xb779c4b3	-1.4887354e-05
108	0x33f77954	1.1523903e-07
109	0x38e6b22a	0.0001100044
110	0x3658705f	3.2251917e-06
111	0xb930b734	-0.00016852916
112	0x3758a04d	1.2911926e-05
113	0x3536ac43	6.805096e-07
114	0xb7d060c8	-2.48406e-05
115	0xb6f06d3d	-7.1652744e-06
116	0x34530ef1	1.9656342e-07
117	0x38e09cf1	0.00010710385
118	0xb688b977	-4.074707e-06
119	0xb54d44c2	-7.6468507e-07
120	0x388219a2	6.2036575e-05
121	0xb5e1b82e	-1.681741e-06
122	0xb7a801e4	-2.0028041e-05
123	0x339f7cdd	7.426727e-08
124	0xb76fbf35	-1.4290029e-05
125	0x37524e01	1.2535137e-05
126	0x3812f16e	3.503396e-05
127	0xb891ce19	-6.9525275e-05

exp_avg_sq f4 [128]
0	0x32c34481	2.273214e-08
1	0x341cc6d3	1.4600964e-07
2	0x2f91aecd	2.649955e-10
3	0x301b79a3	5.656153e-10
4	0x311fb9e9	2.3243223e-09
5	0x32f9abfa	2.9065621e-08
6	0x347c4217	2.3493372e-07
7	0x30820013	9.458766e-10
8	0x2886ef2d	1.4980714e-14
9	0x2e53646b	4.8065035e-11
10	0x310e6da4	2.0726043e-09
11	0x33212eff	3.7528476e-08
12	0x33ca82b6	9.430134e-08
13	0x32c60d5d	2.305631e-08
14	0x33a06dfc	7.4705866e-08
15	0x2e3cf648	4.2964993e-11
16	0x3454e068	1.9825677e-07
17	0x2a0ab5de	1.231996e-13
18	0x32b1a6e7	2.068141e-08
19	0x26b5125f	1.2564377e-15
20	0x2e12d1d6	3.338293e-11
21	0x309b2ed9	1.1291049e-09
22	0x2d3c567c	1.0705766e-11
23	0x34304d36	1.6419366e-07
24	0x340db325	1.319682e-07
25	0x3470d108	2.2427787e-07
26	0x2edd1b4e	1.0054767e-10
27	0x33cbe1b5	9.49398e-08
28	0x34d4ecc3	3.9660344e-07
29	0x321003b4	8.382745e-09
30	0x33d27545	9.800218e-08
31	0x3419c929	1.4322417e-07
32	0x33d31555	9.8293334e-08
33	0x34502c6b	1.9387669e-07
34	0x3015548d	5.432604e-10
35	0x330919fb	3.1921427e-08
36	0x3237b460	1.06930145e-08
37	0x33514296	4.8722164e-08
38	0x2be4a139	1.6245123e-12
39	0x34613043	2.0972315e-07
40	0x335c654c	5.131487e-08
41	0x33ac349c	8.018944e-08
42	0x342b99e8	1.5981607e-07
43	0x34cb1888	3.7829545e-07
44	0x2dbab9b7	2.1228226e-11
45	0x2b940563	1.0517528e-12
46	0x3208d7ad	7.965281e-09
47	0x332c44cf	4.010945e-08
48	0x3102e113	1.904543e-09
49	0x33b55f69	8.445824e-08
50	0x342a3495	1.5851613e-07
51	0x326405d5	1.3272673e-08
52	0x3351ac38	4.8818237e-08
53	0x33ea96cb	1.0923903e-07
54	0x3438e435	1.7219357e-07
55	0x344899bb	1.8682378e-07
56	0x328bd823	1.6280017e-08
57	0x34572707	2.0037633e-07
58	0x2eb6f191	8.3193126e-11
59	0x331d3c73	3.660939e-08
60	0x34f7b4d4	4.6138905e-07
61	0x33c44665	9.139766e-08
62	0x33b7927c	8.548247e-08
63	0x2f149c18	1.3515977e-10
64	0x32c22009	2.259914e-08
65	0x32dded17	2.5835602e-08
66	0x2ee7d3a3	1.0542258e-10
67	0x2b3e5081	6.761328e-13
68	0x340fb403	1.33834e-07
69	0x2f16d1d2	1.3716964e-10
70	0x34859b6d	2.4886268e-07
71	0x30231d80	5.9340977e-10
72	0x32a37803	1.9030272e-08
73	0x3456cad4	2.0004092e-07
74	0x2f1b63eb	1.4132666e-10
75	0x33c262d2	9.051804e-08
76	0x334e36b3	4.801286e-08
77	0x32743dbb	1.4216705e-08
78	0x352c0c1d	6.409262e-07
79	0x34881f65	2.5354817e-07
80	0x3432e60b	1.6661231e-07
81	0x303d84a5	6.89463e-10
82	0x33890097	6.379667e-08
83	0x33541070	4.9375046e-08
84	0x3380f5c9	6.0051725e-08
85	0x295c6241	4.8935035e-14
86	0x3355e963	4.980519e-08
87	0x34061d0a	1.2490287e-07
88	0x34343d25	1.678605e-07
89	0x30901be0	1.0485302e-09
90	0x337d0cd1	5.891781e-08
91	0x349f7568	2.9701482e-07
92	0x23229a57	8.81472e-18
93	0x2e75f0e9	5.592052e-11
94	0x30796072	9.072273e-10
95	0x3251c56d	1.2210291e-08
96	0x2d477996	1.1338838e-11
97	0x31113b47	2.1133972e-09
98	0x344b540b	1.8936423e-07
99	0x304a8719	7.3679157e-10
100	0x2ff8bd59	4.5245477e-10
101	0x30d4efc1	1.5493172e-09
102	0x344060aa	1.791656e-07
103	0x33f04026	1.11875394e-07
104	0x2e853944	6.058312e-11
105	0x33b05b9f	8.2123044e-08
106	0x34298aec	1.5789891e-07
107	0x303ad6d0	6.797167e-10
108	0x2a82ca58	2.3233043e-13
109	0x3331028a	4.1213333e-08
110	0x338fe4a0	6.700543e-08
111	0x34c6228c	3.690551e-07
112	0x32e1715c	2.6244997e-08
113	0x2e36103f	4.139644e-11
114	0x33813c41	6.017991e-08
115	0x2fe2a686	4.1227483e-10
116	0x2bff118c	1.812371e-12
117	0x33c19212	9.013833e-08
118	0x2fe98d98	4.2483062e-10
119	0x30917671	1.0583802e-09
120	0x3428697c	1.5684594e-07
121	0x308f67e1	1.0434144e-09
122	0x30f804fc	1.8045792e-09
123	0x29d585d6	9.482317e-14
124	0x30b499a7	1.3140394e-09
125	0x322c3dbe	1.0025756e-08
126	0x31ed091d	6.898644e-09
127	0x33ec7fc4	1.1012847e-07
