ML Agent Practice/results/ppo/MoveToGoal/MoveToGoal-172.pt (torch, 149506 bytes, 12 tensors)

network_body._body_endoder.seq_layers.0.weight f4 [128, 6]
000000 be cb 47 3e 36 bf 11 bf ed ce 82 bf aa 6a ae 3d
       0.19511315 -0.5693239 -1.0219399 0.08516438
000010 74 91 4f 3e 1e f1 3c be ec 16 0d 3e bc 53 82 3e
       0.2027033 -0.18451354 0.13778275 0.2545451
000020 af 82 b6 3e 90 b3 f3 3d ae e3 65 3d c4 c0 25 3e
       0.3564658 0.11899483 0.056125335 0.16186816
000030 6f 85 99 3b 73 86 5a be 27 7f c1 3e fc 94 ee 3d
       0.004685096 -0.21340351 0.37792322 0.1164951
000040 66 2f b7 bb 74 b1 0b 3f 95 6c 1a bf b4 80 c5 3e
       -0.005590367 0.54567647 -0.60321933 0.38574755
000050 91 77 1d 3e 60 86 0b 3f 2d 84 34 3f 59 f3 a3 be
       0.15377642 0.54501915 0.70514184 -0.32021597
000060 fa ba 11 3e 81 88 97 3d 32 f7 08 bf 95 40 c6 3e
       0.14231482 0.07399083 -0.5350219 0.38721147
000070 5d 50 ec bd 79 2d 27 3d 95 3b 34 bd 5c a2 f0 be
       -0.115387656 0.04081485 -0.044002134 -0.4699887
000080 e3 b4 0e 3f 1b 2c 0a bf a3 dd ef 3e 3b 97 8f 3e
       0.5574476 -0.5397355 0.46848783 0.28045067
000090 3f ef 1d 3f 98 18 0a bf e4 09 d7 be 59 37 e7 be
       0.61693186 -0.5394378 -0.41999733 -0.45159414
0000a0 50 2c c8 3b a4 0c a4 3d 27 ee 4a 3f c0 50 f6 3e
       0.006108798 0.080102235 0.7926964 0.48108482
0000b0 0e f1 3e be e0 02 70 bd c1 73 ca be 22 aa 05 bf
       -0.18646643 -0.05859649 -0.39541438 -0.5221273
0000c0 86 07 d6 3e 19 b5 ce 3e c6 b0 73 bf dc 29 39 bf
       0.41802615 0.40372542 -0.9519161 -0.723295
0000d0 7c 14 92 bd 65 40 f4 be 74 4b ba 3e de b0 f8 bd
       -0.07132813 -0.4770538 0.3638569 -0.1214311
0000e0 72 64 03 3f 79 52 45 3e 16 e4 9a 3d 86 2b 07 bf
       0.5132514 0.19269742 0.07563035 -0.52800786
0000f0 5b 82 9e bd ee 3c 5c bf 7e 81 df bd 24 e7 b4 bc
       -0.07739707 -0.8603047 -0.109133705 -0.022082873
000100 66 8e 6a 3e f7 77 b7 3c fc b3 2f bd 27 58 a6 3d
       0.22905883 0.02239607 -0.042896256 0.081222825
000110 59 a6 e9 3e 4f 79 02 be 90 c6 58 3e 68 77 76 be
       0.45634726 -0.12741588 0.21169496 -0.24068987
000120 cc f0 82 be 04 0b 7d 3e d4 f6 d3 3e 9b 6b e0 be
       -0.25574338 0.24711233 0.41399252 -0.43832096
000130 43 3a 50 be 98 54 2f be 82 af 41 3f 81 c6 a0 3e
       -0.20334725 -0.17122114 0.7565843 0.31401446
000140 00 12 1e 3e 14 6d 64 bc 16 3f 80 be 4a 7d 5a 3e
       0.15436554 -0.013942022 -0.2504813 0.21336856
000150 b2 89 cb be 4d 79 3e bf 91 02 42 3e dc b5 e2 3c
       -0.3975349 -0.7440384 0.18946292 0.027674608
000160 3f 61 37 3e 05 4a 83 bd b9 82 69 3e d2 e6 8d be
       0.1790819 -0.064106025 0.22803773 -0.27715164
000170 1d 9c e3 be c1 16 43 3f ab 53 ef be 79 18 26 be
       -0.44455042 0.76206595 -0.4674352 -0.16220273
000180 46 95 7c 3e 99 92 ae be b8 1c 3b 3e 83 f3 5c be
       0.24666318 -0.3409622 0.18272674 -0.21577267
000190 75 1f 5c be 96 56 c5 be 76 24 84 3e 03 06 1e 3f
       -0.21496375 -0.38542622 0.25809067 0.61727923
0001a0 d6 82 cc 3e 99 5f d1 be a7 86 df 3e a4 5c 8b 3e
       0.3994357 -0.40893248 0.4365742 0.27219117
0001b0 de f5 98 3e 60 5a 34 3e 51 51 50 be 3b a2 96 be
       0.29875082 0.176126 -0.2034352 -0.29420647
0001c0 ca d4 6c 3f 5e 6e 0d 3f b2 80 54 3e 29 3d f6 3e
       0.9251219 0.5524653 0.20752218 0.48093536
0001d0 66 60 eb be 35 15 18 3f c3 71 0f bf 8e c2 02 3f
       -0.45971984 0.5940736 -0.5603296 0.51078117
0001e0 f2 75 39 3d a0 46 91 3e 70 9c 08 bc cb 7d 2d 3d
       0.045278497 0.28374195 -0.008338079 0.042356294
0001f0 bf 48 2a 3e 8a 26 90 3e 95 ca 23 3e 78 61 9e be
       0.16629313 0.28154403 0.15995248 -0.30933738
000200 88 ac c0 bd 5e f8 07 be 62 07 5e be 20 b7 41 3e
       -0.09407908 -0.13278338 -0.21682504 0.18917513
000210 7b a8 db 3d d5 cc c3 3e 5d 9f ef 3d 4b c4 0a be
       0.107254945 0.38242212 0.11700318 -0.13551442
000220 d1 d8 08 be 9a c8 74 3f f5 1a 06 be a4 4f 40 bf
       -0.13363959 0.95618594 -0.13096221 -0.7512152
000230 da 06 a7 3e 7a 56 47 3e a5 3f 10 bf f9 bd d7 be
       0.32622415 0.19466582 -0.56347114 -0.42137125
000240 4b 2e 1f be 47 fc 72 bd f4 aa e4 3e 3e 08 94 3f
       -0.15545003 -0.05932262 0.44661677 1.1565015
000250 82 a1 bf bb 5c 88 b4 3e c7 aa ca bd 8b ac ff bd
       -0.0058481107 0.35260284 -0.098958544 -0.12484082
000260 ab ac f7 be 74 f8 fa 3d 2d b7 64 be 71 ad db 3e
       -0.48373923 0.1225442 -0.22335501 0.42905763
000270 ab 11 ec 3d 8c 38 a8 3e 74 a5 ee 3e 48 6c 6d be
       0.115268074 0.32855642 0.46610606 -0.23185837
000280 6a 22 96 be 53 88 88 be 6a 2f d9 be ee 9c d3 3e
       -0.2932313 -0.26666507 -0.42418987 0.41330665
000290 c0 80 0f bf 45 61 8c be b2 a2 83 3e 76 04 99 3e
       -0.5605583 -0.2741796 0.25710064 0.29886216
0002a0 74 a3 4c 3e b7 2d b7 3e 5e 8e 75 3e a1 21 87 3e
       0.19984227 0.35777065 0.2398009 0.26392844
0002b0 0b 76 2c 3f 84 41 09 3d 0c 7c fa bd 41 e7 74 3f
       0.6736762 0.033509746 -0.12230691 0.95665365
0002c0 c1 a1 8e 3d ba 67 c1 be a9 86 e4 3d c5 45 1c 3f
       0.06964446 -0.3777445 0.11158497 0.6104396
0002d0 2d 89 fb 3d df c6 86 be 1f c1 2b 3e d9 a3 ae 3e
       0.122820236 -0.26323602 0.16772889 0.3410938
0002e0 23 14 94 be 2b d7 83 3e ea af 07 be dc 56 24 bf
       -0.28921613 0.25750098 -0.132507 -0.64195037
0002f0 f1 b6 a2 bd 0c d9 1f 3f 1c e9 f0 be a1 4e 80 3e
       -0.079450496 0.6244056 -0.47052848 0.2505999
000300 01 17 a5 bd b8 a9 f8 3c d2 bd 60 bc fb 03 00 bf
       -0.08061028 0.030354366 -0.013717132 -0.50006074
000310 8e 56 60 3d 73 52 8c 3e 18 b8 8c be 41 72 d8 be
       0.054770045 0.27406654 -0.27484202 -0.4227467
000320 74 64 cc bd 65 3b 13 3f 3a 70 3f 3f 36 7d c6 bd
       -0.099800974 0.57512504 0.7478062 -0.09691851
000330 be e5 f2 bd 19 1e ac 3e 3a 67 85 3e a0 97 4d 3e
       -0.11860226 0.33616713 0.26055318 0.20077372
000340 70 f4 0f bf 6b 49 8b be e4 d2 13 3f de cf 1a 3f
       -0.5623236 -0.2720445 0.5774367 0.6047343
000350 79 cb b5 be 85 9d 9b bd bf 22 f0 bd 99 d1 5d be
       -0.355068 -0.07598404 -0.11725377 -0.21661986
000360 6c 5c 8a bd dc 46 23 3f b3 1e 05 3f 9b c0 5d bf
       -0.06755909 0.6378 0.5199997 -0.8662202
000370 30 eb 3e bd 7b 1c a5 bd 16 13 61 3d b9 5f 03 bf
       -0.04661101 -0.08062073 0.054949842 -0.51317936
000380 a8 f0 00 3f 7d e9 9c bd 54 0d 04 3e db f7 08 bf
       0.5036721 -0.07661722 0.1289571 -0.535032
000390 41 6f 3f bf a4 ab 05 be 43 b1 3c 3e 25 fa dc 3e
       -0.74779135 -0.13053757 0.18426995 0.43159595
0003a0 d8 62 ca 3d 60 06 c5 be d2 9c a5 bc 44 a0 0b bf
       0.09882134 -0.38481426 -0.02021638 -0.5454142
0003b0 e8 f1 42 bd 14 bd c3 bc e9 65 89 be 53 e0 fc bd
       -0.04759398 -0.02389387 -0.26835564 -0.12347474
0003c0 ec 50 06 3e 3b 99 b0 be e6 3d 42 3f 53 c6 01 3f
       0.13116807 -0.34491906 0.758757 0.50693244
0003d0 48 7d 1c bf 9e 8d 01 bf 87 b1 4f 3d cd 6c 7a be
       -0.61128664 -0.50606716 0.050706413 -0.24455567
0003e0 db e8 df 3d 4f 24 d8 3d 4e 5e 1d bf 91 fb ad be
       0.109330855 0.105538 -0.6147202 -0.33980992
0003f0 a0 37 c4 3e b9 b2 ce 3b 00 92 1a 3f a4 f2 d8 be
       0.38323689 0.0063079265 0.6037903 -0.4237262

network_body._body_endoder.seq_layers.0.bias f4 [128]
000000 00 00 00 00 00 00 00 00 00 00 00 00 00 00 00 00
       0.0 0.0 0.0 0.0
000010 00 00 00 00 00 00 00 00 00 00 00 00 00 00 00 00
       0.0 0.0 0.0 0.0
000020 00 00 00 00 00 00 00 00 00 00 00 00 00 00 00 00
       0.0 0.0 0.0 0.0
000030 00 00 00 00 00 00 00 00 00 00 00 00 00 00 00 00
       0.0 0.0 0.0 0.0
000040 00 00 00 00 00 00 00 00 00 00 00 00 00 00 00 00
       0.0 0.0 0.0 0.0
000050 00 00 00 00 00 00 00 00 00 00 00 00 00 00 00 00
       0.0 0.0 0.0 0.0
000060 00 00 00 00 00 00 00 00 00 00 00 00 00 00 00 00
       0.0 0.0 0.0 0.0
000070 00 00 00 00 00 00 00 00 00 00 00 00 00 00 00 00
       0.0 0.0 0.0 0.0
000080 00 00 00 00 00 00 00 00 00 00 00 00 00 00 00 00
       0.0 0.0 0.0 0.0
000090 00 00 00 00 00 00 00 00 00 00 00 00 00 00 00 00
       0.0 0.0 0.0 0.0
0000a0 00 00 00 00 00 00 00 00 00 00 00 00 00 00 00 00
       0.0 0.0 0.0 0.0
0000b0 00 00 00 00 00 00 00 00 00 00 00 00 00 00 00 00
       0.0 0.0 0.0 0.0
0000c0 00 00 00 00 00 00 00 00 00 00 00 00 00 00 00 00
       0.0 0.0 0.0 0.0
0000d0 00 00 00 00 00 00 00 00 00 00 00 00 00 00 00 00
       0.0 0.0 0.0 0.0
0000e0 00 00 00 00 00 00 00 00 00 00 00 00 00 00 00 00
       0.0 0.0 0.0 0.0
0000f0 00 00 00 00 00 00 00 00 00 00 00 00 00 00 00 00
       0.0 0.0 0.0 0.0
000100 00 00 00 00 00 00 00 00 00 00 00 00 00 00 00 00
       0.0 0.0 0.0 0.0
000110 00 00 00 00 00 00 00 00 00 00 00 00 00 00 00 00
       0.0 0.0 0.0 0.0
000120 00 00 00 00 00 00 00 00 00 00 00 00 00 00 00 00
       0.0 0.0 0.0 0.0
000130 00 00 00 00 00 00 00 00 00 00 00 00 00 00 00 00
       0.0 0.0 0.0 0.0
000140 00 00 00 00 00 00 00 00 00 00 00 00 00 00 00 00
       0.0 0.0 0.0 0.0
000150 00 00 00 00 00 00 00 00 00 00 00 00 00 00 00 00
       0.0 0.0 0.0 0.0
000160 00 00 00 00 00 00 00 00 00 00 00 00 00 00 00 00
       0.0 0.0 0.0 0.0
000170 00 00 00 00 00 00 00 00 00 00 00 00 00 00 00 00
       0.0 0.0 0.0 0.0
000180 00 00 00 00 00 00 00 00 00 00 00 00 00 00 00 00
       0.0 0.0 0.0 0.0
000190 00 00 00 00 00 00 00 00 00 00 00 00 00 00 00 00
       0.0 0.0 0.0 0.0
0001a0 00 00 00 00 00 00 00 00 00 00 00 00 00 00 00 00
       0.0 0.0 0.0 0.0
0001b0 00 00 00 00 00 00 00 00 00 00 00 00 00 00 00 00
       0.0 0.0 0.0 0.0
0001c0 00 00 00 00 00 00 00 00 00 00 00 00 00 00 00 00
       0.0 0.0 0.0 0.0
0001d0 00 00 00 00 00 00 00 00 00 00 00 00 00 00 00 00
       0.0 0.0 0.0 0.0
0001e0 00 00 00 00 00 00 00 00 00 00 00 00 00 00 00 00
       0.0 0.0 0.0 0.0
0001f0 00 00 00 00 00 00 00 00 00 00 00 00 00 00 00 00
       0.0 0.0 0.0 0.0

network_body._body_endoder.seq_layers.2.weight f4 [128, 128]
000000 59 91 cc bc f9 36 15 be 4c 0c 4d 3c 17 3e 51 3e
       -0.02497165 -0.14571752 0.012515139 0.20433842
000010 af f8 67 3d b7 fa 1c bd 02 31 05 3e 4a 9b df 3a
       0.056633648 -0.038325038 0.13006976 0.001705983
000020 be c2 85 3d 66 d6 23 3d 84 35 07 be 0b 24 97 bd
       0.06531285 0.03999939 -0.13204008 -0.073799215
000030 43 e5 36 bc bc ee 70 3d 72 ab e1 bc c3 4d 4e 3d
       -0.011163059 0.058821425 -0.027547572 0.050367128
000040 1a bd e7 3d 4a a8 81 3d 6c e0 a4 3d 33 dd 3a 3d
       0.11315365 0.06330927 0.080506176 0.04562111
000050 f5 4d ad bd 6e 38 81 bd fb 98 bb bc 52 07 1d 3c
       -0.08462135 -0.06309591 -0.022900095 0.009584265
000060 39 20 79 bb df 58 4d bd 69 38 91 3b bf cd 92 be
       -0.003801359 -0.050133582 0.0044317734 -0.28672597
000070 14 89 d8 bd b2 9e 4c 3d c6 d9 3a bd cc 10 f1 bd
       -0.105730206 0.04995603 -0.04561784 -0.11770782
000080 42 9c 6a 3d 50 7b 0c be 60 c3 26 3d 4d e4 b8 3d
       0.057277925 -0.13718915 0.040713668 0.0902792
000090 ce 33 0e be f3 33 8e 3d 7f 19 39 bc 58 6b af 3c
       -0.1388695 0.06943502 -0.011297583 0.02141349
0000a0 97 28 9a 3d a6 ac 4a 3d 1a c5 cb bd 66 8a ae 3c
       0.07527273 0.049481057 -0.099497035 0.021306228
0000b0 c8 d8 91 bc 2f 9a 54 3d a5 8f 8f bd cc ca 1a bd
       -0.017803565 0.051904853 -0.0700982 -0.03779106
0000c0 15 3a 0c 3d e5 66 89 bd 68 68 8b 3c db 3e 5b bc
       0.03423508 -0.06709079 0.017017558 -0.013381685
0000d0 ea 2c a9 3d ab e6 aa bd 12 b1 fc 3d 2f 16 69 3e
       0.0826052 -0.08344778 0.12338461 0.22762369
0000e0 1a fd 39 be 2c 08 08 3e ff c0 02 3d f9 a2 4b 3d
       -0.18162957 0.13284367 0.031922337 0.04971597
0000f0 02 e2 6d 3d e7 65 87 3d 43 2d 16 bd 40 ab 9d 3d
       0.058076866 0.06611233 -0.03666426 0.07698679
000100 15 53 2e be 65 cd ab bd 86 a1 12 3e 22 21 28 bd
       -0.17023881 -0.08388785 0.14319429 -0.041047223
000110 61 80 d2 3d 85 99 b8 bc 2e 75 a3 3c ed 16 9d 3d
       0.102783926 -0.022534141 0.019953337 0.07670388
000120 07 60 da 3d 62 f1 cc 3d 03 63 f5 bc d3 59 dc bd
       0.10662847 0.100069776 -0.029954439 -0.1075932
000130 6f f1 93 bd a1 47 17 3e b9 f7 6e 3d 15 eb f7 3d
       -0.07223784 0.14773418 0.058341715 0.12105385
000140 46 21 cb bc c7 c0 0a be 65 95 a2 3d 0a a6 e9 3c
       -0.02479614 -0.13550101 0.07938651 0.028521556
000150 12 19 07 bc 11 a9 4d 3b 7c f6 a7 3c c5 4b 8f 3d
       -0.008245723 0.003138129 0.020503275 0.06996874
000160 33 35 14 3d 3a 3b 67 bd b6 1e 8b bd 81 e9 ff 3d
       0.036183547 -0.056452967 -0.06792967 0.12495709
000170 b8 0c b9 3c e5 29 49 bd 65 85 00 3d 30 65 0f bd
       0.022589073 -0.04911222 0.031377215 -0.03500861
000180 a7 1b 26 3e a5 37 4b 3e e7 b2 0d be 41 56 13 bd
       0.16221486 0.19845445 -0.13837777 -0.03597093
000190 33 bd d7 bc d5 ff 05 3b 04 3a a7 bd 33 3a 0d 3d
       -0.026335334 0.0020446677 -0.081653625 0.03447933
0001a0 ce 14 03 3d 18 9d a3 bd 38 3a 18 be 06 67 b5 bc
       0.032002263 -0.07988948 -0.14865959 -0.022143852
0001b0 7c 67 43 3e a2 e0 1c bd a1 0c cf bd 76 d8 e5 bd
       0.19082445 -0.038300164 -0.10109831 -0.11222927
0001c0 af 79 4a bd 0d e4 9b 3d ac f2 9d 3d 1f 64 0d 3e
       -0.049432453 0.076118566 0.077123016 0.13807724
0001d0 aa 54 43 bd cc 9f 69 3d c9 4c 6c 3d a7 45 d9 bd
       -0.047688164 0.05703716 0.057690416 -0.10608988
0001e0 6e e7 e4 3d 0e 94 85 bc 06 cb 35 3d 0e 31 08 be
       0.11176954 -0.01630595 0.04438307 -0.13299963
0001f0 8a 0d 83 bb a7 24 c9 3c 5e 56 61 3a 9d 92 e2 bb
       -0.0039994167 0.02455361 0.00085959386 -0.0069144503
000200 d7 20 5f 3d 83 ea 3e 3d 83 51 69 3c 7d 85 08 3e
       0.054474678 0.046610367 0.014240625 0.13332172
000210 a3 2e 95 3b ab 46 ac 3c 45 34 db bd c6 b9 86 3d
       0.0045526787 0.02102979 -0.10703329 0.06578402
000220 d5 56 cd bd 60 47 bb 3d 6a 7a 02 3e b8 33 36 3d
       -0.100263275 0.09144473 0.1274201 0.044482917
000230 78 b1 09 3d 78 1c aa 3d fd a0 73 bd 1e 2a 36 3d
       0.033616513 0.08306211 -0.059479702 0.04447376
000240 dd 02 11 3d b7 98 39 bd 6f a8 c6 bc 68 23 04 3d
       0.03540312 -0.045311656 -0.024250237 0.03226033
000250 0a 23 83 bd 64 0b 9f bd 09 f3 7a 3d b3 4b 1e bd
       -0.064031675 -0.077658445 0.061266933 -0.03864641
000260 a5 2a 11 bb 23 f4 16 bd 54 55 07 be e4 da cd 3d
       -0.0022150662 -0.03685392 -0.13216144 0.10051516
000270 f6 8a 90 3d 32 8b bf bd 4c af bc 3d e6 e4 1f 3d
       0.07057755 -0.09352721 0.09213123 0.039036654
000280 a6 24 9e bd 3f 84 f0 bd 36 98 f0 bd af 1d cd bc
       -0.07721834 -0.11743974 -0.11747782 -0.025038568
000290 ee b4 c4 3d a6 76 54 be f3 cf 4b 3e f4 78 80 bd
       0.09604822 -0.20748386 0.19903545 -0.0627307
0002a0 69 29 89 3a 02 40 00 be c4 64 c4 3d a9 da 17 3e
       0.0010464612 -0.12524417 0.09589532 0.14829506
0002b0 a5 b2 8e 3b 5c 94 22 3e 68 7f 73 3c b1 2a 0c be
       0.004354792 0.15876907 0.014861919 -0.1368816
0002c0 dc e1 c3 bd 9c 4b 6c bc 21 09 67 bd d7 18 7d 3c
       -0.09564564 -0.014422324 -0.05640519 0.015447817
0002d0 17 d0 11 3d c4 85 88 bc ce fc a8 3d 4c ff b1 bd
       0.03559884 -0.016665347 0.08251344 -0.08691272
0002e0 a8 8f 88 3b 52 ca 4c 3c 67 2a 55 3d 5a 84 21 bd
       0.004167516 0.012499409 0.05204239 -0.03943286
0002f0 d8 42 e6 3d 49 29 a9 3d 0a ff 12 be a9 f5 c2 bd
       0.11243218 0.08259828 -0.14355102 -0.09519512
000300 0c ae 42 bd 2a be 22 3e 37 4b 7a bb 3e 29 09 3d
       -0.047529265 0.15892854 -0.0038191804 0.033486597
000310 4d fc a2 bd 32 34 3f 3a 9c ec 04 be 4c 91 aa 3d
       -0.07958279 0.00072938495 -0.12980884 0.083284944
000320 16 28 87 bd 66 25 80 3d 5a cd 51 bd 8d 9d 38 bd
       -0.06599443 0.06257133 -0.05122123 -0.045072127
000330 3b 45 5d 3d 86 8e 54 be 93 77 4e bd 4b 7f 78 bd
       0.0540211 -0.20757493 -0.050407004 -0.06066827
000340 16 40 06 bd 24 d4 ea bb 8a c7 d9 3d 60 3b 33 bd
       -0.03277596 -0.0071664024 0.10633762 -0.043757796
000350 92 d7 2e 3d c4 c8 13 3d 7e 38 fc 3d 7a 95 35 be
       0.042686053 0.036080137 0.123154625 -0.17732802
000360 6f 8e 84 bd 70 9d 18 3d f6 00 cd bd 17 5c 11 be
       -0.064724796 0.03725952 -0.10009949 -0.14195286
000370 27 b9 b4 3d c2 e5 aa 3c 8b a8 e7 39 09 36 e2 3b
       0.088243775 0.02086151 0.00044185328 0.006903414
000380 1c a5 80 bd 2b de 4c 3c 4f 0f 31 3e 89 13 b4 3b
       -0.06281492 0.012504141 0.17290996 0.005495493
000390 7b 46 0e 3e 8c 4e 25 bd a8 65 1b bd c1 9c 7e 3d
       0.13894074 -0.04035811 -0.037938744 0.06216121
0003a0 1e f6 bb 3b b6 9d 72 3d 00 ba 21 3e fb 76 5b 3d
       0.0057361266 0.059232436 0.1579361 0.053580265
0003b0 31 99 6e 3d c6 e6 9e bd 3f f9 2f 3e 82 b5 91 3d
       0.058251563 -0.0775886 0.17184924 0.07114698
0003c0 bb 80 b7 3c ad 7f 8f 3d d1 31 15 3d f6 3a ac 3d
       0.02240025 0.07006774 0.03642446 0.084096834
0003d0 02 31 96 bc 6a 25 94 bd 05 3f ad bc e1 20 fc 3d
       -0.018333916 -0.07233699 -0.021148214 0.12310959
0003e0 b2 8b 19 3d f1 00 09 be 69 e5 0a 3d 40 16 69 bd
       0.03748674 -0.13379265 0.03391019 -0.056905985
0003f0 8b 9b e2 bd bf 07 81 bd 5b 23 a2 bd 59 52 1e 3e
       -0.11064824 -0.063003056 -0.079169 0.154611

network_body._body_endoder.seq_layers.2.bias f4 [128]
000000 00 00 00 00 00 00 00 00 00 00 00 00 00 00 00 00
       0.0 0.0 0.0 0.0
000010 00 00 00 00 00 00 00 00 00 00 00 00 00 00 00 00
       0.0 0.0 0.0 0.0
000020 00 00 00 00 00 00 00 00 00 00 00 00 00 00 00 00
       0.0 0.0 0.0 0.0
000030 00 00 00 00 00 00 00 00 00 00 00 00 00 00 00 00
       0.0 0.0 0.0 0.0
000040 00 00 00 00 00 00 00 00 00 00 00 00 00 00 00 00
       0.0 0.0 0.0 0.0
000050 00 00 00 00 00 00 00 00 00 00 00 00 00 00 00 00
       0.0 0.0 0.0 0.0
000060 00 00 00 00 00 00 00 00 00 00 00 00 00 00 00 00
       0.0 0.0 0.0 0.0
000070 00 00 00 00 00 00 00 00 00 00 00 00 00 00 00 00
       0.0 0.0 0.0 0.0
000080 00 00 00 00 00 00 00 00 00 00 00 00 00 00 00 00
       0.0 0.0 0.0 0.0
000090 00 00 00 00 00 00 00 00 00 00 00 00 00 00 00 00
       0.0 0.0 0.0 0.0
0000a0 00 00 00 00 00 00 00 00 00 00 00 00 00 00 00 00
       0.0 0.0 0.0 0.0
0000b0 00 00 00 00 00 00 00 00 00 00 00 00 00 00 00 00
       0.0 0.0 0.0 0.0
0000c0 00 00 00 00 00 00 00 00 00 00 00 00 00 00 00 00
       0.0 0.0 0.0 0.0
0000d0 00 00 00 00 00 00 00 00 00 00 00 00 00 00 00 00
       0.0 0.0 0.0 0.0
0000e0 00 00 00 00 00 00 00 00 00 00 00 00 00 00 00 00
       0.0 0.0 0.0 0.0
0000f0 00 00 00 00 00 00 00 00 00 00 00 00 00 00 00 00
       0.0 0.0 0.0 0.0
000100 00 00 00 00 00 00 00 00 00 00 00 00 00 00 00 00
       0.0 0.0 0.0 0.0
000110 00 00 00 00 00 00 00 00 00 00 00 00 00 00 00 00
       0.0 0.0 0.0 0.0
000120 00 00 00 00 00 00 00 00 00 00 00 00 00 00 00 00
       0.0 0.0 0.0 0.0
000130 00 00 00 00 00 00 00 00 00 00 00 00 00 00 00 00
       0.0 0.0 0.0 0.0
000140 00 00 00 00 00 00 00 00 00 00 00 00 00 00 00 00
       0.0 0.0 0.0 0.0
000150 00 00 00 00 00 00 00 00 00 00 00 00 00 00 00 00
       0.0 0.0 0.0 0.0
000160 00 00 00 00 00 00 00 00 00 00 00 00 00 00 00 00
       0.0 0.0 0.0 0.0
000170 00 00 00 00 00 00 00 00 00 00 00 00 00 00 00 00
       0.0 0.0 0.0 0.0
000180 00 00 00 00 00 00 00 00 00 00 00 00 00 00 00 00
       0.0 0.0 0.0 0.0
000190 00 00 00 00 00 00 00 00 00 00 00 00 00 00 00 00
       0.0 0.0 0.0 0.0
0001a0 00 00 00 00 00 00 00 00 00 00 00 00 00 00 00 00
       0.0 0.0 0.0 0.0
0001b0 00 00 00 00 00 00 00 00 00 00 00 00 00 00 00 00
       0.0 0.0 0.0 0.0
0001c0 00 00 00 00 00 00 00 00 00 00 00 00 00 00 00 00
       0.0 0.0 0.0 0.0
0001d0 00 00 00 00 00 00 00 00 00 00 00 00 00 00 00 00
       0.0 0.0 0.0 0.0
0001e0 00 00 00 00 00 00 00 00 00 00 00 00 00 00 00 00
       0.0 0.0 0.0 0.0
0001f0 00 00 00 00 00 00 00 00 00 00 00 00 00 00 00 00
       0.0 0.0 0.0 0.0

action_model._continuous_distribution.log_sigma f4 [1, 2]
000000 00 00 00 00 00 00 00 00
       0.0 0.0

action_model._continuous_distribution.mu.weight f4 [2, 128]
000000 03 44 94 3c 4b 4a 4d 3c d7 20 ae bc e6 a9 14 3c
       0.018098837 0.01252992 -0.021255894 0.00907371
000010 75 b9 24 bc b3 fc 72 bc 50 4f 64 3c 8b 4c 9e bc
       -0.010053982 -0.014830756 0.013934925 -0.019323608
000020 c5 67 85 3c 5a 3b ee 3c 80 78 cb bc 2d 5d 06 3d
       0.016284833 0.029081035 -0.024837732 0.032803703
000030 9d 1a 5d 3b 5c 7d 88 bc 1a 83 53 bc 53 45 f8 bc
       0.0033737787 -0.016661339 -0.012909675 -0.030306494
000040 63 3e f0 bc 38 8f 16 bc cd 8d 9f 3c 97 6d 8b bc
       -0.029326623 -0.009189419 0.019476796 -0.01702003
000050 2f 68 89 ba df 8d 7c bc 49 7c 9d 3b da 94 87 bb
       -0.001048332 -0.015414684 0.0048060757 -0.0041376175
000060 9d 32 03 3d 82 7d 8c 3c db fc c6 3a 28 0a 5c 3b
       0.03203069 0.01714969 0.0015181558 0.003357539
000070 74 41 8b 3c cf 16 25 bc ca 6e 6d 3c 28 fa 0e 3c
       0.016998984 -0.010076239 0.014491746 0.008726634
000080 82 eb 01 3c 2b 1f e5 3c f6 81 8e 3b ad 6b 6f ba
       0.007929685 0.027968964 0.0043489886 -0.00091331714
000090 77 ac dc bb af fb 31 3c e3 91 9f bc e6 36 45 bd
       -0.0067344266 0.010863229 -0.019478744 -0.04814806
0000a0 3f e9 b5 3c 8c 3f 9a ba 40 ed 80 3c ca b0 c9 3c
       0.022205947 -0.0011768206 0.01573813 0.024620432
0000b0 bf 9f 8a 3c ea 6c 65 bc 27 eb ca bb 22 32 79 3c
       0.016921876 -0.014003018 -0.006192583 0.0152097065
0000c0 52 47 5b 3c 6d 38 e5 bc d3 b2 0e bc 59 56 c4 3c
       0.013383703 -0.027981007 -0.008709627 0.023966955
0000d0 37 07 90 bc 5f e7 85 bc cb df 01 bb e5 fc b8 3a
       -0.017581565 -0.016345678 -0.001981723 0.0014113454
0000e0 16 c0 a6 bc e6 8e 82 3a 60 99 ec bb 4a 7b e2 3c
       -0.020355266 0.00099608 -0.007220432 0.02764668
0000f0 8b 39 b8 3c c3 b4 58 3c f8 16 db 3b 04 aa 80 bc
       0.022488376 0.013226691 0.0066860877 -0.01570607
000100 45 3a 52 3b f0 23 b6 ba e9 86 1e 3c b3 0d e4 3b
       0.0032078188 -0.0013896208 0.00967572 0.006959641
000110 75 6d d0 bb 7f 2d 15 bd 62 97 11 3b 6f 77 f2 3b
       -0.0063607045 -0.03642034 0.0022215475 0.0073994915
000120 ae 37 3b 3c 43 36 90 bc c8 c1 59 bd 1b bb 66 bb
       0.011426849 -0.017603999 -0.05316332 -0.0035206738
000130 ad 40 31 bd e8 44 c1 bc 30 33 bb bc 7f d9 12 3c
       -0.04327457 -0.023592427 -0.022851557 0.008962988
000140 8d 3e c1 3c 33 66 a6 3b 0a 02 52 bc 77 64 0f bb
       0.023589397 0.005078101 -0.012817869 -0.002187995
000150 f0 52 88 bb d7 ea 8c ba 9a 98 93 3c 28 e0 69 bc
       -0.0041602775 -0.001075114 0.018017102 -0.014274634
000160 ed b3 be bc 6a da 4f bb 13 93 27 bb c4 b6 29 3c
       -0.023279155 -0.0031715878 -0.002556984 0.010358516
000170 7d f1 f8 3a 25 ca 16 bc c2 96 82 3c 0b b3 a4 3c
       0.0018992868 -0.009203468 0.015941028 0.020104906
000180 56 82 80 3c 37 2f c5 bb c4 46 22 bc 17 57 a9 bc
       0.015687149 -0.0060175913 -0.009904567 -0.02067141
000190 9e 71 9a 3c f0 62 9f 3c 55 29 73 3b 47 12 60 3c
       0.018853005 0.019456357 0.0037103493 0.013676233
0001a0 a7 a4 d5 bb 98 11 90 3c 3a ee 77 bb ae dd 33 bb
       -0.006519872 0.017586514 -0.0037831203 -0.0027445364
0001b0 63 57 70 bc 70 70 81 bc 23 56 69 3a 79 b5 ac bb
       -0.014669272 -0.015800685 0.000890108 -0.0052706567
0001c0 03 26 73 3a 30 0c c1 bc 57 0c 98 bc 47 1c e8 3c
       0.00092753785 -0.023565382 -0.018560572 0.028333796
0001d0 27 12 f8 ba 28 31 91 bc 62 62 87 3a 07 53 a2 bc
       -0.0018926308 -0.017723635 0.0010329003 -0.019814981
0001e0 42 78 c5 38 e3 fb 30 3d 17 e9 04 3d 29 b1 16 3d
       9.416092e-05 0.043208968 0.032448854 0.036790047
0001f0 10 fd de 3b 38 c2 90 bc 8a 88 31 3c dc 36 86 bc
       0.0068050697 -0.017670736 0.010835776 -0.01638358
000200 5a 0d b1 bb f5 8e 56 bc 39 62 24 3b 8c 22 33 3c
       -0.005403203 -0.013095607 0.002508296 0.01093353
000210 97 94 75 bc 5f 75 a2 3b 35 35 03 bc 90 e5 16 3d
       -0.01498904 0.0049578394 -0.008008291 0.03684002
000220 5c 4b 87 3c 5d 81 b9 bc ec fa 3a bc 80 1d ce bc
       0.016515426 -0.022644693 -0.0114123635 -0.025160551
000230 d3 58 d6 39 ff 3e 27 bc 9f f4 63 bc f6 2e ab bc
       0.0004088344 -0.0102078905 -0.013913303 -0.020896416
000240 3b c4 41 bc 64 05 86 3c ff 5d 9c bc 83 ba 62 3c
       -0.01182657 0.016359992 -0.01908779 0.013838413
000250 ac 38 cb 3c 5c 47 37 3d 22 fb 57 bc b4 0b bd bb
       0.024807297 0.044745788 -0.013182433 -0.0057692174
000260 03 d2 49 3b cf 47 a1 bb 8b 67 01 b9 09 62 a8 bc
       0.0030795343 -0.0049218903 -0.00012340971 -0.02055456
000270 ca 98 b5 3c 27 3c b2 bc 00 14 cb ba 63 ab 9a 3a
       0.022167582 -0.021757198 -0.0015493631 0.0011800345
000280 8b 46 d6 3c b3 4a 74 bb 69 d2 23 3d 3f 0a 09 bc
       0.026156684 -0.003727597 0.039995585 -0.008364259
000290 60 ef 54 3c 3a 58 6f bb 6f 64 14 3c de 6c 84 bb
       0.012996525 -0.0036521093 0.009057148 -0.0040412983
0002a0 a3 0b bc 3b df 04 c5 bc 07 59 20 3c 3f ce d6 3b
       0.005738692 -0.024050174 0.009786851 0.006555348
0002b0 5a fb 76 3c cf ce 57 bb 10 f4 4d bd 4a 63 1d bc
       0.015074575 -0.0032929664 -0.050281584 -0.009606192
0002c0 00 2e b5 3c 09 b6 ad 3b 18 29 ce 3c b0 cd c5 bc
       0.022116661 0.0053012413 0.02516608 -0.024145931
0002d0 af 5b d3 bc 98 16 31 3c 43 19 44 ba d5 28 f3 3b
       -0.025800554 0.010808609 -0.0007480571 0.007420639
0002e0 2b c2 6f 3c 6b ba 82 bc f2 b4 90 3c a7 74 b5 bb
       0.014633696 -0.015958032 0.017664406 -0.0055375877
0002f0 c5 6a fe bc cd ad 22 bd 52 1c 78 bc 5a 12 e1 3b
       -0.031056771 -0.03971653 -0.015143471 0.0068686428
000300 d8 c7 74 3c cd 6b 5e bc 90 62 6b 3c 42 4a e6 3a
       0.014940225 -0.013575506 0.014366761 0.0017569738
000310 48 ab 20 3b 3b 34 ad 3b d7 59 98 bb 9a 2e 07 3b
       0.0024516154 0.0052857674 -0.0046493816 0.0020627142
000320 3a ad 8c bc ec c0 b7 bc ef 85 33 bc db 3c 61 bc
       -0.017172445 -0.02243086 -0.010957225 -0.013747419
000330 ab 62 97 3b 01 16 12 bd a7 13 c2 bc 3c 4e b4 bc
       0.0046199164 -0.035665516 -0.023691012 -0.022009961
000340 42 a2 29 bd 4e 9b bb 3b 43 22 80 bc 9b a3 50 bc
       -0.041414507 0.005725301 -0.015641337 -0.012734319
000350 e0 ae 12 bc a5 c5 ba bc da 91 48 bc 67 97 88 3c
       -0.008952826 -0.022799322 -0.012241805 0.016673757
000360 00 85 21 3c 93 d0 03 bc b7 ee 92 bb cf 9d 38 3b
       0.00985837 -0.008045333 -0.0044840234 0.0028170233
000370 98 f6 50 3c 51 b2 bd 3b e5 c9 12 bc 1f ff cc 3b
       0.012754105 0.0057890792 -0.008959268 0.0062559987
000380 7a 01 30 3c d9 d5 0c bc 7b ff a0 bc 1b 06 e7 39
       0.01074254 -0.008595907 -0.019653073 0.00044064302
000390 cf fc d9 39 d8 3e 6c bc bc 9d c8 bc b8 bf b4 bc
       0.00041577822 -0.01441928 -0.024489276 -0.022064075
0003a0 2f 59 4f 3c 6b 87 1f 3c bb ca 4a bc fb d5 b6 3c
       0.01265554 0.009736876 -0.012377436 0.02231883
0003b0 8e 30 2f bc ff 07 30 3c 93 2d b0 3c 14 37 8c 3c
       -0.010692729 0.010744094 0.021506106 0.017116107
0003c0 5d 1c 09 bd 13 3c 28 bd 29 b7 8d 3c d1 41 91 bb
       -0.033474315 -0.041072916 0.017299252 -0.0044328948
0003d0 5b dd 28 bc 3f 97 a2 3c 22 e7 b6 3c 48 e3 d4 3c
       -0.0103066815 0.01984751 0.02232701 0.025987282
0003e0 e7 1d 3f bc 1b 71 16 bc 57 c3 25 ba e0 2c 2b 3c
       -0.011664844 -0.00918224 -0.00063233584 0.010447711
0003f0 ff b8 7b bc 5f 2d a2 bc cb 36 1c bb b3 c6 05 bc
       -0.015363931 -0.019797025 -0.002383637 -0.008165049

action_model._continuous_distribution.mu.bias f4 [2]
000000 00 00 00 00 00 00 00 00
       0.0 0.0

network_body._body_endoder.seq_layers.0.weight f4 [128, 6]
000000 c0 28 c3 bc 4a 75 34 3f 8b e8 42 3e 23 58 f7 3c
       -0.023823142 0.7049147 0.1903402 0.030193394
000010 d5 fc 4f be d0 4d 32 be d8 69 62 be cd 00 5e 3e
       -0.20311292 -0.17412496 -0.22110689 0.21679993
000020 ea 9e b2 bd 4d 51 6c 3e a7 39 f2 3e 02 75 1a be
       -0.08721717 0.23077889 0.4730961 -0.15083697
000030 a3 d9 63 be b9 5f 22 bf cd e3 e2 3d 17 bb 1c 3f
       -0.2225099 -0.6342731 0.11078606 0.61222976
000040 ed 2b 91 bd 8c f9 33 be 85 06 e8 3e 66 6a fe bd
       -0.07088456 -0.17575663 0.45317474 -0.12422638
000050 aa 18 5c 3e 80 88 93 3e 47 8d ee 3e f1 bc 9f 3e
       0.21493784 0.2881508 0.4659216 0.31198838
000060 00 e3 54 be ca d6 86 3e 4e 48 86 3e 6b e6 0d 3e
       -0.20789719 0.26335746 0.2622704 0.13857429
000070 4f a5 17 bd 3c 4d 07 3f 37 52 05 3d 56 1f e8 be
       -0.037022885 0.52852225 0.03254911 -0.45336407
000080 d0 9b b8 be 4c 39 f8 3e 45 c9 2a 3f 77 fb 9f 3c
       -0.36056376 0.48481214 0.6671336 0.019529087
000090 5f 65 e5 be d3 d8 1e bf fd 03 9d be a1 fa f6 3c
       -0.44803903 -0.620496 -0.30667105 0.030148806
0000a0 fd f5 c2 be 15 b0 e0 be f0 fc 2d 3e 71 07 d9 be
       -0.380783 -0.4388434 0.16991019 -0.4238849
0000b0 92 67 bc be 09 45 f7 be 27 fc af be 35 eb e0 3d
       -0.36797768 -0.48294857 -0.34372064 0.10982362
0000c0 7b c2 0a 3d 41 24 27 3f 30 d3 ea 3e 34 16 ee be
       0.033876877 0.65289694 0.45864248 -0.46501315
0000d0 8c 9f 37 be 59 23 44 be 92 47 5d bd 6c 81 99 be
       -0.17931956 -0.19154109 -0.054023333 -0.29981554
0000e0 82 dc 67 be 68 98 85 3e a0 49 88 3d 99 43 f6 3a
       -0.22642711 0.2609284 0.06654668 0.0018788456
0000f0 7c 57 5b be ba ac 2d 3e 61 75 58 3e 59 ce ad 3e
       -0.21420091 0.16960421 0.21138526 0.33946493
000100 02 e0 f1 3e 89 0f 9a be 82 ff 07 3f 09 8e 51 3f
       0.47241217 -0.30089977 0.5312425 0.81857353
000110 18 93 ab 3e 66 9a c1 3e 06 14 83 3f c2 70 ae 3e
       0.3351066 0.3781311 1.0240486 0.34070402
000120 a8 6c 08 3f 43 73 4c 3e 0e 7a 15 be a4 76 98 be
       0.53290796 0.19965844 -0.14597341 -0.29778016
000130 f1 70 bf be 94 35 1b bf ef 16 c1 bd 65 dc e9 3e
       -0.37390855 -0.6062863 -0.09428202 0.4567596
000140 7e d5 6a 3d b9 56 1d 3f 47 84 5b bf 8a d2 88 be
       0.05733251 0.61460453 -0.85748714 -0.2672313
000150 f7 76 f4 3e a6 db 89 3e 45 c5 8b be cb c5 2b 3d
       0.47747013 0.2692539 -0.27298942 0.041936677
000160 f7 41 5d bd 59 3b 12 bf 4b 11 95 be 69 15 f5 3e
       -0.054017987 -0.5712181 -0.29114756 0.47867897
000170 71 1a b9 be 75 f7 a0 3e 82 9b 27 3e 97 ed 65 3e
       -0.36152986 0.31438795 0.16367915 0.22453915
000180 98 1e e9 3e 4c 27 39 3e 85 7d ed be 7d 8b 2a bf
       0.45531154 0.18081397 -0.46384826 -0.6661909
000190 2a 5a a6 be e6 50 31 be 00 7f a9 3e f0 54 11 3f
       -0.32490665 -0.17316017 0.33104706 0.5677023
0001a0 59 bc 02 3f 8a bb b6 3e 87 31 13 be 5f c9 f3 3e
       0.51068646 0.35689956 -0.14374362 0.4761457
0001b0 b0 67 3a 3d 77 2e aa 3e 1e 05 5b 3e 3f 37 7e be
       0.04550904 0.33238575 0.21388671 -0.24825762
0001c0 1f bf e7 bd 4e 30 40 bd 05 85 a2 3e f2 22 bb 3e
       -0.1131575 -0.046921067 0.3174211 0.365501
0001d0 c4 84 28 3e 7d 3f e4 3e 86 d9 2e 3d c6 b0 2c bf
       0.16456896 0.44579688 0.042687915 -0.67457235
0001e0 7e fa 49 be e1 ff 55 bd a1 75 01 3e 7c 8f de ba
       -0.19724461 -0.05224598 0.12642528 -0.0016980018
0001f0 9e 8b 33 bc 6a 14 0c bf 4b 31 4e 3f 68 33 83 3c
       -0.01095858 -0.5471865 0.80543965 0.016015723
000200 b3 29 10 3e ab 1e fb bd 51 58 b1 3c 12 c0 56 be
       0.14078407 -0.12261709 0.021648558 -0.20971707
000210 cd 6b a8 3e f3 66 08 3e c6 59 05 3f 0a 23 b8 be
       0.32894745 0.13320522 0.5209011 -0.35964233
000220 7d f1 51 3e 42 3f 44 bd c0 e0 d3 3d fa 53 03 3e
       0.20502277 -0.04791189 0.10345602 0.12825003
000230 f4 d7 b7 3e 5d 26 cd be eb 62 3d 3e 76 a1 b9 be
       0.35906947 -0.4006833 0.18494765 -0.36255997
000240 dc 15 e0 3d f6 60 7d 3f 71 9f c3 3d a7 73 8e bc
       0.10941669 0.98976076 0.095518954 -0.017389132
000250 8f 97 6c 3e e9 40 7e bf fb 72 54 3f 39 35 40 bf
       0.2310469 -0.99317795 0.82987946 -0.7508121
000260 a3 15 05 3f c3 81 56 3e 91 51 26 bb 03 14 0e 3f
       0.5198614 0.20947938 -0.0025378207 0.55499285
000270 f0 14 9d 3e 3f 72 eb be fe 7f 03 3f 45 4f f9 bb
       0.30680037 -0.459856 0.51367176 -0.0076083266
000280 ac 7d b5 be 78 f9 c4 be ea dd c8 3e b6 be 76 be
       -0.35447443 -0.3847158 0.39231807 -0.24096188
000290 56 2c 38 bf fb bf b7 be 2c bb 85 be 32 81 c7 be
       -0.7194265 -0.35888657 -0.26119363 -0.38965756
0002a0 57 f0 5f be f6 bf 04 bf d6 21 3d 3f 0d b5 60 be
       -0.21869026 -0.5185541 0.73879755 -0.21944065
0002b0 d8 27 b0 3e 7f 28 0a 3e 47 42 9e 3e 66 8c 7e be
       0.34405398 0.1349201 0.3090994 -0.24858245
0002c0 a2 f0 03 be 63 b5 12 3e c4 9b 28 bf 36 73 e8 be
       -0.12884763 0.14327006 -0.6586268 -0.454004
0002d0 b8 b8 c5 be 54 8c 94 3d bb 08 2a bf cb 3f 05 bd
       -0.38617492 0.07253328 -0.6641957 -0.03253154
0002e0 d5 bc 02 3f 8e 67 10 be e2 5f 05 bf ff 7d 3e bf
       0.51069385 -0.14102003 -0.5209943 -0.74411005
0002f0 cb cd 23 3f 3f cb 09 bf d3 74 e8 be 2a 2b 9a 3d
       0.6398589 -0.53825754 -0.4540163 0.07527764
000300 dc 25 a8 3d c7 ca 17 bf 21 d9 57 be f6 71 14 3f
       0.08210346 -0.5929379 -0.21078922 0.5798639
000310 0f 27 44 be 63 0e 92 bd 0f 47 5a bf c3 c1 de 3d
       -0.19155525 -0.0713165 -0.85264677 0.10876801
000320 ce d4 55 3e 00 ff bf 3e ba 78 4b be 17 ab 7a be
       0.2088196 0.37499237 -0.19870272 -0.24479328
000330 3f 5a b0 3d b7 5f a5 bd 0a 7b 03 3f 42 7e d4 3d
       0.08610963 -0.08074897 0.5135962 0.10375644
000340 9d aa 0e bf 4f 70 07 bf 24 7d e2 3e f4 4f d9 be
       -0.55729085 -0.52905744 0.442361 -0.42443812
000350 34 3c 11 3e 5d 49 e0 3c 7c 65 c4 bd ba ad a8 3e
       0.14183122 0.027378732 -0.09589669 0.32945043
000360 10 4d 3c bf bb ba 9f be 99 ee ff bc c9 e5 c1 be
       -0.7355509 -0.31197152 -0.031241702 -0.37870625
000370 c2 a1 2f be 84 f9 14 bf 0f 05 3a 3f 54 5d a5 3e
       -0.1715155 -0.5819323 0.7266397 0.32297766
000380 5d b8 c9 be e9 3c 0a 3c 75 1d 7f be 22 c9 56 bf
       -0.3939847 0.008437374 -0.2491358 -0.83900654
000390 59 69 59 be 3a f7 e4 3e b5 08 80 3d ea 2a 24 3d
       -0.21231593 0.4471987 0.06251661 0.04007999
0003a0 e3 1d 56 be 99 e5 b2 3e 74 26 34 bf 75 b1 18 bf
       -0.20909838 0.34940794 -0.70371175 -0.5964578
0003b0 a9 02 e2 3d 49 89 62 3f 80 26 0e 3f 17 eb 89 3c
       0.11035664 0.8849073 0.55527496 0.016835732
0003c0 04 ce 70 bf 7a 82 d1 be df a6 72 be d3 d2 0c bd
       -0.94064355 -0.40919858 -0.23696469 -0.034380745
0003d0 4d 87 9c be 41 9c 89 bd a4 fb 2c bd ca bb d4 3d
       -0.30571976 -0.06719256 -0.04223217 0.103873804
0003e0 e2 18 5d 3e bf 26 00 bf 6c 16 ba be 22 5d 3f be
       0.21591523 -0.5005912 -0.36345232 -0.18687871
0003f0 eb dc cf be 32 f5 b8 be 53 bf 94 be 77 2c 91 be
       -0.40598235 -0.3612457 -0.2905222 -0.28354236

network_body._body_endoder.seq_layers.0.bias f4 [128]
000000 00 00 00 00 00 00 00 00 00 00 00 00 00 00 00 00
       0.0 0.0 0.0 0.0
000010 00 00 00 00 00 00 00 00 00 00 00 00 00 00 00 00
       0.0 0.0 0.0 0.0
000020 00 00 00 00 00 00 00 00 00 00 00 00 00 00 00 00
       0.0 0.0 0.0 0.0
000030 00 00 00 00 00 00 00 00 00 00 00 00 00 00 00 00
       0.0 0.0 0.0 0.0
000040 00 00 00 00 00 00 00 00 00 00 00 00 00 00 00 00
       0.0 0.0 0.0 0.0
000050 00 00 00 00 00 00 00 00 00 00 00 00 00 00 00 00
       0.0 0.0 0.0 0.0
000060 00 00 00 00 00 00 00 00 00 00 00 00 00 00 00 00
       0.0 0.0 0.0 0.0
000070 00 00 00 00 00 00 00 00 00 00 00 00 00 00 00 00
       0.0 0.0 0.0 0.0
000080 00 00 00 00 00 00 00 00 00 00 00 00 00 00 00 00
       0.0 0.0 0.0 0.0
000090 00 00 00 00 00 00 00 00 00 00 00 00 00 00 00 00
       0.0 0.0 0.0 0.0
0000a0 00 00 00 00 00 00 00 00 00 00 00 00 00 00 00 00
       0.0 0.0 0.0 0.0
0000b0 00 00 00 00 00 00 00 00 00 00 00 00 00 00 00 00
       0.0 0.0 0.0 0.0
0000c0 00 00 00 00 00 00 00 00 00 00 00 00 00 00 00 00
       0.0 0.0 0.0 0.0
0000d0 00 00 00 00 00 00 00 00 00 00 00 00 00 00 00 00
       0.0 0.0 0.0 0.0
0000e0 00 00 00 00 00 00 00 00 00 00 00 00 00 00 00 00
       0.0 0.0 0.0 0.0
0000f0 00 00 00 00 00 00 00 00 00 00 00 00 00 00 00 00
       0.0 0.0 0.0 0.0
000100 00 00 00 00 00 00 00 00 00 00 00 00 00 00 00 00
       0.0 0.0 0.0 0.0
000110 00 00 00 00 00 00 00 00 00 00 00 00 00 00 00 00
       0.0 0.0 0.0 0.0
000120 00 00 00 00 00 00 00 00 00 00 00 00 00 00 00 00
       0.0 0.0 0.0 0.0
000130 00 00 00 00 00 00 00 00 00 00 00 00 00 00 00 00
       0.0 0.0 0.0 0.0
000140 00 00 00 00 00 00 00 00 00 00 00 00 00 00 00 00
       0.0 0.0 0.0 0.0
000150 00 00 00 00 00 00 00 00 00 00 00 00 00 00 00 00
       0.0 0.0 0.0 0.0
000160 00 00 00 00 00 00 00 00 00 00 00 00 00 00 00 00
       0.0 0.0 0.0 0.0
000170 00 00 00 00 00 00 00 00 00 00 00 00 00 00 00 00
       0.0 0.0 0.0 0.0
000180 00 00 00 00 00 00 00 00 00 00 00 00 00 00 00 00
       0.0 0.0 0.0 0.0
000190 00 00 00 00 00 00 00 00 00 00 00 00 00 00 00 00
       0.0 0.0 0.0 0.0
0001a0 00 00 00 00 00 00 00 00 00 00 00 00 00 00 00 00
       0.0 0.0 0.0 0.0
0001b0 00 00 00 00 00 00 00 00 00 00 00 00 00 00 00 00
       0.0 0.0 0.0 0.0
0001c0 00 00 00 00 00 00 00 00 00 00 00 00 00 00 00 00
       0.0 0.0 0.0 0.0
0001d0 00 00 00 00 00 00 00 00 00 00 00 00 00 00 00 00
       0.0 0.0 0.0 0.0
0001e0 00 00 00 00 00 00 00 00 00 00 00 00 00 00 00 00
       0.0 0.0 0.0 0.0
0001f0 00 00 00 00 00 00 00 00 00 00 00 00 00 00 00 00
       0.0 0.0 0.0 0.0

network_body._body_endoder.seq_layers.2.weight f4 [128, 128]
000000 f0 cf 8a 3c c5 0e 0c bb 31 21 2d 3e 66 40 ed bd
       0.016944855 -0.0021371108 0.16907193 -0.11584549
000010 73 df 8d bd 16 63 2b bc 60 0e 77 bc f5 c1 f3 bd
       -0.06927385 -0.010460636 -0.015079111 -0.11902229
000020 7b 6b 77 3d db e3 3e 3d 6a 5a d3 3c 21 74 92 bd
       0.060405236 0.04660402 0.025799949 -0.07151056
000030 40 6f da 3d b7 80 b9 bc f2 6d f3 3c e6 eb ba 3d
       0.106657505 -0.022644384 0.029715512 0.09127025
000040 44 b5 9f 3d 3d 8e 75 bc 1a b8 64 3c 97 92 53 3d
       0.077982455 -0.0149875255 0.013959909 0.05165347
000050 c6 c6 fe 3b d3 55 71 be e6 35 db 3d e0 b1 6a bd
       0.0077751605 -0.23567896 0.1070364 -0.05729854
000060 7c 04 ab bb 9c d0 6a bd b0 3e 7f 3d 64 1d eb bd
       -0.0052190404 -0.05732785 0.062315643 -0.11480215
000070 aa 0a 0e 3d ee 3f 42 3e 29 8a 74 3c 12 7c a5 3b
       0.03467814 0.189697 0.014925518 0.0050501907
000080 31 f4 82 bc d6 be cb bc a5 11 4a 3d f6 c7 f5 3d
       -0.01598558 -0.024871271 0.049333233 0.1200103
000090 09 d9 07 bd 2a f6 59 bd d0 84 22 bd 56 22 b3 bd
       -0.033165965 -0.053213276 -0.03967744 -0.087467834
0000a0 da 81 41 3b 80 21 06 3e f9 41 0e 3e c4 5c b3 3d
       0.002952686 0.13098717 0.13892354 0.08757928
0000b0 93 3b b2 bc e2 b3 2e be ae 71 a1 3c 0d 62 07 3e
       -0.021756923 -0.17060807 0.019707527 0.13220997
0000c0 d0 7b 0c bd 6b 3d e2 3d 43 76 b3 bd 98 16 df bd
       -0.034297764 0.11046871 -0.08762791 -0.10892981
0000d0 c7 43 75 3c 7b 76 a1 bc 02 63 8d bd 6d 9b e7 3d
       0.014969773 -0.019709816 -0.0690365 0.11308942
0000e0 64 a4 9f bd 5c 50 29 be 0a dc 18 3e 5d 77 73 3d
       -0.07795027 -0.16534561 0.14927688 0.059440006
0000f0 7e ef 89 3d 0a 02 69 bc 05 30 2a bd bb 09 d1 3d
       0.06735133 -0.014221678 -0.0415497 0.10206934
000100 4b 39 95 3c 1c 48 03 3e c4 40 b6 bd 1d 2a 34 3d
       0.018215796 0.12820476 -0.08899072 0.043985475
000110 91 08 8e 3d 56 2d c5 3d d8 5d db 3b 62 2c 15 3b
       0.06935228 0.09627788 0.0066945367 0.002276205
000120 28 3f a4 bd 77 30 3c bd f0 8c 06 bb 88 67 f9 bb
       -0.080198586 -0.045944657 -0.0020530783 -0.007611219
000130 d7 cc 58 bd a9 e6 0a be e1 39 3b bc 39 03 e6 bc
       -0.052929725 -0.13564552 -0.011427374 -0.028077709
000140 e9 85 ce 3d 49 0e f3 3c 36 21 c3 3d 67 7f 0b 3e
       0.10084135 0.029669898 0.09527819 0.13622819
000150 a3 35 fa 3c 6e 2d 15 3e b0 f7 7e bc 90 f2 3a 3c
       0.030543154 0.14568111 -0.015561983 0.0114103705
000160 58 b8 d7 3c 14 ed c0 bc c1 53 0c 3e c4 ee 61 bd
       0.02633302 -0.023550548 0.13703825 -0.055159345
000170 77 db 86 3d 42 c7 85 3d bb 96 95 3d be c4 a3 bd
       0.06584828 0.06532146 0.0730414 -0.0799651
000180 fe b0 c5 bd ea ad f6 bd 66 d2 01 be 2d a6 8c bc
       -0.09652899 -0.1204489 -0.12677917 -0.017169083
000190 9d 26 2b bc f6 47 23 3e f3 45 8d bd e2 72 48 3e
       -0.010446218 0.1594542 -0.068981074 0.19575074
0001a0 fe f8 80 bd 51 fe ab bd 10 b8 16 bd b3 3f ae 3d
       -0.062974915 -0.083981164 -0.03679663 0.085082434
0001b0 a9 da 21 3d 35 5a 0a bd 87 74 92 bd 06 d4 9d 3e
       0.03951517 -0.033777434 -0.07151132 0.30825824
0001c0 0d 19 2a 3e a7 6e a2 3d cb 49 65 be 5c 18 0d be
       0.16611119 0.079312615 -0.22391431 -0.13778824
0001d0 32 b6 df 3d de b2 d3 3d ee 55 b1 bd cc 26 19 bd
       0.10923423 0.103368506 -0.08658968 -0.037390515
0001e0 59 30 f8 3b b2 0c 88 bd b1 73 96 bb 0c 7d c6 bd
       0.007574123 -0.066430464 -0.004591428 -0.096918195
0001f0 b6 2c a8 3d 46 a1 a5 3d a1 5c 47 bd 25 63 2f bc
       0.08211653 0.08087401 -0.048672322 -0.01070479
000200 90 85 b9 bd 10 a2 00 be 0b 7c de 3d 26 e1 e3 bd
       -0.09058678 -0.12561822 0.10863503 -0.11126928
000210 fc 8f 4b 3c a2 1d 0d 3e f4 8d 6b be 97 5a aa 3d
       0.012424465 0.13780835 -0.2300337 0.0831806
000220 e3 62 77 bd e5 96 6f bd d6 6c 8d bc 93 d6 ac bd
       -0.06039704 -0.058493514 -0.017263811 -0.08439364
000230 ca 9f 08 bc 93 78 d6 bc da 0c 8f 3d 42 09 e3 3c
       -0.008338878 -0.026180541 0.06984873 0.027714375
000240 9a b7 40 3c 6d 90 38 bd 9c 60 e3 3d 51 4f c3 bd
       0.011762524 -0.04505961 0.11102411 -0.09536613
000250 2c 67 8e bc 6d 20 74 bc 67 4d 0e 3d 81 cf 60 bc
       -0.01738318 -0.014900309 0.034741785 -0.013721348
000260 37 75 93 bd 18 0f 1e 3d fa eb f5 3d 5c fd 1d be
       -0.07200091 0.038588613 0.120078996 -0.1542868
000270 4b 94 b9 bd 9f 81 bc bd de 48 26 3e ef 1d 03 3d
       -0.09061488 -0.09204411 0.16238734 0.03201097
000280 88 b9 98 3c 11 4c 03 be 47 52 57 bc 7d 90 8e 3d
       0.018643156 -0.12821986 -0.013142175 0.06961153
000290 9b 79 8c 3e 97 b8 b7 bd cf 5c b3 3d ef 87 d6 bd
       0.27436528 -0.089707546 0.08757936 -0.10475146
0002a0 53 30 53 be 57 e1 26 be f4 59 62 bd 17 35 17 bd
       -0.20623903 -0.16296898 -0.055261567 -0.036915865
0002b0 90 92 33 bd ec 31 33 be 70 ef 29 bd 99 e3 89 3d
       -0.043840945 -0.17499512 -0.04148811 0.06732864
0002c0 1c 71 3b 3d 62 b6 63 bd 29 ce cf 3d 1b 8f 2e bd
       0.045762166 -0.055593856 0.10146744 -0.042616945
0002d0 b4 53 06 bd 70 e2 06 bc 44 30 07 be a3 91 cc 3d
       -0.03279467 -0.008232698 -0.13202006 0.099887155
0002e0 ec ad 7e 3d 3a 3b 64 3c c3 49 8a 3d 8c 7a 8f 3d
       0.062177584 0.013930136 0.0675235 0.07005796
0002f0 3e 3e 1e 3d 22 28 0f 3e 23 71 96 3c 5c 69 80 bc
       0.038633578 0.13980153 0.018364495 -0.01567524
000300 f9 df 65 bd 72 6e cd 3d 4a 31 9a bd 67 7e 95 bd
       -0.0561218 0.100308314 -0.075289324 -0.072995
000310 b7 ca 02 be 09 81 c6 bb c8 f0 c9 3d 0b f1 bd bd
       -0.12772642 -0.0060578627 0.098603785 -0.09274491
000320 ac a6 11 bb 82 80 2f 3d 73 e1 83 3d ab 55 46 3e
       -0.0022224588 0.042847164 0.064394854 0.19368617
000330 1d 06 44 bc d5 62 82 3d 46 67 0d bc 1d c5 44 3d
       -0.011964348 0.06366507 -0.008630579 0.048039544
000340 93 fa 74 3d 27 79 62 bd 71 2f 2f bd 0f 98 c1 3c
       0.05980928 -0.05529132 -0.042769853 0.023632078
000350 82 ef fb 3d 2d e6 07 bd 1a 0a e9 3d d3 3b 01 be
       0.12301542 -0.033178497 0.1137888 -0.12620477
000360 40 7a 91 be e4 a5 25 3e cf b1 84 3c a7 9e ba 3d
       -0.28413582 0.16176564 0.016198067 0.09112292
000370 30 82 2d 3d 8e 14 20 be 56 69 9b 3d 10 6b e8 bc
       0.042360485 -0.15632841 0.075884506 -0.028371364
000380 03 36 f4 bd 11 2e b3 3c ad 50 36 3e 95 f0 65 bd
       -0.119243644 0.021872552 0.17804213 -0.05613764
000390 62 d9 c2 bd c5 db 66 3e 85 ff 33 3b 9a f7 03 3d
       -0.09514119 0.22544773 0.0027465534 0.032218553
0003a0 19 05 d5 3c e9 ae ce bb 1c b2 fa bc 6c c0 4b 3c
       0.026003407 -0.006307472 -0.030602507 0.012436014
0003b0 77 75 be 3d 4c 73 c9 bd 3b bd 8d 3d c4 f9 eb 3c
       0.092997484 -0.09836444 0.069208585 0.028805621
0003c0 1f 71 a4 3c f9 31 cc bd a3 24 c9 bc f4 70 8e 3d
       0.020073472 -0.09970469 -0.024553603 0.06955138
0003d0 d6 10 7c bd 1a a3 ed bc bb 26 5f 3d 94 a8 93 3b
       -0.061539494 -0.029008437 0.054480296 0.00450618
0003e0 db 49 9e 3d c6 8b 5e 3e 14 cc 03 bd cf 47 6b be
       0.077289306 0.21733007 -0.032177046 -0.22976612
0003f0 2f e7 d5 bc 01 e6 98 3d 28 57 e4 bc 51 52 56 3d
       -0.026111213 0.07465745 -0.02787359 0.052324597

network_body._body_endoder.seq_layers.2.bias f4 [128]
000000 00 00 00 00 00 00 00 00 00 00 00 00 00 00 00 00
       0.0 0.0 0.0 0.0
000010 00 00 00 00 00 00 00 00 00 00 00 00 00 00 00 00
       0.0 0.0 0.0 0.0
000020 00 00 00 00 00 00 00 00 00 00 00 00 00 00 00 00
       0.0 0.0 0.0 0.0
000030 00 00 00 00 00 00 00 00 00 00 00 00 00 00 00 00
       0.0 0.0 0.0 0.0
000040 00 00 00 00 00 00 00 00 00 00 00 00 00 00 00 00
       0.0 0.0 0.0 0.0
000050 00 00 00 00 00 00 00 00 00 00 00 00 00 00 00 00
       0.0 0.0 0.0 0.0
000060 00 00 00 00 00 00 00 00 00 00 00 00 00 00 00 00
       0.0 0.0 0.0 0.0
000070 00 00 00 00 00 00 00 00 00 00 00 00 00 00 00 00
       0.0 0.0 0.0 0.0
000080 00 00 00 00 00 00 00 00 00 00 00 00 00 00 00 00
       0.0 0.0 0.0 0.0
000090 00 00 00 00 00 00 00 00 00 00 00 00 00 00 00 00
       0.0 0.0 0.0 0.0
0000a0 00 00 00 00 00 00 00 00 00 00 00 00 00 00 00 00
       0.0 0.0 0.0 0.0
0000b0 00 00 00 00 00 00 00 00 00 00 00 00 00 00 00 00
       0.0 0.0 0.0 0.0
0000c0 00 00 00 00 00 00 00 00 00 00 00 00 00 00 00 00
       0.0 0.0 0.0 0.0
0000d0 00 00 00 00 00 00 00 00 00 00 00 00 00 00 00 00
       0.0 0.0 0.0 0.0
0000e0 00 00 00 00 00 00 00 00 00 00 00 00 00 00 00 00
       0.0 0.0 0.0 0.0
0000f0 00 00 00 00 00 00 00 00 00 00 00 00 00 00 00 00
       0.0 0.0 0.0 0.0
000100 00 00 00 00 00 00 00 00 00 00 00 00 00 00 00 00
       0.0 0.0 0.0 0.0
000110 00 00 00 00 00 00 00 00 00 00 00 00 00 00 00 00
       0.0 0.0 0.0 0.0
000120 00 00 00 00 00 00 00 00 00 00 00 00 00 00 00 00
       0.0 0.0 0.0 0.0
000130 00 00 00 00 00 00 00 00 00 00 00 00 00 00 00 00
       0.0 0.0 0.0 0.0
000140 00 00 00 00 00 00 00 00 00 00 00 00 00 00 00 00
       0.0 0.0 0.0 0.0
000150 00 00 00 00 00 00 00 00 00 00 00 00 00 00 00 00
       0.0 0.0 0.0 0.0
000160 00 00 00 00 00 00 00 00 00 00 00 00 00 00 00 00
       0.0 0.0 0.0 0.0
000170 00 00 00 00 00 00 00 00 00 00 00 00 00 00 00 00
       0.0 0.0 0.0 0.0
000180 00 00 00 00 00 00 00 00 00 00 00 00 00 00 00 00
       0.0 0.0 0.0 0.0
000190 00 00 00 00 00 00 00 00 00 00 00 00 00 00 00 00
       0.0 0.0 0.0 0.0
0001a0 00 00 00 00 00 00 00 00 00 00 00 00 00 00 00 00
       0.0 0.0 0.0 0.0
0001b0 00 00 00 00 00 00 00 00 00 00 00 00 00 00 00 00
       0.0 0.0 0.0 0.0
0001c0 00 00 00 00 00 00 00 00 00 00 00 00 00 00 00 00
       0.0 0.0 0.0 0.0
0001d0 00 00 00 00 00 00 00 00 00 00 00 00 00 00 00 00
       0.0 0.0 0.0 0.0
0001e0 00 00 00 00 00 00 00 00 00 00 00 00 00 00 00 00
       0.0 0.0 0.0 0.0
0001f0 00 00 00 00 00 00 00 00 00 00 00 00 00 00 00 00
       0.0 0.0 0.0 0.0

value_heads.value_heads.extrinsic.weight f4 [1, 128]
000000 00 f2 be 3c 8a cf ad bd 10 6f 16 3d 90 2f 82 bd
       0.023308754 -0.084868506 0.03672701 -0.06356728
000010 42 15 3f be 60 48 2a bd 7a e8 4e 3e 26 ec 00 be
       -0.18660453 -0.04157293 0.2020587 -0.12590083
000020 62 b5 15 3e b8 6b 7b 3d 34 0d 49 3e d0 c5 34 bd
       0.14619973 0.061382025 0.19633943 -0.04413396
000030 68 af 05 3e b8 0b 39 3d 90 ee 6d bd 6c 35 6a bd
       0.13055193 0.04517719 -0.05808884 -0.057179853
000040 34 12 0e be c0 16 68 bd 68 a2 be 3c ac 31 a5 3d
       -0.13874131 -0.05666232 0.0232708 0.08066115
000050 b8 cc 6e 3d d4 46 a0 3d b0 77 43 3e 80 23 b0 3d
       0.058300704 0.078260094 0.19088626 0.08600521
000060 fc 2b 9d 3d ca 7b 58 3e b2 f9 2e 3e 5e 22 5c 3e
       0.07674405 0.21140972 0.17087439 0.21497485
000070 0c 90 dd 3d 8c 8f 21 3e ca b2 38 be b4 74 3d 3e
       0.108184904 0.15777415 -0.18036953 0.1850155
000080 98 ea 3a 3d 34 28 17 be 96 d7 59 be 98 6f e3 3c
       0.045633882 -0.1476143 -0.21273646 0.027763173
000090 90 35 57 3e 54 d3 a0 3d 25 4d 47 be e0 b5 21 3e
       0.21016526 0.07852808 -0.19463022 0.15792036
0000a0 c8 da 44 bd d4 d6 c6 3d 00 27 4b 3e 78 14 fa 3d
       -0.04806021 0.09708944 0.19839096 0.12210935
0000b0 80 f7 90 3c c0 92 5a bd a8 a2 5e 3d 52 90 2d 3e
       0.017696142 -0.053362608 0.05435434 0.16949585
0000c0 fa a3 9c bd 28 19 24 be b6 c9 11 3e 58 20 58 3e
       -0.076484635 -0.16025221 0.14237103 0.21106088
0000d0 a8 8d 5e bd e8 8c 85 3d 82 0c 22 3e 20 3b d9 3d
       -0.054334313 0.06521016 0.15825084 0.1060698
0000e0 00 cf 08 3d c8 6d ca 3c bf 47 4a be 88 e2 b2 bc
       0.033400536 0.02471055 -0.19753931 -0.021836534
0000f0 10 1c 13 3d f4 6a 11 be 78 06 4b 3d 00 6a f0 3c
       0.035915434 -0.14200956 0.049566716 0.02934742
000100 0c ff 20 3e 96 5c b6 bd f4 fd fd 3d ba 8a 44 3e
       0.15722293 -0.08904378 0.12401953 0.19193545
000110 98 77 fa 3d c8 84 fd 3c 94 38 ef bd c0 7d f6 3d
       0.12229842 0.030947104 -0.11680713 0.12035704
000120 c0 e0 14 bb e2 24 94 bd 30 19 09 3e 2a 49 8a bd
       -0.002271697 -0.07233597 0.13388515 -0.06752236
000130 c8 34 81 3c 3c 95 c8 3d 36 1d 02 3e ba f0 56 3e
       0.015772238 0.09794089 0.12706456 0.20990267
000140 c2 52 ee bd 34 bf 1c be 83 78 4a be 20 20 65 bd
       -0.116368786 -0.15307313 -0.19772534 -0.05593884
000150 28 41 a4 3d 10 33 cf 3c 24 73 b8 3d 67 a8 52 be
       0.0802024 0.025292903 0.09006336 -0.20572053
000160 94 fe 1f bd 98 98 9e 3c c8 d7 c6 3d c2 32 4b be
       -0.039061144 0.019359872 0.09709126 -0.19843581
000170 84 48 59 3e 80 da c7 3b 4a 72 4d 3e 44 62 eb 3d
       0.21219069 0.0060990453 0.20063129 0.11493352
000180 34 a3 81 3d 4f d6 d7 bd be 7f 2e 3e e8 6b 58 3e
       0.06329957 -0.10538923 0.17040917 0.21134913
000190 18 96 15 be 58 13 e4 3c e0 dc 22 3c 60 9a 6e 3d
       -0.14608037 0.027841255 0.009940356 0.058252692
0001a0 b0 68 f9 3d c8 34 04 3e b4 7b 6a bd 4c b9 bc 3d
       0.12178171 0.1291076 -0.05724688 0.0921503
0001b0 14 00 01 be e1 8c 36 be 86 81 06 3e d0 90 12 be
       -0.12597686 -0.17827179 0.13135347 -0.14313054
0001c0 f0 b7 de 3d d0 5e 16 be 68 98 ca 3d 6e 8f 10 3e
       0.10874927 -0.14684606 0.098923504 0.14117214
0001d0 e2 31 2e 3e d8 db 96 3d 49 9f 2b be 08 c0 46 be
       0.17011216 0.073661506 -0.16759981 -0.19409192
0001e0 a0 7a 5f 3d 00 71 a3 bc c4 40 ac 3d 60 ee 97 bb
       0.054560304 -0.019951344 0.084107906 -0.004636571
0001f0 9b 40 26 be c0 33 fd bd 9a 2b ab bd 38 4e 3d 3e
       -0.16235583 -0.12363386 -0.08357926 0.1848687
